#loc = loc("/tmp/torchinductor_root/jy/cjyc4sfbjfrj7y677powlqik4ficjy3szpkglgare2nv44ajz5qh.py":18:0)
#loc70 = loc("/root/miniconda3/envs/flagscale-inference/lib/python3.12/site-packages/triton/language/standard.py":285:0)
#loc72 = loc(unknown)
#loc75 = loc("/root/miniconda3/envs/flagscale-inference/lib/python3.12/site-packages/triton/language/standard.py":260:0)
#loc79 = loc("in_ptr0"(#loc))
#loc80 = loc("in_ptr1"(#loc))
#loc81 = loc("in_ptr2"(#loc))
#loc82 = loc("out_ptr0"(#loc))
#loc83 = loc("out_ptr2"(#loc))
#loc84 = loc("xnumel"(#loc))
#loc85 = loc("r0_numel"(#loc))
#loc136 = loc("input"(#loc70))
#loc137 = loc("a"(#loc75))
#loc138 = loc("b"(#loc75))
module {
  tt.func public @triton_red_fused__to_copy_add_embedding_mean_mul_pow_rsqrt_0(%in_ptr0: !tt.ptr<i32> {tt.divisibility = 16 : i32} loc("in_ptr0"(#loc)), %in_ptr1: !tt.ptr<bf16> {tt.divisibility = 16 : i32} loc("in_ptr1"(#loc)), %in_ptr2: !tt.ptr<bf16> {tt.divisibility = 16 : i32} loc("in_ptr2"(#loc)), %out_ptr0: !tt.ptr<bf16> {tt.divisibility = 16 : i32} loc("out_ptr0"(#loc)), %out_ptr2: !tt.ptr<bf16> {tt.divisibility = 16 : i32} loc("out_ptr2"(#loc)), %xnumel: i32 loc("xnumel"(#loc)), %r0_numel: i32 {tt.divisibility = 16 : i32} loc("r0_numel"(#loc))) attributes {noinline = false} {
    %r0_numel_0 = arith.constant 5120 : i32 loc(#loc86)
    %xoffset = tt.get_program_id x : i32 loc(#loc87)
    %xoffset_1 = arith.constant 1 : i32 loc(#loc88)
    %xoffset_2 = arith.constant 1 : i32 loc(#loc88)
    %xoffset_3 = arith.muli %xoffset, %xoffset_2 : i32 loc(#loc88)
    %xindex = tt.make_range {end = 1 : i32, start = 0 : i32} : tensor<1xi32> loc(#loc89)
    %xindex_4 = tt.expand_dims %xindex {axis = 1 : i32} : tensor<1xi32> -> tensor<1x1xi32> loc(#loc90)
    %xindex_5 = tt.splat %xoffset_3 : i32 -> tensor<1x1xi32> loc(#loc91)
    %xindex_6 = arith.addi %xindex_5, %xindex_4 : tensor<1x1xi32> loc(#loc91)
    %xmask = tt.splat %xnumel : i32 -> tensor<1x1xi32> loc(#loc92)
    %xmask_7 = arith.cmpi slt, %xindex_6, %xmask : tensor<1x1xi32> loc(#loc92)
    %r0_base = tt.make_range {end = 2048 : i32, start = 0 : i32} : tensor<2048xi32> loc(#loc93)
    %r0_base_8 = tt.expand_dims %r0_base {axis = 0 : i32} : tensor<2048xi32> -> tensor<1x2048xi32> loc(#loc94)
    %tmp0 = tt.splat %in_ptr0 : !tt.ptr<i32> -> tensor<1x1x!tt.ptr<i32>> loc(#loc95)
    %tmp0_9 = tt.addptr %tmp0, %xindex_6 : tensor<1x1x!tt.ptr<i32>>, tensor<1x1xi32> loc(#loc95)
    %tmp0_10 = tt.load %tmp0_9, %xmask_7 evictionPolicy = evict_last : tensor<1x1x!tt.ptr<i32>> loc(#loc96)
    %_tmp11 = arith.constant 0.000000e+00 : f32 loc(#loc97)
    %_tmp11_11 = arith.constant dense<0.000000e+00> : tensor<1x2048xf32> loc(#loc97)
    %c0_i32 = arith.constant 0 : i32 loc(#loc13)
    %c2048_i32 = arith.constant 2048 : i32 loc(#loc13)
    %0 = arith.bitcast %c0_i32 : i32 to i32 loc(#loc13)
    %1 = arith.bitcast %r0_numel_0 : i32 to i32 loc(#loc13)
    %2 = arith.bitcast %c2048_i32 : i32 to i32 loc(#loc13)
    %3 = ub.poison : i32 loc(#loc13)
    %_tmp11_12 = scf.for %r0_offset = %0 to %1 step %2 iter_args(%_tmp11_16 = %_tmp11_11) -> (tensor<1x2048xf32>)  : i32 {
      %r0_index = tt.splat %r0_offset : i32 -> tensor<1x2048xi32> loc(#loc99)
      %r0_index_17 = arith.addi %r0_index, %r0_base_8 : tensor<1x2048xi32> loc(#loc99)
      %r0_mask = arith.constant dense<5120> : tensor<1x2048xi32> loc(#loc100)
      %r0_mask_18 = arith.cmpi slt, %r0_index_17, %r0_mask : tensor<1x2048xi32> loc(#loc100)
      %tmp1 = arith.extsi %tmp0_10 : tensor<1x1xi32> to tensor<1x1xi64> loc(#loc101)
      %tmp2 = arith.constant 151936 : i32 loc(#loc102)
      %tmp2_19 = arith.constant dense<151936> : tensor<1x2048xi32> loc(#loc102)
      %tmp3 = arith.extsi %tmp2_19 : tensor<1x2048xi32> to tensor<1x2048xi64> loc(#loc103)
      %tmp3_20 = tt.broadcast %tmp1 : tensor<1x1xi64> -> tensor<1x2048xi64> loc(#loc103)
      %tmp3_21 = arith.addi %tmp3_20, %tmp3 : tensor<1x2048xi64> loc(#loc103)
      %tmp4 = arith.constant 0 : i32 loc(#loc104)
      %tmp4_22 = arith.extsi %tmp4 : i32 to i64 loc(#loc104)
      %tmp4_23 = tt.splat %tmp4_22 : i64 -> tensor<1x1xi64> loc(#loc104)
      %tmp4_24 = arith.cmpi slt, %tmp1, %tmp4_23 : tensor<1x1xi64> loc(#loc104)
      %tmp5 = tt.broadcast %tmp1 : tensor<1x1xi64> -> tensor<1x2048xi64> loc(#loc105)
      %tmp5_25 = tt.broadcast %tmp4_24 : tensor<1x1xi1> -> tensor<1x2048xi1> loc(#loc105)
      %tmp5_26 = arith.select %tmp5_25, %tmp3_21, %tmp5 : tensor<1x2048xi1>, tensor<1x2048xi64> loc(#loc105)
      %c0_i32_27 = arith.constant 0 : i32 loc(#loc21)
      %8 = arith.extsi %c0_i32_27 : i32 to i64 loc(#loc21)
      %9 = tt.splat %8 : i64 -> tensor<1x2048xi64> loc(#loc21)
      %10 = arith.cmpi sle, %9, %tmp5_26 : tensor<1x2048xi64> loc(#loc21)
      %c151936_i32 = arith.constant 151936 : i32 loc(#loc22)
      %11 = arith.extsi %c151936_i32 : i32 to i64 loc(#loc22)
      %12 = tt.splat %11 : i64 -> tensor<1x2048xi64> loc(#loc22)
      %13 = arith.cmpi slt, %tmp5_26, %12 : tensor<1x2048xi64> loc(#loc22)
      %14 = arith.andi %10, %13 : tensor<1x2048xi1> loc(#loc23)
      %true = arith.constant true loc(#loc24)
      %cst = arith.constant dense<true> : tensor<1x1xi1> loc(#loc24)
      %15 = arith.xori %xmask_7, %cst : tensor<1x1xi1> loc(#loc24)
      %16 = tt.broadcast %15 : tensor<1x1xi1> -> tensor<1x2048xi1> loc(#loc25)
      %17 = arith.ori %14, %16 : tensor<1x2048xi1> loc(#loc25)
      tt.assert %17, "index out of bounds: 0 <= tmp5 < 151936" : tensor<1x2048xi1> loc(#loc26)
      %tmp7 = arith.constant 5120 : i32 loc(#loc106)
      %tmp7_28 = arith.constant 5120 : i64 loc(#loc106)
      %tmp7_29 = arith.constant dense<5120> : tensor<1x2048xi64> loc(#loc106)
      %tmp7_30 = arith.muli %tmp7_29, %tmp5_26 : tensor<1x2048xi64> loc(#loc106)
      %tmp7_31 = arith.extsi %r0_index_17 : tensor<1x2048xi32> to tensor<1x2048xi64> loc(#loc107)
      %tmp7_32 = arith.addi %tmp7_31, %tmp7_30 : tensor<1x2048xi64> loc(#loc107)
      %tmp7_33 = tt.splat %in_ptr1 : !tt.ptr<bf16> -> tensor<1x2048x!tt.ptr<bf16>> loc(#loc108)
      %tmp7_34 = tt.addptr %tmp7_33, %tmp7_32 : tensor<1x2048x!tt.ptr<bf16>>, tensor<1x2048xi64> loc(#loc108)
      %tmp7_35 = tt.broadcast %xmask_7 : tensor<1x1xi1> -> tensor<1x2048xi1> loc(#loc109)
      %tmp7_36 = arith.andi %r0_mask_18, %tmp7_35 : tensor<1x2048xi1> loc(#loc109)
      %tmp7_37 = arith.constant 0.000000e+00 : f32 loc(#loc110)
      %tmp7_38 = arith.constant dense<0.000000e+00> : tensor<1x2048xf32> loc(#loc110)
      %tmp7_39 = arith.truncf %tmp7_38 : tensor<1x2048xf32> to tensor<1x2048xbf16> loc(#loc110)
      %tmp7_40 = tt.load %tmp7_34, %tmp7_36, %tmp7_39 evictionPolicy = evict_first : tensor<1x2048x!tt.ptr<bf16>> loc(#loc110)
      %tmp7_41 = arith.extf %tmp7_40 : tensor<1x2048xbf16> to tensor<1x2048xf32> loc(#loc111)
      %tmp9 = arith.mulf %tmp7_41, %tmp7_41 : tensor<1x2048xf32> loc(#loc112)
      %tmp12 = arith.addf %_tmp11_16, %tmp9 : tensor<1x2048xf32> loc(#loc113)
      %_tmp11_42 = tt.broadcast %xmask_7 : tensor<1x1xi1> -> tensor<1x2048xi1> loc(#loc114)
      %_tmp11_43 = arith.andi %r0_mask_18, %_tmp11_42 : tensor<1x2048xi1> loc(#loc114)
      %_tmp11_44 = arith.select %_tmp11_43, %tmp12, %_tmp11_16 : tensor<1x2048xi1>, tensor<1x2048xf32> loc(#loc115)
      %c5120_i32 = arith.constant 5120 : i32 loc(#loc37)
      %c5120_i32_45 = arith.constant 5120 : i32 loc(#loc37)
      %cst_46 = arith.constant dense<5120> : tensor<1x1xi32> loc(#loc37)
      %18 = arith.muli %cst_46, %xindex_6 : tensor<1x1xi32> loc(#loc37)
      %19 = tt.broadcast %18 : tensor<1x1xi32> -> tensor<1x2048xi32> loc(#loc38)
      %20 = arith.addi %r0_index_17, %19 : tensor<1x2048xi32> loc(#loc38)
      %21 = tt.splat %out_ptr0 : !tt.ptr<bf16> -> tensor<1x2048x!tt.ptr<bf16>> loc(#loc39)
      %22 = tt.addptr %21, %20 : tensor<1x2048x!tt.ptr<bf16>>, tensor<1x2048xi32> loc(#loc39)
      %23 = tt.broadcast %xmask_7 : tensor<1x1xi1> -> tensor<1x2048xi1> loc(#loc40)
      %24 = arith.andi %r0_mask_18, %23 : tensor<1x2048xi1> loc(#loc40)
      %25 = arith.truncf %tmp7_41 : tensor<1x2048xf32> to tensor<1x2048xbf16> loc(#loc41)
      tt.store %22, %25, %24 : tensor<1x2048x!tt.ptr<bf16>> loc(#loc41)
      scf.yield %_tmp11_44 : tensor<1x2048xf32> loc(#loc42)
    } loc(#loc98)
    %tmp11 = tt.call @"triton.language.standard.sum__fp32S1_2048S__(1,)cconstexpr_1__(2,)cconstexpr_False__(3,)cNone"(%_tmp11_12) : (tensor<1x2048xf32>) -> tensor<1xf32> loc(#loc116)
    %tmp11_13 = tt.expand_dims %tmp11 {axis = 1 : i32} : tensor<1xf32> -> tensor<1x1xf32> loc(#loc117)
    %c0_i32_14 = arith.constant 0 : i32 loc(#loc45)
    %c2048_i32_15 = arith.constant 2048 : i32 loc(#loc45)
    %4 = arith.bitcast %c0_i32_14 : i32 to i32 loc(#loc45)
    %5 = arith.bitcast %r0_numel_0 : i32 to i32 loc(#loc45)
    %6 = arith.bitcast %c2048_i32_15 : i32 to i32 loc(#loc45)
    %7 = ub.poison : i32 loc(#loc45)
    scf.for %r0_offset = %4 to %5 step %6  : i32 {
      %r0_index = tt.splat %r0_offset : i32 -> tensor<1x2048xi32> loc(#loc118)
      %r0_index_16 = arith.addi %r0_index, %r0_base_8 : tensor<1x2048xi32> loc(#loc118)
      %r0_mask = arith.constant dense<5120> : tensor<1x2048xi32> loc(#loc119)
      %r0_mask_17 = arith.cmpi slt, %r0_index_16, %r0_mask : tensor<1x2048xi32> loc(#loc119)
      %tmp13 = arith.constant 5120 : i32 loc(#loc120)
      %tmp13_18 = arith.constant 5120 : i32 loc(#loc120)
      %tmp13_19 = arith.constant dense<5120> : tensor<1x1xi32> loc(#loc120)
      %tmp13_20 = arith.muli %tmp13_19, %xindex_6 : tensor<1x1xi32> loc(#loc120)
      %tmp13_21 = tt.broadcast %tmp13_20 : tensor<1x1xi32> -> tensor<1x2048xi32> loc(#loc121)
      %tmp13_22 = arith.addi %r0_index_16, %tmp13_21 : tensor<1x2048xi32> loc(#loc121)
      %tmp13_23 = tt.splat %out_ptr0 : !tt.ptr<bf16> -> tensor<1x2048x!tt.ptr<bf16>> loc(#loc122)
      %tmp13_24 = tt.addptr %tmp13_23, %tmp13_22 : tensor<1x2048x!tt.ptr<bf16>>, tensor<1x2048xi32> loc(#loc122)
      %tmp13_25 = tt.broadcast %xmask_7 : tensor<1x1xi1> -> tensor<1x2048xi1> loc(#loc123)
      %tmp13_26 = arith.andi %r0_mask_17, %tmp13_25 : tensor<1x2048xi1> loc(#loc123)
      %tmp13_27 = arith.constant 0.000000e+00 : f32 loc(#loc124)
      %tmp13_28 = arith.constant dense<0.000000e+00> : tensor<1x2048xf32> loc(#loc124)
      %tmp13_29 = arith.truncf %tmp13_28 : tensor<1x2048xf32> to tensor<1x2048xbf16> loc(#loc124)
      %tmp13_30 = tt.load %tmp13_24, %tmp13_26, %tmp13_29 evictionPolicy = evict_first : tensor<1x2048x!tt.ptr<bf16>> loc(#loc124)
      %tmp13_31 = arith.extf %tmp13_30 : tensor<1x2048xbf16> to tensor<1x2048xf32> loc(#loc125)
      %tmp22 = tt.splat %in_ptr2 : !tt.ptr<bf16> -> tensor<1x2048x!tt.ptr<bf16>> loc(#loc126)
      %tmp22_32 = tt.addptr %tmp22, %r0_index_16 : tensor<1x2048x!tt.ptr<bf16>>, tensor<1x2048xi32> loc(#loc126)
      %tmp22_33 = arith.constant 0.000000e+00 : f32 loc(#loc127)
      %tmp22_34 = arith.constant dense<0.000000e+00> : tensor<1x2048xf32> loc(#loc127)
      %tmp22_35 = arith.truncf %tmp22_34 : tensor<1x2048xf32> to tensor<1x2048xbf16> loc(#loc127)
      %tmp22_36 = tt.load %tmp22_32, %r0_mask_17, %tmp22_35 evictionPolicy = evict_last : tensor<1x2048x!tt.ptr<bf16>> loc(#loc127)
      %tmp22_37 = arith.extf %tmp22_36 : tensor<1x2048xbf16> to tensor<1x2048xf32> loc(#loc128)
      %tmp15 = arith.constant 5.120000e+03 : f32 loc(#loc129)
      %tmp16 = arith.constant dense<5.120000e+03> : tensor<1x1xf32> loc(#loc130)
      %tmp16_38 = arith.divf %tmp11_13, %tmp16 : tensor<1x1xf32> loc(#loc130)
      %tmp17 = arith.constant 9.99999997E-7 : f32 loc(#loc131)
      %tmp18 = arith.constant dense<9.99999997E-7> : tensor<1x1xf32> loc(#loc132)
      %tmp18_39 = arith.addf %tmp16_38, %tmp18 : tensor<1x1xf32> loc(#loc132)
      %tmp19 = tt.extern_elementwise %tmp18_39 {libname = "", libpath = "", pure = true, symbol = "__nv_rsqrtf"} : (tensor<1x1xf32>) -> tensor<1x1xf32> loc(#loc133)
      %tmp20 = tt.broadcast %tmp19 : tensor<1x1xf32> -> tensor<1x2048xf32> loc(#loc134)
      %tmp20_40 = arith.mulf %tmp13_31, %tmp20 : tensor<1x2048xf32> loc(#loc134)
      %tmp23 = arith.mulf %tmp20_40, %tmp22_37 : tensor<1x2048xf32> loc(#loc135)
      %c5120_i32 = arith.constant 5120 : i32 loc(#loc64)
      %c5120_i32_41 = arith.constant 5120 : i32 loc(#loc64)
      %cst = arith.constant dense<5120> : tensor<1x1xi32> loc(#loc64)
      %8 = arith.muli %cst, %xindex_6 : tensor<1x1xi32> loc(#loc64)
      %9 = tt.broadcast %8 : tensor<1x1xi32> -> tensor<1x2048xi32> loc(#loc65)
      %10 = arith.addi %r0_index_16, %9 : tensor<1x2048xi32> loc(#loc65)
      %11 = tt.splat %out_ptr2 : !tt.ptr<bf16> -> tensor<1x2048x!tt.ptr<bf16>> loc(#loc66)
      %12 = tt.addptr %11, %10 : tensor<1x2048x!tt.ptr<bf16>>, tensor<1x2048xi32> loc(#loc66)
      %13 = tt.broadcast %xmask_7 : tensor<1x1xi1> -> tensor<1x2048xi1> loc(#loc67)
      %14 = arith.andi %r0_mask_17, %13 : tensor<1x2048xi1> loc(#loc67)
      %15 = arith.truncf %tmp23 : tensor<1x2048xf32> to tensor<1x2048xbf16> loc(#loc68)
      tt.store %12, %15, %14 : tensor<1x2048x!tt.ptr<bf16>> loc(#loc68)
    } loc(#loc45)
    tt.return loc(#loc69)
  } loc(#loc)
  tt.func private @"triton.language.standard.sum__fp32S1_2048S__(1,)cconstexpr_1__(2,)cconstexpr_False__(3,)cNone"(%input: tensor<1x2048xf32> loc("input"(#loc70))) -> tensor<1xf32> attributes {noinline = false} {
    %0 = "tt.reduce"(%input) <{axis = 1 : i32}> ({
    ^bb0(%arg1: f32 loc(unknown), %arg2: f32 loc(unknown)):
      %2 = tt.call @triton.language.standard._sum_combine__fp32_fp32__(%arg1, %arg2) : (f32, f32) -> f32 loc(#loc71)
      tt.reduce.return %2 : f32 loc(#loc71)
    }) : (tensor<1x2048xf32>) -> tensor<1xf32> loc(#loc71)
    tt.return %0 : tensor<1xf32> loc(#loc73)
  ^bb1:  // no predecessors
    %1 = ub.poison : tensor<1xf32> loc(#loc74)
    tt.return %1 : tensor<1xf32> loc(#loc74)
  } loc(#loc70)
  tt.func private @triton.language.standard._sum_combine__fp32_fp32__(%a: f32 loc("a"(#loc75)), %b: f32 loc("b"(#loc75))) -> f32 attributes {noinline = false} {
    %0 = arith.addf %a, %b : f32 loc(#loc76)
    tt.return %0 : f32 loc(#loc77)
  ^bb1:  // no predecessors
    %1 = ub.poison : f32 loc(#loc78)
    tt.return %1 : f32 loc(#loc78)
  } loc(#loc75)
} loc(#loc)
#loc1 = loc("/tmp/torchinductor_root/jy/cjyc4sfbjfrj7y677powlqik4ficjy3szpkglgare2nv44ajz5qh.py":19:15)
#loc2 = loc("/tmp/torchinductor_root/jy/cjyc4sfbjfrj7y677powlqik4ficjy3szpkglgare2nv44ajz5qh.py":22:28)
#loc3 = loc("/tmp/torchinductor_root/jy/cjyc4sfbjfrj7y677powlqik4ficjy3szpkglgare2nv44ajz5qh.py":22:33)
#loc4 = loc("/tmp/torchinductor_root/jy/cjyc4sfbjfrj7y677powlqik4ficjy3szpkglgare2nv44ajz5qh.py":23:36)
#loc5 = loc("/tmp/torchinductor_root/jy/cjyc4sfbjfrj7y677powlqik4ficjy3szpkglgare2nv44ajz5qh.py":23:44)
#loc6 = loc("/tmp/torchinductor_root/jy/cjyc4sfbjfrj7y677powlqik4ficjy3szpkglgare2nv44ajz5qh.py":23:23)
#loc7 = loc("/tmp/torchinductor_root/jy/cjyc4sfbjfrj7y677powlqik4ficjy3szpkglgare2nv44ajz5qh.py":24:21)
#loc8 = loc("/tmp/torchinductor_root/jy/cjyc4sfbjfrj7y677powlqik4ficjy3szpkglgare2nv44ajz5qh.py":25:27)
#loc9 = loc("/tmp/torchinductor_root/jy/cjyc4sfbjfrj7y677powlqik4ficjy3szpkglgare2nv44ajz5qh.py":25:37)
#loc10 = loc("/tmp/torchinductor_root/jy/cjyc4sfbjfrj7y677powlqik4ficjy3szpkglgare2nv44ajz5qh.py":28:30)
#loc11 = loc("/tmp/torchinductor_root/jy/cjyc4sfbjfrj7y677powlqik4ficjy3szpkglgare2nv44ajz5qh.py":28:35)
#loc12 = loc("/tmp/torchinductor_root/jy/cjyc4sfbjfrj7y677powlqik4ficjy3szpkglgare2nv44ajz5qh.py":29:44)
#loc13 = loc("/tmp/torchinductor_root/jy/cjyc4sfbjfrj7y677powlqik4ficjy3szpkglgare2nv44ajz5qh.py":30:40)
#loc14 = loc("/tmp/torchinductor_root/jy/cjyc4sfbjfrj7y677powlqik4ficjy3szpkglgare2nv44ajz5qh.py":31:31)
#loc15 = loc("/tmp/torchinductor_root/jy/cjyc4sfbjfrj7y677powlqik4ficjy3szpkglgare2nv44ajz5qh.py":32:29)
#loc16 = loc("/tmp/torchinductor_root/jy/cjyc4sfbjfrj7y677powlqik4ficjy3szpkglgare2nv44ajz5qh.py":36:23)
#loc17 = loc("/tmp/torchinductor_root/jy/cjyc4sfbjfrj7y677powlqik4ficjy3szpkglgare2nv44ajz5qh.py":37:51)
#loc18 = loc("/tmp/torchinductor_root/jy/cjyc4sfbjfrj7y677powlqik4ficjy3szpkglgare2nv44ajz5qh.py":38:22)
#loc19 = loc("/tmp/torchinductor_root/jy/cjyc4sfbjfrj7y677powlqik4ficjy3szpkglgare2nv44ajz5qh.py":39:22)
#loc20 = loc("/tmp/torchinductor_root/jy/cjyc4sfbjfrj7y677powlqik4ficjy3szpkglgare2nv44ajz5qh.py":40:36)
#loc21 = loc("/tmp/torchinductor_root/jy/cjyc4sfbjfrj7y677powlqik4ficjy3szpkglgare2nv44ajz5qh.py":41:32)
#loc22 = loc("/tmp/torchinductor_root/jy/cjyc4sfbjfrj7y677powlqik4ficjy3szpkglgare2nv44ajz5qh.py":41:48)
#loc23 = loc("/tmp/torchinductor_root/jy/cjyc4sfbjfrj7y677powlqik4ficjy3szpkglgare2nv44ajz5qh.py":41:41)
#loc24 = loc("/tmp/torchinductor_root/jy/cjyc4sfbjfrj7y677powlqik4ficjy3szpkglgare2nv44ajz5qh.py":41:61)
#loc25 = loc("/tmp/torchinductor_root/jy/cjyc4sfbjfrj7y677powlqik4ficjy3szpkglgare2nv44ajz5qh.py":41:59)
#loc26 = loc("/tmp/torchinductor_root/jy/cjyc4sfbjfrj7y677powlqik4ficjy3szpkglgare2nv44ajz5qh.py":41:69)
#loc27 = loc("/tmp/torchinductor_root/jy/cjyc4sfbjfrj7y677powlqik4ficjy3szpkglgare2nv44ajz5qh.py":42:46)
#loc28 = loc("/tmp/torchinductor_root/jy/cjyc4sfbjfrj7y677powlqik4ficjy3szpkglgare2nv44ajz5qh.py":42:41)
#loc29 = loc("/tmp/torchinductor_root/jy/cjyc4sfbjfrj7y677powlqik4ficjy3szpkglgare2nv44ajz5qh.py":42:34)
#loc30 = loc("/tmp/torchinductor_root/jy/cjyc4sfbjfrj7y677powlqik4ficjy3szpkglgare2nv44ajz5qh.py":42:63)
#loc31 = loc("/tmp/torchinductor_root/jy/cjyc4sfbjfrj7y677powlqik4ficjy3szpkglgare2nv44ajz5qh.py":42:53)
#loc32 = loc("/tmp/torchinductor_root/jy/cjyc4sfbjfrj7y677powlqik4ficjy3szpkglgare2nv44ajz5qh.py":42:115)
#loc33 = loc("/tmp/torchinductor_root/jy/cjyc4sfbjfrj7y677powlqik4ficjy3szpkglgare2nv44ajz5qh.py":44:22)
#loc34 = loc("/tmp/torchinductor_root/jy/cjyc4sfbjfrj7y677powlqik4ficjy3szpkglgare2nv44ajz5qh.py":46:25)
#loc35 = loc("/tmp/torchinductor_root/jy/cjyc4sfbjfrj7y677powlqik4ficjy3szpkglgare2nv44ajz5qh.py":47:36)
#loc36 = loc("/tmp/torchinductor_root/jy/cjyc4sfbjfrj7y677powlqik4ficjy3szpkglgare2nv44ajz5qh.py":47:50)
#loc37 = loc("/tmp/torchinductor_root/jy/cjyc4sfbjfrj7y677powlqik4ficjy3szpkglgare2nv44ajz5qh.py":48:41)
#loc38 = loc("/tmp/torchinductor_root/jy/cjyc4sfbjfrj7y677powlqik4ficjy3szpkglgare2nv44ajz5qh.py":48:36)
#loc39 = loc("/tmp/torchinductor_root/jy/cjyc4sfbjfrj7y677powlqik4ficjy3szpkglgare2nv44ajz5qh.py":48:29)
#loc40 = loc("/tmp/torchinductor_root/jy/cjyc4sfbjfrj7y677powlqik4ficjy3szpkglgare2nv44ajz5qh.py":48:62)
#loc41 = loc("/tmp/torchinductor_root/jy/cjyc4sfbjfrj7y677powlqik4ficjy3szpkglgare2nv44ajz5qh.py":48:52)
#loc42 = loc("/tmp/torchinductor_root/jy/cjyc4sfbjfrj7y677powlqik4ficjy3szpkglgare2nv44ajz5qh.py":48:8)
#loc43 = loc("/tmp/torchinductor_root/jy/cjyc4sfbjfrj7y677powlqik4ficjy3szpkglgare2nv44ajz5qh.py":49:27)
#loc44 = loc("/tmp/torchinductor_root/jy/cjyc4sfbjfrj7y677powlqik4ficjy3szpkglgare2nv44ajz5qh.py":49:30)
#loc45 = loc("/tmp/torchinductor_root/jy/cjyc4sfbjfrj7y677powlqik4ficjy3szpkglgare2nv44ajz5qh.py":50:40)
#loc46 = loc("/tmp/torchinductor_root/jy/cjyc4sfbjfrj7y677powlqik4ficjy3szpkglgare2nv44ajz5qh.py":51:31)
#loc47 = loc("/tmp/torchinductor_root/jy/cjyc4sfbjfrj7y677powlqik4ficjy3szpkglgare2nv44ajz5qh.py":52:29)
#loc48 = loc("/tmp/torchinductor_root/jy/cjyc4sfbjfrj7y677powlqik4ficjy3szpkglgare2nv44ajz5qh.py":56:48)
#loc49 = loc("/tmp/torchinductor_root/jy/cjyc4sfbjfrj7y677powlqik4ficjy3szpkglgare2nv44ajz5qh.py":56:43)
#loc50 = loc("/tmp/torchinductor_root/jy/cjyc4sfbjfrj7y677powlqik4ficjy3szpkglgare2nv44ajz5qh.py":56:36)
#loc51 = loc("/tmp/torchinductor_root/jy/cjyc4sfbjfrj7y677powlqik4ficjy3szpkglgare2nv44ajz5qh.py":56:63)
#loc52 = loc("/tmp/torchinductor_root/jy/cjyc4sfbjfrj7y677powlqik4ficjy3szpkglgare2nv44ajz5qh.py":56:53)
#loc53 = loc("/tmp/torchinductor_root/jy/cjyc4sfbjfrj7y677powlqik4ficjy3szpkglgare2nv44ajz5qh.py":56:115)
#loc54 = loc("/tmp/torchinductor_root/jy/cjyc4sfbjfrj7y677powlqik4ficjy3szpkglgare2nv44ajz5qh.py":57:35)
#loc55 = loc("/tmp/torchinductor_root/jy/cjyc4sfbjfrj7y677powlqik4ficjy3szpkglgare2nv44ajz5qh.py":57:42)
#loc56 = loc("/tmp/torchinductor_root/jy/cjyc4sfbjfrj7y677powlqik4ficjy3szpkglgare2nv44ajz5qh.py":57:95)
#loc57 = loc("/tmp/torchinductor_root/jy/cjyc4sfbjfrj7y677powlqik4ficjy3szpkglgare2nv44ajz5qh.py":59:16)
#loc58 = loc("/tmp/torchinductor_root/jy/cjyc4sfbjfrj7y677powlqik4ficjy3szpkglgare2nv44ajz5qh.py":60:25)
#loc59 = loc("/tmp/torchinductor_root/jy/cjyc4sfbjfrj7y677powlqik4ficjy3szpkglgare2nv44ajz5qh.py":61:16)
#loc60 = loc("/tmp/torchinductor_root/jy/cjyc4sfbjfrj7y677powlqik4ficjy3szpkglgare2nv44ajz5qh.py":62:24)
#loc61 = loc("/tmp/torchinductor_root/jy/cjyc4sfbjfrj7y677powlqik4ficjy3szpkglgare2nv44ajz5qh.py":63:32)
#loc62 = loc("/tmp/torchinductor_root/jy/cjyc4sfbjfrj7y677powlqik4ficjy3szpkglgare2nv44ajz5qh.py":64:24)
#loc63 = loc("/tmp/torchinductor_root/jy/cjyc4sfbjfrj7y677powlqik4ficjy3szpkglgare2nv44ajz5qh.py":66:24)
#loc64 = loc("/tmp/torchinductor_root/jy/cjyc4sfbjfrj7y677powlqik4ficjy3szpkglgare2nv44ajz5qh.py":67:41)
#loc65 = loc("/tmp/torchinductor_root/jy/cjyc4sfbjfrj7y677powlqik4ficjy3szpkglgare2nv44ajz5qh.py":67:36)
#loc66 = loc("/tmp/torchinductor_root/jy/cjyc4sfbjfrj7y677powlqik4ficjy3szpkglgare2nv44ajz5qh.py":67:29)
#loc67 = loc("/tmp/torchinductor_root/jy/cjyc4sfbjfrj7y677powlqik4ficjy3szpkglgare2nv44ajz5qh.py":67:63)
#loc68 = loc("/tmp/torchinductor_root/jy/cjyc4sfbjfrj7y677powlqik4ficjy3szpkglgare2nv44ajz5qh.py":67:53)
#loc69 = loc("/tmp/torchinductor_root/jy/cjyc4sfbjfrj7y677powlqik4ficjy3szpkglgare2nv44ajz5qh.py":50:4)
#loc71 = loc("/root/miniconda3/envs/flagscale-inference/lib/python3.12/site-packages/triton/language/standard.py":291:36)
#loc73 = loc("/root/miniconda3/envs/flagscale-inference/lib/python3.12/site-packages/triton/language/standard.py":291:11)
#loc74 = loc("/root/miniconda3/envs/flagscale-inference/lib/python3.12/site-packages/triton/language/standard.py":291:4)
#loc76 = loc("/root/miniconda3/envs/flagscale-inference/lib/python3.12/site-packages/triton/language/standard.py":261:15)
#loc77 = loc("/root/miniconda3/envs/flagscale-inference/lib/python3.12/site-packages/triton/language/standard.py":261:11)
#loc78 = loc("/root/miniconda3/envs/flagscale-inference/lib/python3.12/site-packages/triton/language/standard.py":261:4)
#loc86 = loc("r0_numel"(#loc1))
#loc87 = loc("xoffset"(#loc2))
#loc88 = loc("xoffset"(#loc3))
#loc89 = loc("xindex"(#loc4))
#loc90 = loc("xindex"(#loc5))
#loc91 = loc("xindex"(#loc6))
#loc92 = loc("xmask"(#loc7))
#loc93 = loc("r0_base"(#loc8))
#loc94 = loc("r0_base"(#loc9))
#loc95 = loc("tmp0"(#loc10))
#loc96 = loc("tmp0"(#loc11))
#loc97 = loc("_tmp11"(#loc12))
#loc98 = loc("_tmp11"(#loc13))
#loc99 = loc("r0_index"(#loc14))
#loc100 = loc("r0_mask"(#loc15))
#loc101 = loc("tmp1"(#loc16))
#loc102 = loc("tmp2"(#loc17))
#loc103 = loc("tmp3"(#loc18))
#loc104 = loc("tmp4"(#loc19))
#loc105 = loc("tmp5"(#loc20))
#loc106 = loc("tmp7"(#loc27))
#loc107 = loc("tmp7"(#loc28))
#loc108 = loc("tmp7"(#loc29))
#loc109 = loc("tmp7"(#loc30))
#loc110 = loc("tmp7"(#loc31))
#loc111 = loc("tmp7"(#loc32))
#loc112 = loc("tmp9"(#loc33))
#loc113 = loc("tmp12"(#loc34))
#loc114 = loc("_tmp11"(#loc35))
#loc115 = loc("_tmp11"(#loc36))
#loc116 = loc("tmp11"(#loc43))
#loc117 = loc("tmp11"(#loc44))
#loc118 = loc("r0_index"(#loc46))
#loc119 = loc("r0_mask"(#loc47))
#loc120 = loc("tmp13"(#loc48))
#loc121 = loc("tmp13"(#loc49))
#loc122 = loc("tmp13"(#loc50))
#loc123 = loc("tmp13"(#loc51))
#loc124 = loc("tmp13"(#loc52))
#loc125 = loc("tmp13"(#loc53))
#loc126 = loc("tmp22"(#loc54))
#loc127 = loc("tmp22"(#loc55))
#loc128 = loc("tmp22"(#loc56))
#loc129 = loc("tmp15"(#loc57))
#loc130 = loc("tmp16"(#loc58))
#loc131 = loc("tmp17"(#loc59))
#loc132 = loc("tmp18"(#loc60))
#loc133 = loc("tmp19"(#loc61))
#loc134 = loc("tmp20"(#loc62))
#loc135 = loc("tmp23"(#loc63))
