#loc = loc("/tmp/torchinductor_root/jy/cjyc4sfbjfrj7y677powlqik4ficjy3szpkglgare2nv44ajz5qh.py":18:0)
#loc1 = loc(unknown)
#loc36 = loc("/tmp/torchinductor_root/jy/cjyc4sfbjfrj7y677powlqik4ficjy3szpkglgare2nv44ajz5qh.py":49:27)
#loc59 = loc("in_ptr0"(#loc))
#loc60 = loc("in_ptr1"(#loc))
#loc61 = loc("in_ptr2"(#loc))
#loc62 = loc("out_ptr0"(#loc))
#loc63 = loc("out_ptr2"(#loc))
#loc64 = loc("xnumel"(#loc))
#loc65 = loc("r0_numel"(#loc))
#loc89 = loc("tmp11"(#loc36))
#loc109 = loc(callsite(#loc1 at #loc89))
module {
  tt.func public @triton_red_fused__to_copy_add_embedding_mean_mul_pow_rsqrt_0(%in_ptr0: !tt.ptr<i32> {tt.divisibility = 16 : i32} loc("in_ptr0"(#loc)), %in_ptr1: !tt.ptr<bf16> {tt.divisibility = 16 : i32} loc("in_ptr1"(#loc)), %in_ptr2: !tt.ptr<bf16> {tt.divisibility = 16 : i32} loc("in_ptr2"(#loc)), %out_ptr0: !tt.ptr<bf16> {tt.divisibility = 16 : i32} loc("out_ptr0"(#loc)), %out_ptr2: !tt.ptr<bf16> {tt.divisibility = 16 : i32} loc("out_ptr2"(#loc)), %xnumel: i32 loc("xnumel"(#loc)), %r0_numel: i32 {tt.divisibility = 16 : i32} loc("r0_numel"(#loc))) attributes {noinline = false} {
    %cst = arith.constant dense<5120> : tensor<1x1xi64> loc(#loc1)
    %true = arith.constant true loc(#loc1)
    %cst_0 = arith.constant dense<151936> : tensor<1x1xi64> loc(#loc1)
    %cst_1 = arith.constant dense<0.000000e+00> : tensor<1x2048xbf16> loc(#loc1)
    %cst_2 = arith.constant dense<0> : tensor<1x1xi64> loc(#loc1)
    %c2048_i32 = arith.constant 2048 : i32 loc(#loc1)
    %c5120_i32 = arith.constant 5120 : i32 loc(#loc1)
    %c0_i32 = arith.constant 0 : i32 loc(#loc1)
    %cst_3 = arith.constant dense<9.99999997E-7> : tensor<1x1xf32> loc(#loc1)
    %cst_4 = arith.constant dense<5.120000e+03> : tensor<1x1xf32> loc(#loc1)
    %cst_5 = arith.constant dense<5120> : tensor<1x2048xi32> loc(#loc1)
    %cst_6 = arith.constant dense<0.000000e+00> : tensor<1x2048xf32> loc(#loc1)
    %xoffset = tt.get_program_id x : i32 loc(#loc66)
    %xmask = arith.cmpi slt, %xoffset, %xnumel : i32 loc(#loc67)
    %xmask_7 = tt.splat %xmask : i1 -> tensor<1x1xi1> loc(#loc67)
    %r0_base = tt.make_range {end = 2048 : i32, start = 0 : i32} : tensor<2048xi32> loc(#loc68)
    %r0_base_8 = tt.expand_dims %r0_base {axis = 0 : i32} : tensor<2048xi32> -> tensor<1x2048xi32> loc(#loc69)
    %tmp0 = tt.addptr %in_ptr0, %xoffset : !tt.ptr<i32>, i32 loc(#loc70)
    %tmp0_9 = tt.splat %tmp0 : !tt.ptr<i32> -> tensor<1x1x!tt.ptr<i32>> loc(#loc70)
    %tmp0_10 = tt.load %tmp0_9, %xmask_7 evictionPolicy = evict_last : tensor<1x1x!tt.ptr<i32>> loc(#loc71)
    %_tmp11 = scf.for %r0_offset = %c0_i32 to %c5120_i32 step %c2048_i32 iter_args(%_tmp11_12 = %cst_6) -> (tensor<1x2048xf32>)  : i32 {
      %r0_index = tt.splat %r0_offset : i32 -> tensor<1x2048xi32> loc(#loc73)
      %r0_index_13 = arith.addi %r0_index, %r0_base_8 : tensor<1x2048xi32> loc(#loc73)
      %r0_mask = arith.cmpi slt, %r0_index_13, %cst_5 : tensor<1x2048xi32> loc(#loc74)
      %tmp1 = arith.extsi %tmp0_10 : tensor<1x1xi32> to tensor<1x1xi64> loc(#loc75)
      %tmp3 = arith.addi %tmp1, %cst_0 : tensor<1x1xi64> loc(#loc76)
      %tmp4 = arith.cmpi slt, %tmp1, %cst_2 : tensor<1x1xi64> loc(#loc77)
      %tmp5 = arith.select %tmp4, %tmp3, %tmp1 : tensor<1x1xi1>, tensor<1x1xi64> loc(#loc78)
      %0 = arith.cmpi sge, %tmp5, %cst_2 : tensor<1x1xi64> loc(#loc15)
      %1 = arith.cmpi slt, %tmp5, %cst_0 : tensor<1x1xi64> loc(#loc16)
      %2 = arith.andi %0, %1 : tensor<1x1xi1> loc(#loc17)
      %3 = arith.xori %xmask, %true : i1 loc(#loc18)
      %4 = tt.splat %3 : i1 -> tensor<1x1xi1> loc(#loc18)
      %5 = arith.ori %2, %4 : tensor<1x1xi1> loc(#loc19)
      %6 = tt.broadcast %5 : tensor<1x1xi1> -> tensor<1x2048xi1> loc(#loc19)
      tt.assert %6, "index out of bounds: 0 <= tmp5 < 151936" : tensor<1x2048xi1> loc(#loc20)
      %tmp7 = arith.muli %tmp5, %cst : tensor<1x1xi64> loc(#loc79)
      %tmp7_14 = tt.broadcast %tmp7 : tensor<1x1xi64> -> tensor<1x2048xi64> loc(#loc79)
      %tmp7_15 = arith.extsi %r0_index_13 : tensor<1x2048xi32> to tensor<1x2048xi64> loc(#loc80)
      %tmp7_16 = arith.addi %tmp7_15, %tmp7_14 : tensor<1x2048xi64> loc(#loc80)
      %tmp7_17 = tt.splat %in_ptr1 : !tt.ptr<bf16> -> tensor<1x2048x!tt.ptr<bf16>> loc(#loc81)
      %tmp7_18 = tt.addptr %tmp7_17, %tmp7_16 : tensor<1x2048x!tt.ptr<bf16>>, tensor<1x2048xi64> loc(#loc81)
      %tmp7_19 = tt.splat %xmask : i1 -> tensor<1x2048xi1> loc(#loc107)
      %tmp7_20 = arith.andi %r0_mask, %tmp7_19 : tensor<1x2048xi1> loc(#loc82)
      %tmp7_21 = tt.load %tmp7_18, %tmp7_20, %cst_1 evictionPolicy = evict_first : tensor<1x2048x!tt.ptr<bf16>> loc(#loc83)
      %tmp7_22 = arith.extf %tmp7_21 : tensor<1x2048xbf16> to tensor<1x2048xf32> loc(#loc84)
      %tmp9 = arith.mulf %tmp7_22, %tmp7_22 : tensor<1x2048xf32> loc(#loc85)
      %tmp12 = arith.addf %_tmp11_12, %tmp9 : tensor<1x2048xf32> loc(#loc86)
      %_tmp11_23 = arith.select %tmp7_20, %tmp12, %_tmp11_12 : tensor<1x2048xi1>, tensor<1x2048xf32> loc(#loc87)
      %7 = arith.muli %xoffset, %c5120_i32 : i32 loc(#loc30)
      %8 = tt.splat %7 : i32 -> tensor<1x2048xi32> loc(#loc88)
      %9 = arith.addi %r0_index_13, %8 : tensor<1x2048xi32> loc(#loc31)
      %10 = tt.splat %out_ptr0 : !tt.ptr<bf16> -> tensor<1x2048x!tt.ptr<bf16>> loc(#loc32)
      %11 = tt.addptr %10, %9 : tensor<1x2048x!tt.ptr<bf16>>, tensor<1x2048xi32> loc(#loc32)
      tt.store %11, %tmp7_21, %tmp7_20 : tensor<1x2048x!tt.ptr<bf16>> loc(#loc33)
      scf.yield %_tmp11_23 : tensor<1x2048xf32> loc(#loc34)
    } loc(#loc72)
    %tmp11 = "tt.reduce"(%_tmp11) <{axis = 1 : i32}> ({
    ^bb0(%tmp11_12: f32 loc(callsite(#loc1 at #loc89)), %tmp11_13: f32 loc(callsite(#loc1 at #loc89))):
      %tmp11_14 = arith.addf %tmp11_12, %tmp11_13 : f32 loc(#loc112)
      tt.reduce.return %tmp11_14 : f32 loc(#loc108)
    }) : (tensor<1x2048xf32>) -> tensor<1xf32> loc(#loc108)
    %tmp11_11 = tt.expand_dims %tmp11 {axis = 1 : i32} : tensor<1xf32> -> tensor<1x1xf32> loc(#loc90)
    scf.for %r0_offset = %c0_i32 to %c5120_i32 step %c2048_i32  : i32 {
      %r0_index = tt.splat %r0_offset : i32 -> tensor<1x2048xi32> loc(#loc91)
      %r0_index_12 = arith.addi %r0_index, %r0_base_8 : tensor<1x2048xi32> loc(#loc91)
      %r0_mask = arith.cmpi slt, %r0_index_12, %cst_5 : tensor<1x2048xi32> loc(#loc92)
      %tmp13 = arith.muli %xoffset, %c5120_i32 : i32 loc(#loc93)
      %tmp13_13 = tt.splat %tmp13 : i32 -> tensor<1x2048xi32> loc(#loc110)
      %tmp13_14 = arith.addi %r0_index_12, %tmp13_13 : tensor<1x2048xi32> loc(#loc94)
      %tmp13_15 = tt.splat %out_ptr0 : !tt.ptr<bf16> -> tensor<1x2048x!tt.ptr<bf16>> loc(#loc95)
      %tmp13_16 = tt.addptr %tmp13_15, %tmp13_14 : tensor<1x2048x!tt.ptr<bf16>>, tensor<1x2048xi32> loc(#loc95)
      %tmp13_17 = tt.splat %xmask : i1 -> tensor<1x2048xi1> loc(#loc111)
      %tmp13_18 = arith.andi %r0_mask, %tmp13_17 : tensor<1x2048xi1> loc(#loc96)
      %tmp13_19 = tt.load %tmp13_16, %tmp13_18, %cst_1 evictionPolicy = evict_first : tensor<1x2048x!tt.ptr<bf16>> loc(#loc97)
      %tmp13_20 = arith.extf %tmp13_19 : tensor<1x2048xbf16> to tensor<1x2048xf32> loc(#loc98)
      %tmp22 = tt.splat %in_ptr2 : !tt.ptr<bf16> -> tensor<1x2048x!tt.ptr<bf16>> loc(#loc99)
      %tmp22_21 = tt.addptr %tmp22, %r0_index_12 : tensor<1x2048x!tt.ptr<bf16>>, tensor<1x2048xi32> loc(#loc99)
      %tmp22_22 = tt.load %tmp22_21, %r0_mask, %cst_1 evictionPolicy = evict_last : tensor<1x2048x!tt.ptr<bf16>> loc(#loc100)
      %tmp22_23 = arith.extf %tmp22_22 : tensor<1x2048xbf16> to tensor<1x2048xf32> loc(#loc101)
      %tmp16 = arith.divf %tmp11_11, %cst_4 : tensor<1x1xf32> loc(#loc102)
      %tmp18 = arith.addf %tmp16, %cst_3 : tensor<1x1xf32> loc(#loc103)
      %tmp19 = tt.extern_elementwise %tmp18 {libname = "", libpath = "", pure = true, symbol = "__nv_rsqrtf"} : (tensor<1x1xf32>) -> tensor<1x1xf32> loc(#loc104)
      %tmp20 = tt.broadcast %tmp19 : tensor<1x1xf32> -> tensor<1x2048xf32> loc(#loc105)
      %tmp20_24 = arith.mulf %tmp13_20, %tmp20 : tensor<1x2048xf32> loc(#loc105)
      %tmp23 = arith.mulf %tmp20_24, %tmp22_23 : tensor<1x2048xf32> loc(#loc106)
      %0 = tt.splat %out_ptr2 : !tt.ptr<bf16> -> tensor<1x2048x!tt.ptr<bf16>> loc(#loc56)
      %1 = tt.addptr %0, %tmp13_14 : tensor<1x2048x!tt.ptr<bf16>>, tensor<1x2048xi32> loc(#loc56)
      %2 = arith.truncf %tmp23 : tensor<1x2048xf32> to tensor<1x2048xbf16> loc(#loc57)
      tt.store %1, %2, %tmp13_18 : tensor<1x2048x!tt.ptr<bf16>> loc(#loc57)
    } loc(#loc39)
    tt.return loc(#loc58)
  } loc(#loc)
} loc(#loc)
#loc2 = loc("/tmp/torchinductor_root/jy/cjyc4sfbjfrj7y677powlqik4ficjy3szpkglgare2nv44ajz5qh.py":22:28)
#loc3 = loc("/tmp/torchinductor_root/jy/cjyc4sfbjfrj7y677powlqik4ficjy3szpkglgare2nv44ajz5qh.py":24:21)
#loc4 = loc("/tmp/torchinductor_root/jy/cjyc4sfbjfrj7y677powlqik4ficjy3szpkglgare2nv44ajz5qh.py":25:27)
#loc5 = loc("/tmp/torchinductor_root/jy/cjyc4sfbjfrj7y677powlqik4ficjy3szpkglgare2nv44ajz5qh.py":25:37)
#loc6 = loc("/tmp/torchinductor_root/jy/cjyc4sfbjfrj7y677powlqik4ficjy3szpkglgare2nv44ajz5qh.py":28:30)
#loc7 = loc("/tmp/torchinductor_root/jy/cjyc4sfbjfrj7y677powlqik4ficjy3szpkglgare2nv44ajz5qh.py":28:35)
#loc8 = loc("/tmp/torchinductor_root/jy/cjyc4sfbjfrj7y677powlqik4ficjy3szpkglgare2nv44ajz5qh.py":30:40)
#loc9 = loc("/tmp/torchinductor_root/jy/cjyc4sfbjfrj7y677powlqik4ficjy3szpkglgare2nv44ajz5qh.py":31:31)
#loc10 = loc("/tmp/torchinductor_root/jy/cjyc4sfbjfrj7y677powlqik4ficjy3szpkglgare2nv44ajz5qh.py":32:29)
#loc11 = loc("/tmp/torchinductor_root/jy/cjyc4sfbjfrj7y677powlqik4ficjy3szpkglgare2nv44ajz5qh.py":36:23)
#loc12 = loc("/tmp/torchinductor_root/jy/cjyc4sfbjfrj7y677powlqik4ficjy3szpkglgare2nv44ajz5qh.py":38:22)
#loc13 = loc("/tmp/torchinductor_root/jy/cjyc4sfbjfrj7y677powlqik4ficjy3szpkglgare2nv44ajz5qh.py":39:22)
#loc14 = loc("/tmp/torchinductor_root/jy/cjyc4sfbjfrj7y677powlqik4ficjy3szpkglgare2nv44ajz5qh.py":40:36)
#loc15 = loc("/tmp/torchinductor_root/jy/cjyc4sfbjfrj7y677powlqik4ficjy3szpkglgare2nv44ajz5qh.py":41:32)
#loc16 = loc("/tmp/torchinductor_root/jy/cjyc4sfbjfrj7y677powlqik4ficjy3szpkglgare2nv44ajz5qh.py":41:48)
#loc17 = loc("/tmp/torchinductor_root/jy/cjyc4sfbjfrj7y677powlqik4ficjy3szpkglgare2nv44ajz5qh.py":41:41)
#loc18 = loc("/tmp/torchinductor_root/jy/cjyc4sfbjfrj7y677powlqik4ficjy3szpkglgare2nv44ajz5qh.py":41:61)
#loc19 = loc("/tmp/torchinductor_root/jy/cjyc4sfbjfrj7y677powlqik4ficjy3szpkglgare2nv44ajz5qh.py":41:59)
#loc20 = loc("/tmp/torchinductor_root/jy/cjyc4sfbjfrj7y677powlqik4ficjy3szpkglgare2nv44ajz5qh.py":41:69)
#loc21 = loc("/tmp/torchinductor_root/jy/cjyc4sfbjfrj7y677powlqik4ficjy3szpkglgare2nv44ajz5qh.py":42:46)
#loc22 = loc("/tmp/torchinductor_root/jy/cjyc4sfbjfrj7y677powlqik4ficjy3szpkglgare2nv44ajz5qh.py":42:41)
#loc23 = loc("/tmp/torchinductor_root/jy/cjyc4sfbjfrj7y677powlqik4ficjy3szpkglgare2nv44ajz5qh.py":42:34)
#loc24 = loc("/tmp/torchinductor_root/jy/cjyc4sfbjfrj7y677powlqik4ficjy3szpkglgare2nv44ajz5qh.py":42:63)
#loc25 = loc("/tmp/torchinductor_root/jy/cjyc4sfbjfrj7y677powlqik4ficjy3szpkglgare2nv44ajz5qh.py":42:53)
#loc26 = loc("/tmp/torchinductor_root/jy/cjyc4sfbjfrj7y677powlqik4ficjy3szpkglgare2nv44ajz5qh.py":42:115)
#loc27 = loc("/tmp/torchinductor_root/jy/cjyc4sfbjfrj7y677powlqik4ficjy3szpkglgare2nv44ajz5qh.py":44:22)
#loc28 = loc("/tmp/torchinductor_root/jy/cjyc4sfbjfrj7y677powlqik4ficjy3szpkglgare2nv44ajz5qh.py":46:25)
#loc29 = loc("/tmp/torchinductor_root/jy/cjyc4sfbjfrj7y677powlqik4ficjy3szpkglgare2nv44ajz5qh.py":47:50)
#loc30 = loc("/tmp/torchinductor_root/jy/cjyc4sfbjfrj7y677powlqik4ficjy3szpkglgare2nv44ajz5qh.py":48:41)
#loc31 = loc("/tmp/torchinductor_root/jy/cjyc4sfbjfrj7y677powlqik4ficjy3szpkglgare2nv44ajz5qh.py":48:36)
#loc32 = loc("/tmp/torchinductor_root/jy/cjyc4sfbjfrj7y677powlqik4ficjy3szpkglgare2nv44ajz5qh.py":48:29)
#loc33 = loc("/tmp/torchinductor_root/jy/cjyc4sfbjfrj7y677powlqik4ficjy3szpkglgare2nv44ajz5qh.py":48:52)
#loc34 = loc("/tmp/torchinductor_root/jy/cjyc4sfbjfrj7y677powlqik4ficjy3szpkglgare2nv44ajz5qh.py":48:8)
#loc35 = loc("/root/miniconda3/envs/flagscale-inference/lib/python3.12/site-packages/triton/language/standard.py":291:36)
#loc37 = loc("/root/miniconda3/envs/flagscale-inference/lib/python3.12/site-packages/triton/language/standard.py":261:15)
#loc38 = loc("/tmp/torchinductor_root/jy/cjyc4sfbjfrj7y677powlqik4ficjy3szpkglgare2nv44ajz5qh.py":49:30)
#loc39 = loc("/tmp/torchinductor_root/jy/cjyc4sfbjfrj7y677powlqik4ficjy3szpkglgare2nv44ajz5qh.py":50:40)
#loc40 = loc("/tmp/torchinductor_root/jy/cjyc4sfbjfrj7y677powlqik4ficjy3szpkglgare2nv44ajz5qh.py":51:31)
#loc41 = loc("/tmp/torchinductor_root/jy/cjyc4sfbjfrj7y677powlqik4ficjy3szpkglgare2nv44ajz5qh.py":52:29)
#loc42 = loc("/tmp/torchinductor_root/jy/cjyc4sfbjfrj7y677powlqik4ficjy3szpkglgare2nv44ajz5qh.py":56:48)
#loc43 = loc("/tmp/torchinductor_root/jy/cjyc4sfbjfrj7y677powlqik4ficjy3szpkglgare2nv44ajz5qh.py":56:43)
#loc44 = loc("/tmp/torchinductor_root/jy/cjyc4sfbjfrj7y677powlqik4ficjy3szpkglgare2nv44ajz5qh.py":56:36)
#loc45 = loc("/tmp/torchinductor_root/jy/cjyc4sfbjfrj7y677powlqik4ficjy3szpkglgare2nv44ajz5qh.py":56:63)
#loc46 = loc("/tmp/torchinductor_root/jy/cjyc4sfbjfrj7y677powlqik4ficjy3szpkglgare2nv44ajz5qh.py":56:53)
#loc47 = loc("/tmp/torchinductor_root/jy/cjyc4sfbjfrj7y677powlqik4ficjy3szpkglgare2nv44ajz5qh.py":56:115)
#loc48 = loc("/tmp/torchinductor_root/jy/cjyc4sfbjfrj7y677powlqik4ficjy3szpkglgare2nv44ajz5qh.py":57:35)
#loc49 = loc("/tmp/torchinductor_root/jy/cjyc4sfbjfrj7y677powlqik4ficjy3szpkglgare2nv44ajz5qh.py":57:42)
#loc50 = loc("/tmp/torchinductor_root/jy/cjyc4sfbjfrj7y677powlqik4ficjy3szpkglgare2nv44ajz5qh.py":57:95)
#loc51 = loc("/tmp/torchinductor_root/jy/cjyc4sfbjfrj7y677powlqik4ficjy3szpkglgare2nv44ajz5qh.py":60:25)
#loc52 = loc("/tmp/torchinductor_root/jy/cjyc4sfbjfrj7y677powlqik4ficjy3szpkglgare2nv44ajz5qh.py":62:24)
#loc53 = loc("/tmp/torchinductor_root/jy/cjyc4sfbjfrj7y677powlqik4ficjy3szpkglgare2nv44ajz5qh.py":63:32)
#loc54 = loc("/tmp/torchinductor_root/jy/cjyc4sfbjfrj7y677powlqik4ficjy3szpkglgare2nv44ajz5qh.py":64:24)
#loc55 = loc("/tmp/torchinductor_root/jy/cjyc4sfbjfrj7y677powlqik4ficjy3szpkglgare2nv44ajz5qh.py":66:24)
#loc56 = loc("/tmp/torchinductor_root/jy/cjyc4sfbjfrj7y677powlqik4ficjy3szpkglgare2nv44ajz5qh.py":67:29)
#loc57 = loc("/tmp/torchinductor_root/jy/cjyc4sfbjfrj7y677powlqik4ficjy3szpkglgare2nv44ajz5qh.py":67:53)
#loc58 = loc("/tmp/torchinductor_root/jy/cjyc4sfbjfrj7y677powlqik4ficjy3szpkglgare2nv44ajz5qh.py":50:4)
#loc66 = loc("xoffset"(#loc2))
#loc67 = loc("xmask"(#loc3))
#loc68 = loc("r0_base"(#loc4))
#loc69 = loc("r0_base"(#loc5))
#loc70 = loc("tmp0"(#loc6))
#loc71 = loc("tmp0"(#loc7))
#loc72 = loc("_tmp11"(#loc8))
#loc73 = loc("r0_index"(#loc9))
#loc74 = loc("r0_mask"(#loc10))
#loc75 = loc("tmp1"(#loc11))
#loc76 = loc("tmp3"(#loc12))
#loc77 = loc("tmp4"(#loc13))
#loc78 = loc("tmp5"(#loc14))
#loc79 = loc("tmp7"(#loc21))
#loc80 = loc("tmp7"(#loc22))
#loc81 = loc("tmp7"(#loc23))
#loc82 = loc("tmp7"(#loc24))
#loc83 = loc("tmp7"(#loc25))
#loc84 = loc("tmp7"(#loc26))
#loc85 = loc("tmp9"(#loc27))
#loc86 = loc("tmp12"(#loc28))
#loc87 = loc("_tmp11"(#loc29))
#loc88 = loc(fused[#loc31, #loc30])
#loc90 = loc("tmp11"(#loc38))
#loc91 = loc("r0_index"(#loc40))
#loc92 = loc("r0_mask"(#loc41))
#loc93 = loc("tmp13"(#loc42))
#loc94 = loc("tmp13"(#loc43))
#loc95 = loc("tmp13"(#loc44))
#loc96 = loc("tmp13"(#loc45))
#loc97 = loc("tmp13"(#loc46))
#loc98 = loc("tmp13"(#loc47))
#loc99 = loc("tmp22"(#loc48))
#loc100 = loc("tmp22"(#loc49))
#loc101 = loc("tmp22"(#loc50))
#loc102 = loc("tmp16"(#loc51))
#loc103 = loc("tmp18"(#loc52))
#loc104 = loc("tmp19"(#loc53))
#loc105 = loc("tmp20"(#loc54))
#loc106 = loc("tmp23"(#loc55))
#loc107 = loc(fused[#loc82, #loc67])
#loc108 = loc(callsite(#loc35 at #loc89))
#loc110 = loc(fused[#loc94, #loc93])
#loc111 = loc(fused[#loc96, #loc67])
#loc112 = loc(callsite(#loc37 at #loc108))
