#loc = loc("/tmp/torchinductor_root/kz/ckztzm3qs2a4fpkj7fm3jvl7xbdic4gpmxru2ypbnmebv3bqnbwi.py":18:0)
#loc1 = loc(unknown)
#loc28 = loc("/tmp/torchinductor_root/kz/ckztzm3qs2a4fpkj7fm3jvl7xbdic4gpmxru2ypbnmebv3bqnbwi.py":49:27)
#loc58 = loc("in_out_ptr0"(#loc))
#loc59 = loc("in_ptr0"(#loc))
#loc60 = loc("in_ptr1"(#loc))
#loc61 = loc("in_ptr2"(#loc))
#loc62 = loc("xnumel"(#loc))
#loc63 = loc("r0_numel"(#loc))
#loc88 = loc("tmp12"(#loc28))
#loc117 = loc(callsite(#loc1 at #loc88))
module {
  tt.func public @triton_red_fused__to_copy_add_mean_mul_pow_rsqrt_2(%in_out_ptr0: !tt.ptr<bf16> {tt.divisibility = 16 : i32} loc("in_out_ptr0"(#loc)), %in_ptr0: !tt.ptr<bf16> {tt.divisibility = 16 : i32} loc("in_ptr0"(#loc)), %in_ptr1: !tt.ptr<bf16> {tt.divisibility = 16 : i32} loc("in_ptr1"(#loc)), %in_ptr2: !tt.ptr<bf16> {tt.divisibility = 16 : i32} loc("in_ptr2"(#loc)), %xnumel: i32 loc("xnumel"(#loc)), %r0_numel: i32 {tt.divisibility = 16 : i32} loc("r0_numel"(#loc))) attributes {noinline = false} {
    %cst = arith.constant dense<0.000000e+00> : tensor<1x2048xbf16> loc(#loc1)
    %c2048_i32 = arith.constant 2048 : i32 loc(#loc1)
    %c5120_i32 = arith.constant 5120 : i32 loc(#loc1)
    %c0_i32 = arith.constant 0 : i32 loc(#loc1)
    %cst_0 = arith.constant dense<9.99999997E-7> : tensor<1x1xf32> loc(#loc1)
    %cst_1 = arith.constant dense<5.120000e+03> : tensor<1x1xf32> loc(#loc1)
    %cst_2 = arith.constant dense<5120> : tensor<1x2048xi32> loc(#loc1)
    %cst_3 = arith.constant dense<0.000000e+00> : tensor<1x2048xf32> loc(#loc1)
    %xoffset = tt.get_program_id x : i32 loc(#loc64)
    %xmask = arith.cmpi slt, %xoffset, %xnumel : i32 loc(#loc65)
    %r0_base = tt.make_range {end = 2048 : i32, start = 0 : i32} : tensor<2048xi32> loc(#loc66)
    %r0_base_4 = tt.expand_dims %r0_base {axis = 0 : i32} : tensor<2048xi32> -> tensor<1x2048xi32> loc(#loc67)
    %_tmp12 = scf.for %r0_offset = %c0_i32 to %c5120_i32 step %c2048_i32 iter_args(%_tmp12_6 = %cst_3) -> (tensor<1x2048xf32>)  : i32 {
      %r0_index = tt.splat %r0_offset : i32 -> tensor<1x2048xi32> loc(#loc69)
      %r0_index_7 = arith.addi %r0_index, %r0_base_4 : tensor<1x2048xi32> loc(#loc69)
      %r0_mask = arith.cmpi slt, %r0_index_7, %cst_2 : tensor<1x2048xi32> loc(#loc70)
      %tmp0 = arith.muli %xoffset, %c5120_i32 : i32 loc(#loc71)
      %tmp0_8 = tt.splat %tmp0 : i32 -> tensor<1x2048xi32> loc(#loc114)
      %tmp0_9 = arith.addi %r0_index_7, %tmp0_8 : tensor<1x2048xi32> loc(#loc72)
      %tmp0_10 = tt.splat %in_out_ptr0 : !tt.ptr<bf16> -> tensor<1x2048x!tt.ptr<bf16>> loc(#loc73)
      %tmp0_11 = tt.addptr %tmp0_10, %tmp0_9 : tensor<1x2048x!tt.ptr<bf16>>, tensor<1x2048xi32> loc(#loc73)
      %tmp0_12 = tt.splat %xmask : i1 -> tensor<1x2048xi1> loc(#loc115)
      %tmp0_13 = arith.andi %r0_mask, %tmp0_12 : tensor<1x2048xi1> loc(#loc74)
      %tmp0_14 = tt.load %tmp0_11, %tmp0_13, %cst evictionPolicy = evict_last : tensor<1x2048x!tt.ptr<bf16>> loc(#loc75)
      %tmp0_15 = arith.extf %tmp0_14 : tensor<1x2048xbf16> to tensor<1x2048xf32> loc(#loc76)
      %tmp2 = tt.splat %in_ptr0 : !tt.ptr<bf16> -> tensor<1x2048x!tt.ptr<bf16>> loc(#loc77)
      %tmp2_16 = tt.addptr %tmp2, %tmp0_9 : tensor<1x2048x!tt.ptr<bf16>>, tensor<1x2048xi32> loc(#loc77)
      %tmp2_17 = tt.load %tmp2_16, %tmp0_13, %cst evictionPolicy = evict_last : tensor<1x2048x!tt.ptr<bf16>> loc(#loc78)
      %tmp2_18 = arith.extf %tmp2_17 : tensor<1x2048xbf16> to tensor<1x2048xf32> loc(#loc79)
      %tmp4 = tt.splat %in_ptr1 : !tt.ptr<bf16> -> tensor<1x2048x!tt.ptr<bf16>> loc(#loc80)
      %tmp4_19 = tt.addptr %tmp4, %tmp0_9 : tensor<1x2048x!tt.ptr<bf16>>, tensor<1x2048xi32> loc(#loc80)
      %tmp4_20 = tt.load %tmp4_19, %tmp0_13, %cst evictionPolicy = evict_last : tensor<1x2048x!tt.ptr<bf16>> loc(#loc81)
      %tmp4_21 = arith.extf %tmp4_20 : tensor<1x2048xbf16> to tensor<1x2048xf32> loc(#loc82)
      %tmp6 = arith.addf %tmp2_18, %tmp4_21 : tensor<1x2048xf32> loc(#loc83)
      %tmp9 = arith.addf %tmp0_15, %tmp6 : tensor<1x2048xf32> loc(#loc84)
      %tmp10 = arith.mulf %tmp9, %tmp9 : tensor<1x2048xf32> loc(#loc85)
      %tmp13 = arith.addf %_tmp12_6, %tmp10 : tensor<1x2048xf32> loc(#loc86)
      %_tmp12_22 = arith.select %tmp0_13, %tmp13, %_tmp12_6 : tensor<1x2048xi1>, tensor<1x2048xf32> loc(#loc87)
      scf.yield %_tmp12_22 : tensor<1x2048xf32> loc(#loc26)
    } loc(#loc68)
    %tmp12 = "tt.reduce"(%_tmp12) <{axis = 1 : i32}> ({
    ^bb0(%tmp12_6: f32 loc(callsite(#loc1 at #loc88)), %tmp12_7: f32 loc(callsite(#loc1 at #loc88))):
      %tmp12_8 = arith.addf %tmp12_6, %tmp12_7 : f32 loc(#loc120)
      tt.reduce.return %tmp12_8 : f32 loc(#loc116)
    }) : (tensor<1x2048xf32>) -> tensor<1xf32> loc(#loc116)
    %tmp12_5 = tt.expand_dims %tmp12 {axis = 1 : i32} : tensor<1xf32> -> tensor<1x1xf32> loc(#loc89)
    scf.for %r0_offset = %c0_i32 to %c5120_i32 step %c2048_i32  : i32 {
      %r0_index = tt.splat %r0_offset : i32 -> tensor<1x2048xi32> loc(#loc90)
      %r0_index_6 = arith.addi %r0_index, %r0_base_4 : tensor<1x2048xi32> loc(#loc90)
      %r0_mask = arith.cmpi slt, %r0_index_6, %cst_2 : tensor<1x2048xi32> loc(#loc91)
      %tmp14 = arith.muli %xoffset, %c5120_i32 : i32 loc(#loc92)
      %tmp14_7 = tt.splat %tmp14 : i32 -> tensor<1x2048xi32> loc(#loc118)
      %tmp14_8 = arith.addi %r0_index_6, %tmp14_7 : tensor<1x2048xi32> loc(#loc93)
      %tmp14_9 = tt.splat %in_out_ptr0 : !tt.ptr<bf16> -> tensor<1x2048x!tt.ptr<bf16>> loc(#loc94)
      %tmp14_10 = tt.addptr %tmp14_9, %tmp14_8 : tensor<1x2048x!tt.ptr<bf16>>, tensor<1x2048xi32> loc(#loc94)
      %tmp14_11 = tt.splat %xmask : i1 -> tensor<1x2048xi1> loc(#loc119)
      %tmp14_12 = arith.andi %r0_mask, %tmp14_11 : tensor<1x2048xi1> loc(#loc95)
      %tmp14_13 = tt.load %tmp14_10, %tmp14_12, %cst evictionPolicy = evict_first : tensor<1x2048x!tt.ptr<bf16>> loc(#loc96)
      %tmp14_14 = arith.extf %tmp14_13 : tensor<1x2048xbf16> to tensor<1x2048xf32> loc(#loc97)
      %tmp16 = tt.splat %in_ptr0 : !tt.ptr<bf16> -> tensor<1x2048x!tt.ptr<bf16>> loc(#loc98)
      %tmp16_15 = tt.addptr %tmp16, %tmp14_8 : tensor<1x2048x!tt.ptr<bf16>>, tensor<1x2048xi32> loc(#loc98)
      %tmp16_16 = tt.load %tmp16_15, %tmp14_12, %cst evictionPolicy = evict_first : tensor<1x2048x!tt.ptr<bf16>> loc(#loc99)
      %tmp16_17 = arith.extf %tmp16_16 : tensor<1x2048xbf16> to tensor<1x2048xf32> loc(#loc100)
      %tmp18 = tt.splat %in_ptr1 : !tt.ptr<bf16> -> tensor<1x2048x!tt.ptr<bf16>> loc(#loc101)
      %tmp18_18 = tt.addptr %tmp18, %tmp14_8 : tensor<1x2048x!tt.ptr<bf16>>, tensor<1x2048xi32> loc(#loc101)
      %tmp18_19 = tt.load %tmp18_18, %tmp14_12, %cst evictionPolicy = evict_first : tensor<1x2048x!tt.ptr<bf16>> loc(#loc102)
      %tmp18_20 = arith.extf %tmp18_19 : tensor<1x2048xbf16> to tensor<1x2048xf32> loc(#loc103)
      %tmp31 = tt.splat %in_ptr2 : !tt.ptr<bf16> -> tensor<1x2048x!tt.ptr<bf16>> loc(#loc104)
      %tmp31_21 = tt.addptr %tmp31, %r0_index_6 : tensor<1x2048x!tt.ptr<bf16>>, tensor<1x2048xi32> loc(#loc104)
      %tmp31_22 = tt.load %tmp31_21, %r0_mask, %cst evictionPolicy = evict_last : tensor<1x2048x!tt.ptr<bf16>> loc(#loc105)
      %tmp31_23 = arith.extf %tmp31_22 : tensor<1x2048xbf16> to tensor<1x2048xf32> loc(#loc106)
      %tmp20 = arith.addf %tmp16_17, %tmp18_20 : tensor<1x2048xf32> loc(#loc107)
      %tmp23 = arith.addf %tmp14_14, %tmp20 : tensor<1x2048xf32> loc(#loc108)
      %tmp25 = arith.divf %tmp12_5, %cst_1 : tensor<1x1xf32> loc(#loc109)
      %tmp27 = arith.addf %tmp25, %cst_0 : tensor<1x1xf32> loc(#loc110)
      %tmp28 = tt.extern_elementwise %tmp27 {libname = "", libpath = "", pure = true, symbol = "__nv_rsqrtf"} : (tensor<1x1xf32>) -> tensor<1x1xf32> loc(#loc111)
      %tmp29 = tt.broadcast %tmp28 : tensor<1x1xf32> -> tensor<1x2048xf32> loc(#loc112)
      %tmp29_24 = arith.mulf %tmp23, %tmp29 : tensor<1x2048xf32> loc(#loc112)
      %tmp32 = arith.mulf %tmp29_24, %tmp31_23 : tensor<1x2048xf32> loc(#loc113)
      %0 = arith.truncf %tmp32 : tensor<1x2048xf32> to tensor<1x2048xbf16> loc(#loc56)
      tt.store %tmp14_10, %0, %tmp14_12 : tensor<1x2048x!tt.ptr<bf16>> loc(#loc56)
    } loc(#loc31)
    tt.return loc(#loc57)
  } loc(#loc)
} loc(#loc)
#loc2 = loc("/tmp/torchinductor_root/kz/ckztzm3qs2a4fpkj7fm3jvl7xbdic4gpmxru2ypbnmebv3bqnbwi.py":22:28)
#loc3 = loc("/tmp/torchinductor_root/kz/ckztzm3qs2a4fpkj7fm3jvl7xbdic4gpmxru2ypbnmebv3bqnbwi.py":24:21)
#loc4 = loc("/tmp/torchinductor_root/kz/ckztzm3qs2a4fpkj7fm3jvl7xbdic4gpmxru2ypbnmebv3bqnbwi.py":25:27)
#loc5 = loc("/tmp/torchinductor_root/kz/ckztzm3qs2a4fpkj7fm3jvl7xbdic4gpmxru2ypbnmebv3bqnbwi.py":25:37)
#loc6 = loc("/tmp/torchinductor_root/kz/ckztzm3qs2a4fpkj7fm3jvl7xbdic4gpmxru2ypbnmebv3bqnbwi.py":29:40)
#loc7 = loc("/tmp/torchinductor_root/kz/ckztzm3qs2a4fpkj7fm3jvl7xbdic4gpmxru2ypbnmebv3bqnbwi.py":30:31)
#loc8 = loc("/tmp/torchinductor_root/kz/ckztzm3qs2a4fpkj7fm3jvl7xbdic4gpmxru2ypbnmebv3bqnbwi.py":31:29)
#loc9 = loc("/tmp/torchinductor_root/kz/ckztzm3qs2a4fpkj7fm3jvl7xbdic4gpmxru2ypbnmebv3bqnbwi.py":35:50)
#loc10 = loc("/tmp/torchinductor_root/kz/ckztzm3qs2a4fpkj7fm3jvl7xbdic4gpmxru2ypbnmebv3bqnbwi.py":35:45)
#loc11 = loc("/tmp/torchinductor_root/kz/ckztzm3qs2a4fpkj7fm3jvl7xbdic4gpmxru2ypbnmebv3bqnbwi.py":35:38)
#loc12 = loc("/tmp/torchinductor_root/kz/ckztzm3qs2a4fpkj7fm3jvl7xbdic4gpmxru2ypbnmebv3bqnbwi.py":35:65)
#loc13 = loc("/tmp/torchinductor_root/kz/ckztzm3qs2a4fpkj7fm3jvl7xbdic4gpmxru2ypbnmebv3bqnbwi.py":35:55)
#loc14 = loc("/tmp/torchinductor_root/kz/ckztzm3qs2a4fpkj7fm3jvl7xbdic4gpmxru2ypbnmebv3bqnbwi.py":35:116)
#loc15 = loc("/tmp/torchinductor_root/kz/ckztzm3qs2a4fpkj7fm3jvl7xbdic4gpmxru2ypbnmebv3bqnbwi.py":36:34)
#loc16 = loc("/tmp/torchinductor_root/kz/ckztzm3qs2a4fpkj7fm3jvl7xbdic4gpmxru2ypbnmebv3bqnbwi.py":36:51)
#loc17 = loc("/tmp/torchinductor_root/kz/ckztzm3qs2a4fpkj7fm3jvl7xbdic4gpmxru2ypbnmebv3bqnbwi.py":36:112)
#loc18 = loc("/tmp/torchinductor_root/kz/ckztzm3qs2a4fpkj7fm3jvl7xbdic4gpmxru2ypbnmebv3bqnbwi.py":37:34)
#loc19 = loc("/tmp/torchinductor_root/kz/ckztzm3qs2a4fpkj7fm3jvl7xbdic4gpmxru2ypbnmebv3bqnbwi.py":37:51)
#loc20 = loc("/tmp/torchinductor_root/kz/ckztzm3qs2a4fpkj7fm3jvl7xbdic4gpmxru2ypbnmebv3bqnbwi.py":37:112)
#loc21 = loc("/tmp/torchinductor_root/kz/ckztzm3qs2a4fpkj7fm3jvl7xbdic4gpmxru2ypbnmebv3bqnbwi.py":41:22)
#loc22 = loc("/tmp/torchinductor_root/kz/ckztzm3qs2a4fpkj7fm3jvl7xbdic4gpmxru2ypbnmebv3bqnbwi.py":44:22)
#loc23 = loc("/tmp/torchinductor_root/kz/ckztzm3qs2a4fpkj7fm3jvl7xbdic4gpmxru2ypbnmebv3bqnbwi.py":45:23)
#loc24 = loc("/tmp/torchinductor_root/kz/ckztzm3qs2a4fpkj7fm3jvl7xbdic4gpmxru2ypbnmebv3bqnbwi.py":47:25)
#loc25 = loc("/tmp/torchinductor_root/kz/ckztzm3qs2a4fpkj7fm3jvl7xbdic4gpmxru2ypbnmebv3bqnbwi.py":48:50)
#loc26 = loc("/tmp/torchinductor_root/kz/ckztzm3qs2a4fpkj7fm3jvl7xbdic4gpmxru2ypbnmebv3bqnbwi.py":48:8)
#loc27 = loc("/root/miniconda3/envs/flagscale-inference/lib/python3.12/site-packages/triton/language/standard.py":291:36)
#loc29 = loc("/root/miniconda3/envs/flagscale-inference/lib/python3.12/site-packages/triton/language/standard.py":261:15)
#loc30 = loc("/tmp/torchinductor_root/kz/ckztzm3qs2a4fpkj7fm3jvl7xbdic4gpmxru2ypbnmebv3bqnbwi.py":49:30)
#loc31 = loc("/tmp/torchinductor_root/kz/ckztzm3qs2a4fpkj7fm3jvl7xbdic4gpmxru2ypbnmebv3bqnbwi.py":50:40)
#loc32 = loc("/tmp/torchinductor_root/kz/ckztzm3qs2a4fpkj7fm3jvl7xbdic4gpmxru2ypbnmebv3bqnbwi.py":51:31)
#loc33 = loc("/tmp/torchinductor_root/kz/ckztzm3qs2a4fpkj7fm3jvl7xbdic4gpmxru2ypbnmebv3bqnbwi.py":52:29)
#loc34 = loc("/tmp/torchinductor_root/kz/ckztzm3qs2a4fpkj7fm3jvl7xbdic4gpmxru2ypbnmebv3bqnbwi.py":56:51)
#loc35 = loc("/tmp/torchinductor_root/kz/ckztzm3qs2a4fpkj7fm3jvl7xbdic4gpmxru2ypbnmebv3bqnbwi.py":56:46)
#loc36 = loc("/tmp/torchinductor_root/kz/ckztzm3qs2a4fpkj7fm3jvl7xbdic4gpmxru2ypbnmebv3bqnbwi.py":56:39)
#loc37 = loc("/tmp/torchinductor_root/kz/ckztzm3qs2a4fpkj7fm3jvl7xbdic4gpmxru2ypbnmebv3bqnbwi.py":56:66)
#loc38 = loc("/tmp/torchinductor_root/kz/ckztzm3qs2a4fpkj7fm3jvl7xbdic4gpmxru2ypbnmebv3bqnbwi.py":56:56)
#loc39 = loc("/tmp/torchinductor_root/kz/ckztzm3qs2a4fpkj7fm3jvl7xbdic4gpmxru2ypbnmebv3bqnbwi.py":56:118)
#loc40 = loc("/tmp/torchinductor_root/kz/ckztzm3qs2a4fpkj7fm3jvl7xbdic4gpmxru2ypbnmebv3bqnbwi.py":57:35)
#loc41 = loc("/tmp/torchinductor_root/kz/ckztzm3qs2a4fpkj7fm3jvl7xbdic4gpmxru2ypbnmebv3bqnbwi.py":57:52)
#loc42 = loc("/tmp/torchinductor_root/kz/ckztzm3qs2a4fpkj7fm3jvl7xbdic4gpmxru2ypbnmebv3bqnbwi.py":57:114)
#loc43 = loc("/tmp/torchinductor_root/kz/ckztzm3qs2a4fpkj7fm3jvl7xbdic4gpmxru2ypbnmebv3bqnbwi.py":58:35)
#loc44 = loc("/tmp/torchinductor_root/kz/ckztzm3qs2a4fpkj7fm3jvl7xbdic4gpmxru2ypbnmebv3bqnbwi.py":58:52)
#loc45 = loc("/tmp/torchinductor_root/kz/ckztzm3qs2a4fpkj7fm3jvl7xbdic4gpmxru2ypbnmebv3bqnbwi.py":58:114)
#loc46 = loc("/tmp/torchinductor_root/kz/ckztzm3qs2a4fpkj7fm3jvl7xbdic4gpmxru2ypbnmebv3bqnbwi.py":59:35)
#loc47 = loc("/tmp/torchinductor_root/kz/ckztzm3qs2a4fpkj7fm3jvl7xbdic4gpmxru2ypbnmebv3bqnbwi.py":59:42)
#loc48 = loc("/tmp/torchinductor_root/kz/ckztzm3qs2a4fpkj7fm3jvl7xbdic4gpmxru2ypbnmebv3bqnbwi.py":59:95)
#loc49 = loc("/tmp/torchinductor_root/kz/ckztzm3qs2a4fpkj7fm3jvl7xbdic4gpmxru2ypbnmebv3bqnbwi.py":63:24)
#loc50 = loc("/tmp/torchinductor_root/kz/ckztzm3qs2a4fpkj7fm3jvl7xbdic4gpmxru2ypbnmebv3bqnbwi.py":66:24)
#loc51 = loc("/tmp/torchinductor_root/kz/ckztzm3qs2a4fpkj7fm3jvl7xbdic4gpmxru2ypbnmebv3bqnbwi.py":68:25)
#loc52 = loc("/tmp/torchinductor_root/kz/ckztzm3qs2a4fpkj7fm3jvl7xbdic4gpmxru2ypbnmebv3bqnbwi.py":70:24)
#loc53 = loc("/tmp/torchinductor_root/kz/ckztzm3qs2a4fpkj7fm3jvl7xbdic4gpmxru2ypbnmebv3bqnbwi.py":71:32)
#loc54 = loc("/tmp/torchinductor_root/kz/ckztzm3qs2a4fpkj7fm3jvl7xbdic4gpmxru2ypbnmebv3bqnbwi.py":72:24)
#loc55 = loc("/tmp/torchinductor_root/kz/ckztzm3qs2a4fpkj7fm3jvl7xbdic4gpmxru2ypbnmebv3bqnbwi.py":74:24)
#loc56 = loc("/tmp/torchinductor_root/kz/ckztzm3qs2a4fpkj7fm3jvl7xbdic4gpmxru2ypbnmebv3bqnbwi.py":75:56)
#loc57 = loc("/tmp/torchinductor_root/kz/ckztzm3qs2a4fpkj7fm3jvl7xbdic4gpmxru2ypbnmebv3bqnbwi.py":50:4)
#loc64 = loc("xoffset"(#loc2))
#loc65 = loc("xmask"(#loc3))
#loc66 = loc("r0_base"(#loc4))
#loc67 = loc("r0_base"(#loc5))
#loc68 = loc("_tmp12"(#loc6))
#loc69 = loc("r0_index"(#loc7))
#loc70 = loc("r0_mask"(#loc8))
#loc71 = loc("tmp0"(#loc9))
#loc72 = loc("tmp0"(#loc10))
#loc73 = loc("tmp0"(#loc11))
#loc74 = loc("tmp0"(#loc12))
#loc75 = loc("tmp0"(#loc13))
#loc76 = loc("tmp0"(#loc14))
#loc77 = loc("tmp2"(#loc15))
#loc78 = loc("tmp2"(#loc16))
#loc79 = loc("tmp2"(#loc17))
#loc80 = loc("tmp4"(#loc18))
#loc81 = loc("tmp4"(#loc19))
#loc82 = loc("tmp4"(#loc20))
#loc83 = loc("tmp6"(#loc21))
#loc84 = loc("tmp9"(#loc22))
#loc85 = loc("tmp10"(#loc23))
#loc86 = loc("tmp13"(#loc24))
#loc87 = loc("_tmp12"(#loc25))
#loc89 = loc("tmp12"(#loc30))
#loc90 = loc("r0_index"(#loc32))
#loc91 = loc("r0_mask"(#loc33))
#loc92 = loc("tmp14"(#loc34))
#loc93 = loc("tmp14"(#loc35))
#loc94 = loc("tmp14"(#loc36))
#loc95 = loc("tmp14"(#loc37))
#loc96 = loc("tmp14"(#loc38))
#loc97 = loc("tmp14"(#loc39))
#loc98 = loc("tmp16"(#loc40))
#loc99 = loc("tmp16"(#loc41))
#loc100 = loc("tmp16"(#loc42))
#loc101 = loc("tmp18"(#loc43))
#loc102 = loc("tmp18"(#loc44))
#loc103 = loc("tmp18"(#loc45))
#loc104 = loc("tmp31"(#loc46))
#loc105 = loc("tmp31"(#loc47))
#loc106 = loc("tmp31"(#loc48))
#loc107 = loc("tmp20"(#loc49))
#loc108 = loc("tmp23"(#loc50))
#loc109 = loc("tmp25"(#loc51))
#loc110 = loc("tmp27"(#loc52))
#loc111 = loc("tmp28"(#loc53))
#loc112 = loc("tmp29"(#loc54))
#loc113 = loc("tmp32"(#loc55))
#loc114 = loc(fused[#loc72, #loc71])
#loc115 = loc(fused[#loc74, #loc65])
#loc116 = loc(callsite(#loc27 at #loc88))
#loc118 = loc(fused[#loc93, #loc92])
#loc119 = loc(fused[#loc95, #loc65])
#loc120 = loc(callsite(#loc29 at #loc116))
