#loc = loc("/root/.flaggems/code_cache/pointwise_dynamic_067e0cb522fec720ec2d54cb282767b04a9d513e181bf6a2379fbc3e89cd66a7_mul_func_scalar_kernel_rank_1_bptr.py":61:0)
#loc14 = loc("in0_ptr"(#loc))
#loc15 = loc("val0"(#loc))
#loc16 = loc("out0_ptr"(#loc))
#loc17 = loc("in0_stride0"(#loc))
#loc18 = loc("out0_stride0"(#loc))
#loc19 = loc("s0"(#loc))
#loc20 = loc("num_tasks"(#loc))
#loc21 = loc("tiles_per_cta"(#loc))
module {
  tt.func public @mul_func_scalar_kernel_rank_1(%in0_ptr: !tt.ptr<f32> {tt.divisibility = 16 : i32} loc("in0_ptr"(#loc)), %val0: f32 loc("val0"(#loc)), %out0_ptr: !tt.ptr<f32> {tt.divisibility = 16 : i32} loc("out0_ptr"(#loc)), %in0_stride0: i32 loc("in0_stride0"(#loc)), %out0_stride0: i32 loc("out0_stride0"(#loc)), %s0: i32 {tt.divisibility = 16 : i32} loc("s0"(#loc)), %num_tasks: i32 {tt.divisibility = 16 : i32} loc("num_tasks"(#loc)), %tiles_per_cta: i32 loc("tiles_per_cta"(#loc))) attributes {noinline = false} {
    %cst = arith.constant dense<0> : tensor<64xi64> loc(#loc1)
    %offset0 = arith.constant 64 : i64 loc(#loc22)
    %pid = tt.get_program_id x : i32 loc(#loc29)
    %pid_0 = arith.extsi %pid : i32 to i64 loc(#loc30)
    %offset0_1 = arith.muli %pid_0, %offset0 : i64 loc(#loc22)
    %offset0_2 = arith.trunci %offset0_1 : i64 to i32 loc(#loc24)
    %in0_bptr = arith.extsi %s0 : i32 to i64 loc(#loc25)
    %in0_bptr_3 = arith.extsi %in0_stride0 : i32 to i64 loc(#loc25)
    %in0_bptr_4 = arith.extsi %offset0_2 : i32 to i64 loc(#loc25)
    %in0 = tt.splat %in0_ptr : !tt.ptr<f32> -> tensor<64x!tt.ptr<f32>> loc(#loc26)
    %in0_5 = tt.splat %in0_bptr_4 : i64 -> tensor<64xi64> loc(#loc26)
    %in0_6 = tt.make_range {end = 64 : i32, start = 0 : i32} : tensor<64xi32> loc(#loc26)
    %in0_7 = arith.extsi %in0_6 : tensor<64xi32> to tensor<64xi64> loc(#loc26)
    %in0_8 = arith.addi %in0_5, %in0_7 : tensor<64xi64> loc(#loc26)
    %in0_9 = tt.splat %in0_bptr_3 : i64 -> tensor<64xi64> loc(#loc26)
    %in0_10 = arith.muli %in0_8, %in0_9 : tensor<64xi64> loc(#loc26)
    %in0_11 = tt.addptr %in0, %in0_10 : tensor<64x!tt.ptr<f32>>, tensor<64xi64> loc(#loc26)
    %in0_12 = arith.cmpi sge, %in0_8, %cst : tensor<64xi64> loc(#loc26)
    %in0_13 = tt.splat %in0_bptr : i64 -> tensor<64xi64> loc(#loc26)
    %in0_14 = arith.cmpi slt, %in0_8, %in0_13 : tensor<64xi64> loc(#loc26)
    %in0_15 = arith.andi %in0_12, %in0_14 : tensor<64xi1> loc(#loc26)
    %in0_16 = tt.load %in0_11, %in0_15 : tensor<64x!tt.ptr<f32>> loc(#loc26)
    %out0 = tt.splat %val0 : f32 -> tensor<64xf32> loc(#loc31)
    %out0_17 = arith.mulf %in0_16, %out0 : tensor<64xf32> loc(#loc31)
    %out0_bptr = arith.extsi %out0_stride0 : i32 to i64 loc(#loc28)
    %0 = tt.splat %out0_ptr : !tt.ptr<f32> -> tensor<64x!tt.ptr<f32>> loc(#loc12)
    %1 = tt.splat %out0_bptr : i64 -> tensor<64xi64> loc(#loc12)
    %2 = arith.muli %in0_8, %1 : tensor<64xi64> loc(#loc12)
    %3 = tt.addptr %0, %2 : tensor<64x!tt.ptr<f32>>, tensor<64xi64> loc(#loc12)
    tt.store %3, %out0_17, %in0_15 : tensor<64x!tt.ptr<f32>> loc(#loc12)
    tt.return loc(#loc13)
  } loc(#loc)
} loc(#loc)
#loc1 = loc(unknown)
#loc2 = loc("/root/.flaggems/code_cache/pointwise_dynamic_067e0cb522fec720ec2d54cb282767b04a9d513e181bf6a2379fbc3e89cd66a7_mul_func_scalar_kernel_rank_1_bptr.py":83:30)
#loc3 = loc("/root/miniconda3/envs/flagscale-inference/lib/python3.12/site-packages/flag_gems/utils/triton_lang_extension.py":24:25)
#loc4 = loc("/root/.flaggems/code_cache/pointwise_dynamic_067e0cb522fec720ec2d54cb282767b04a9d513e181bf6a2379fbc3e89cd66a7_mul_func_scalar_kernel_rank_1_bptr.py":75:25)
#loc5 = loc("/root/miniconda3/envs/flagscale-inference/lib/python3.12/site-packages/flag_gems/utils/triton_lang_extension.py":24:34)
#loc6 = loc("/root/.flaggems/code_cache/pointwise_dynamic_067e0cb522fec720ec2d54cb282767b04a9d513e181bf6a2379fbc3e89cd66a7_mul_func_scalar_kernel_rank_1_bptr.py":83:45)
#loc7 = loc("/root/.flaggems/code_cache/pointwise_dynamic_067e0cb522fec720ec2d54cb282767b04a9d513e181bf6a2379fbc3e89cd66a7_mul_func_scalar_kernel_rank_1_bptr.py":85:81)
#loc8 = loc("/root/.flaggems/code_cache/pointwise_dynamic_067e0cb522fec720ec2d54cb282767b04a9d513e181bf6a2379fbc3e89cd66a7_mul_func_scalar_kernel_rank_1_bptr.py":86:22)
#loc9 = loc("/root/miniconda3/envs/flagscale-inference/lib/python3.12/site-packages/flag_gems/ops/mul.py":20:15)
#loc10 = loc("/root/.flaggems/code_cache/pointwise_dynamic_067e0cb522fec720ec2d54cb282767b04a9d513e181bf6a2379fbc3e89cd66a7_mul_func_scalar_kernel_rank_1_bptr.py":89:36)
#loc11 = loc("/root/.flaggems/code_cache/pointwise_dynamic_067e0cb522fec720ec2d54cb282767b04a9d513e181bf6a2379fbc3e89cd66a7_mul_func_scalar_kernel_rank_1_bptr.py":92:84)
#loc12 = loc("/root/.flaggems/code_cache/pointwise_dynamic_067e0cb522fec720ec2d54cb282767b04a9d513e181bf6a2379fbc3e89cd66a7_mul_func_scalar_kernel_rank_1_bptr.py":93:28)
#loc13 = loc("/root/.flaggems/code_cache/pointwise_dynamic_067e0cb522fec720ec2d54cb282767b04a9d513e181bf6a2379fbc3e89cd66a7_mul_func_scalar_kernel_rank_1_bptr.py":77:4)
#loc22 = loc("offset0"(#loc2))
#loc23 = loc("pid"(#loc4))
#loc24 = loc("offset0"(#loc6))
#loc25 = loc("in0_bptr"(#loc7))
#loc26 = loc("in0"(#loc8))
#loc27 = loc("out0"(#loc10))
#loc28 = loc("out0_bptr"(#loc11))
#loc29 = loc(callsite(#loc3 at #loc23))
#loc30 = loc(callsite(#loc5 at #loc23))
#loc31 = loc(callsite(#loc9 at #loc27))
