#loc = loc("/root/miniconda3/envs/flagscale-inference/lib/python3.12/site-packages/flag_gems/ops/arange.py":17:0)
#loc17 = loc("y_ptr"(#loc))
#loc18 = loc("start"(#loc))
#loc19 = loc("end"(#loc))
#loc20 = loc("step"(#loc))
#loc21 = loc("size"(#loc))
module {
  tt.func public @arange_func(%y_ptr: !tt.ptr<f32> {tt.divisibility = 16 : i32} loc("y_ptr"(#loc)), %start: i32 {tt.divisibility = 16 : i32} loc("start"(#loc)), %end: i32 {tt.divisibility = 16 : i32} loc("end"(#loc)), %step: i32 loc("step"(#loc)), %size: i32 {tt.divisibility = 16 : i32} loc("size"(#loc))) attributes {noinline = false} {
    %c128_i64 = arith.constant 128 : i64 loc(#loc1)
    %pid = tt.get_program_id x : i32 loc(#loc31)
    %pid_0 = arith.extsi %pid : i32 to i64 loc(#loc32)
    %y_ptr_1 = arith.muli %pid_0, %c128_i64 : i64 loc(#loc23)
    %y_ptr_2 = tt.addptr %y_ptr, %y_ptr_1 : !tt.ptr<f32>, i64 loc(#loc24)
    %step_offset = arith.extsi %step : i32 to i64 loc(#loc25)
    %step_offset_3 = arith.muli %y_ptr_1, %step_offset : i64 loc(#loc25)
    %cols = tt.make_range {end = 128 : i32, start = 0 : i32} : tensor<128xi32> loc(#loc26)
    %arange_val = tt.splat %step : i32 -> tensor<128xi32> loc(#loc27)
    %arange_val_4 = arith.muli %cols, %arange_val : tensor<128xi32> loc(#loc27)
    %arange_val_5 = arith.extsi %arange_val_4 : tensor<128xi32> to tensor<128xi64> loc(#loc28)
    %arange_val_6 = tt.splat %step_offset_3 : i64 -> tensor<128xi64> loc(#loc28)
    %arange_val_7 = arith.addi %arange_val_5, %arange_val_6 : tensor<128xi64> loc(#loc28)
    %arange_val_8 = arith.extsi %start : i32 to i64 loc(#loc29)
    %arange_val_9 = tt.splat %arange_val_8 : i64 -> tensor<128xi64> loc(#loc29)
    %arange_val_10 = arith.addi %arange_val_7, %arange_val_9 : tensor<128xi64> loc(#loc29)
    %mask = arith.extsi %cols : tensor<128xi32> to tensor<128xi64> loc(#loc30)
    %mask_11 = tt.splat %y_ptr_1 : i64 -> tensor<128xi64> loc(#loc30)
    %mask_12 = arith.addi %mask, %mask_11 : tensor<128xi64> loc(#loc30)
    %0 = arith.extsi %size : i32 to i64 loc(#loc13)
    %1 = tt.splat %0 : i64 -> tensor<128xi64> loc(#loc13)
    %2 = arith.cmpi slt, %mask_12, %1 : tensor<128xi64> loc(#loc13)
    %3 = tt.splat %y_ptr_2 : !tt.ptr<f32> -> tensor<128x!tt.ptr<f32>> loc(#loc14)
    %4 = tt.addptr %3, %cols : tensor<128x!tt.ptr<f32>>, tensor<128xi32> loc(#loc14)
    %5 = arith.sitofp %arange_val_10 : tensor<128xi64> to tensor<128xf32> loc(#loc15)
    tt.store %4, %5, %2 : tensor<128x!tt.ptr<f32>> loc(#loc15)
    tt.return loc(#loc16)
  } loc(#loc)
} loc(#loc)
#loc1 = loc(unknown)
#loc2 = loc("/root/miniconda3/envs/flagscale-inference/lib/python3.12/site-packages/flag_gems/utils/triton_lang_extension.py":24:25)
#loc3 = loc("/root/miniconda3/envs/flagscale-inference/lib/python3.12/site-packages/flag_gems/ops/arange.py":18:25)
#loc4 = loc("/root/miniconda3/envs/flagscale-inference/lib/python3.12/site-packages/flag_gems/utils/triton_lang_extension.py":24:34)
#loc5 = loc("/root/miniconda3/envs/flagscale-inference/lib/python3.12/site-packages/flag_gems/ops/arange.py":19:19)
#loc6 = loc("/root/miniconda3/envs/flagscale-inference/lib/python3.12/site-packages/flag_gems/ops/arange.py":19:13)
#loc7 = loc("/root/miniconda3/envs/flagscale-inference/lib/python3.12/site-packages/flag_gems/ops/arange.py":20:37)
#loc8 = loc("/root/miniconda3/envs/flagscale-inference/lib/python3.12/site-packages/flag_gems/ops/arange.py":22:24)
#loc9 = loc("/root/miniconda3/envs/flagscale-inference/lib/python3.12/site-packages/flag_gems/ops/arange.py":23:24)
#loc10 = loc("/root/miniconda3/envs/flagscale-inference/lib/python3.12/site-packages/flag_gems/ops/arange.py":23:31)
#loc11 = loc("/root/miniconda3/envs/flagscale-inference/lib/python3.12/site-packages/flag_gems/ops/arange.py":23:45)
#loc12 = loc("/root/miniconda3/envs/flagscale-inference/lib/python3.12/site-packages/flag_gems/ops/arange.py":24:18)
#loc13 = loc("/root/miniconda3/envs/flagscale-inference/lib/python3.12/site-packages/flag_gems/ops/arange.py":25:51)
#loc14 = loc("/root/miniconda3/envs/flagscale-inference/lib/python3.12/site-packages/flag_gems/ops/arange.py":25:21)
#loc15 = loc("/root/miniconda3/envs/flagscale-inference/lib/python3.12/site-packages/flag_gems/ops/arange.py":25:27)
#loc16 = loc("/root/miniconda3/envs/flagscale-inference/lib/python3.12/site-packages/flag_gems/ops/arange.py":25:4)
#loc22 = loc("pid"(#loc3))
#loc23 = loc("y_ptr"(#loc5))
#loc24 = loc("y_ptr"(#loc6))
#loc25 = loc("step_offset"(#loc7))
#loc26 = loc("cols"(#loc8))
#loc27 = loc("arange_val"(#loc9))
#loc28 = loc("arange_val"(#loc10))
#loc29 = loc("arange_val"(#loc11))
#loc30 = loc("mask"(#loc12))
#loc31 = loc(callsite(#loc2 at #loc22))
#loc32 = loc(callsite(#loc4 at #loc22))
