#loc = loc("/tmp/torchinductor_root/gu/cguakxafsbm6kcyjyahqwkrnqxzn3lq45s6r3nxu7iup3axvoqta.py":18:0)
#loc66 = loc("/root/miniconda3/envs/flagscale-inference/lib/python3.12/site-packages/triton/language/standard.py":285:0)
#loc68 = loc(unknown)
#loc71 = loc("/root/miniconda3/envs/flagscale-inference/lib/python3.12/site-packages/triton/language/standard.py":260:0)
#loc75 = loc("in_ptr0"(#loc))
#loc76 = loc("in_ptr1"(#loc))
#loc77 = loc("in_ptr2"(#loc))
#loc78 = loc("out_ptr1"(#loc))
#loc79 = loc("xnumel"(#loc))
#loc80 = loc("r0_numel"(#loc))
#loc138 = loc("input"(#loc66))
#loc139 = loc("a"(#loc71))
#loc140 = loc("b"(#loc71))
module {
  tt.func public @triton_red_fused__to_copy_add_mean_mul_pow_rsqrt_0(%in_ptr0: !tt.ptr<bf16> {tt.divisibility = 16 : i32} loc("in_ptr0"(#loc)), %in_ptr1: !tt.ptr<bf16> {tt.divisibility = 16 : i32} loc("in_ptr1"(#loc)), %in_ptr2: !tt.ptr<bf16> {tt.divisibility = 16 : i32} loc("in_ptr2"(#loc)), %out_ptr1: !tt.ptr<bf16> {tt.divisibility = 16 : i32} loc("out_ptr1"(#loc)), %xnumel: i32 loc("xnumel"(#loc)), %r0_numel: i32 {tt.divisibility = 16 : i32} loc("r0_numel"(#loc))) attributes {noinline = false} {
    %r0_numel_0 = arith.constant 5120 : i32 loc(#loc81)
    %xoffset = tt.get_program_id x : i32 loc(#loc82)
    %xoffset_1 = arith.constant 1 : i32 loc(#loc83)
    %xoffset_2 = arith.constant 1 : i32 loc(#loc83)
    %xoffset_3 = arith.muli %xoffset, %xoffset_2 : i32 loc(#loc83)
    %xindex = tt.make_range {end = 1 : i32, start = 0 : i32} : tensor<1xi32> loc(#loc84)
    %xindex_4 = tt.expand_dims %xindex {axis = 1 : i32} : tensor<1xi32> -> tensor<1x1xi32> loc(#loc85)
    %xindex_5 = tt.splat %xoffset_3 : i32 -> tensor<1x1xi32> loc(#loc86)
    %xindex_6 = arith.addi %xindex_5, %xindex_4 : tensor<1x1xi32> loc(#loc86)
    %xmask = tt.splat %xnumel : i32 -> tensor<1x1xi32> loc(#loc87)
    %xmask_7 = arith.cmpi slt, %xindex_6, %xmask : tensor<1x1xi32> loc(#loc87)
    %r0_base = tt.make_range {end = 1024 : i32, start = 0 : i32} : tensor<1024xi32> loc(#loc88)
    %r0_base_8 = tt.expand_dims %r0_base {axis = 0 : i32} : tensor<1024xi32> -> tensor<1x1024xi32> loc(#loc89)
    %_tmp7 = arith.constant 0.000000e+00 : f32 loc(#loc90)
    %_tmp7_9 = arith.constant dense<0.000000e+00> : tensor<1x1024xf32> loc(#loc90)
    %c0_i32 = arith.constant 0 : i32 loc(#loc11)
    %c1024_i32 = arith.constant 1024 : i32 loc(#loc11)
    %0 = arith.bitcast %c0_i32 : i32 to i32 loc(#loc11)
    %1 = arith.bitcast %r0_numel_0 : i32 to i32 loc(#loc11)
    %2 = arith.bitcast %c1024_i32 : i32 to i32 loc(#loc11)
    %3 = ub.poison : i32 loc(#loc11)
    %_tmp7_10 = scf.for %r0_offset = %0 to %1 step %2 iter_args(%_tmp7_14 = %_tmp7_9) -> (tensor<1x1024xf32>)  : i32 {
      %r0_index = tt.splat %r0_offset : i32 -> tensor<1x1024xi32> loc(#loc92)
      %r0_index_15 = arith.addi %r0_index, %r0_base_8 : tensor<1x1024xi32> loc(#loc92)
      %r0_mask = arith.constant dense<5120> : tensor<1x1024xi32> loc(#loc93)
      %r0_mask_16 = arith.cmpi slt, %r0_index_15, %r0_mask : tensor<1x1024xi32> loc(#loc93)
      %tmp0 = arith.constant 5120 : i32 loc(#loc94)
      %tmp0_17 = arith.constant 5120 : i32 loc(#loc94)
      %tmp0_18 = arith.constant dense<5120> : tensor<1x1xi32> loc(#loc94)
      %tmp0_19 = arith.muli %tmp0_18, %xindex_6 : tensor<1x1xi32> loc(#loc94)
      %tmp0_20 = tt.broadcast %tmp0_19 : tensor<1x1xi32> -> tensor<1x1024xi32> loc(#loc95)
      %tmp0_21 = arith.addi %r0_index_15, %tmp0_20 : tensor<1x1024xi32> loc(#loc95)
      %tmp0_22 = tt.splat %in_ptr0 : !tt.ptr<bf16> -> tensor<1x1024x!tt.ptr<bf16>> loc(#loc96)
      %tmp0_23 = tt.addptr %tmp0_22, %tmp0_21 : tensor<1x1024x!tt.ptr<bf16>>, tensor<1x1024xi32> loc(#loc96)
      %tmp0_24 = tt.broadcast %xmask_7 : tensor<1x1xi1> -> tensor<1x1024xi1> loc(#loc97)
      %tmp0_25 = arith.andi %r0_mask_16, %tmp0_24 : tensor<1x1024xi1> loc(#loc97)
      %tmp0_26 = arith.constant 0.000000e+00 : f32 loc(#loc98)
      %tmp0_27 = arith.constant dense<0.000000e+00> : tensor<1x1024xf32> loc(#loc98)
      %tmp0_28 = arith.truncf %tmp0_27 : tensor<1x1024xf32> to tensor<1x1024xbf16> loc(#loc98)
      %tmp0_29 = tt.load %tmp0_23, %tmp0_25, %tmp0_28 evictionPolicy = evict_last : tensor<1x1024x!tt.ptr<bf16>> loc(#loc98)
      %tmp0_30 = arith.extf %tmp0_29 : tensor<1x1024xbf16> to tensor<1x1024xf32> loc(#loc99)
      %tmp2 = arith.constant 5120 : i32 loc(#loc100)
      %tmp2_31 = arith.constant 5120 : i32 loc(#loc100)
      %tmp2_32 = arith.constant dense<5120> : tensor<1x1xi32> loc(#loc100)
      %tmp2_33 = arith.muli %tmp2_32, %xindex_6 : tensor<1x1xi32> loc(#loc100)
      %tmp2_34 = tt.broadcast %tmp2_33 : tensor<1x1xi32> -> tensor<1x1024xi32> loc(#loc101)
      %tmp2_35 = arith.addi %r0_index_15, %tmp2_34 : tensor<1x1024xi32> loc(#loc101)
      %tmp2_36 = tt.splat %in_ptr1 : !tt.ptr<bf16> -> tensor<1x1024x!tt.ptr<bf16>> loc(#loc102)
      %tmp2_37 = tt.addptr %tmp2_36, %tmp2_35 : tensor<1x1024x!tt.ptr<bf16>>, tensor<1x1024xi32> loc(#loc102)
      %tmp2_38 = tt.broadcast %xmask_7 : tensor<1x1xi1> -> tensor<1x1024xi1> loc(#loc103)
      %tmp2_39 = arith.andi %r0_mask_16, %tmp2_38 : tensor<1x1024xi1> loc(#loc103)
      %tmp2_40 = arith.constant 0.000000e+00 : f32 loc(#loc104)
      %tmp2_41 = arith.constant dense<0.000000e+00> : tensor<1x1024xf32> loc(#loc104)
      %tmp2_42 = arith.truncf %tmp2_41 : tensor<1x1024xf32> to tensor<1x1024xbf16> loc(#loc104)
      %tmp2_43 = tt.load %tmp2_37, %tmp2_39, %tmp2_42 evictionPolicy = evict_last : tensor<1x1024x!tt.ptr<bf16>> loc(#loc104)
      %tmp2_44 = arith.extf %tmp2_43 : tensor<1x1024xbf16> to tensor<1x1024xf32> loc(#loc105)
      %tmp4 = arith.addf %tmp0_30, %tmp2_44 : tensor<1x1024xf32> loc(#loc106)
      %tmp5 = arith.mulf %tmp4, %tmp4 : tensor<1x1024xf32> loc(#loc107)
      %tmp8 = arith.addf %_tmp7_14, %tmp5 : tensor<1x1024xf32> loc(#loc108)
      %_tmp7_45 = tt.broadcast %xmask_7 : tensor<1x1xi1> -> tensor<1x1024xi1> loc(#loc109)
      %_tmp7_46 = arith.andi %r0_mask_16, %_tmp7_45 : tensor<1x1024xi1> loc(#loc109)
      %_tmp7_47 = arith.select %_tmp7_46, %tmp8, %_tmp7_14 : tensor<1x1024xi1>, tensor<1x1024xf32> loc(#loc110)
      scf.yield %_tmp7_47 : tensor<1x1024xf32> loc(#loc31)
    } loc(#loc91)
    %tmp7 = tt.call @"triton.language.standard.sum__fp32S1_1024S__(1,)cconstexpr_1__(2,)cconstexpr_False__(3,)cNone"(%_tmp7_10) : (tensor<1x1024xf32>) -> tensor<1xf32> loc(#loc111)
    %tmp7_11 = tt.expand_dims %tmp7 {axis = 1 : i32} : tensor<1xf32> -> tensor<1x1xf32> loc(#loc112)
    %c0_i32_12 = arith.constant 0 : i32 loc(#loc34)
    %c1024_i32_13 = arith.constant 1024 : i32 loc(#loc34)
    %4 = arith.bitcast %c0_i32_12 : i32 to i32 loc(#loc34)
    %5 = arith.bitcast %r0_numel_0 : i32 to i32 loc(#loc34)
    %6 = arith.bitcast %c1024_i32_13 : i32 to i32 loc(#loc34)
    %7 = ub.poison : i32 loc(#loc34)
    scf.for %r0_offset = %4 to %5 step %6  : i32 {
      %r0_index = tt.splat %r0_offset : i32 -> tensor<1x1024xi32> loc(#loc113)
      %r0_index_14 = arith.addi %r0_index, %r0_base_8 : tensor<1x1024xi32> loc(#loc113)
      %r0_mask = arith.constant dense<5120> : tensor<1x1024xi32> loc(#loc114)
      %r0_mask_15 = arith.cmpi slt, %r0_index_14, %r0_mask : tensor<1x1024xi32> loc(#loc114)
      %tmp9 = arith.constant 5120 : i32 loc(#loc115)
      %tmp9_16 = arith.constant 5120 : i32 loc(#loc115)
      %tmp9_17 = arith.constant dense<5120> : tensor<1x1xi32> loc(#loc115)
      %tmp9_18 = arith.muli %tmp9_17, %xindex_6 : tensor<1x1xi32> loc(#loc115)
      %tmp9_19 = tt.broadcast %tmp9_18 : tensor<1x1xi32> -> tensor<1x1024xi32> loc(#loc116)
      %tmp9_20 = arith.addi %r0_index_14, %tmp9_19 : tensor<1x1024xi32> loc(#loc116)
      %tmp9_21 = tt.splat %in_ptr0 : !tt.ptr<bf16> -> tensor<1x1024x!tt.ptr<bf16>> loc(#loc117)
      %tmp9_22 = tt.addptr %tmp9_21, %tmp9_20 : tensor<1x1024x!tt.ptr<bf16>>, tensor<1x1024xi32> loc(#loc117)
      %tmp9_23 = tt.broadcast %xmask_7 : tensor<1x1xi1> -> tensor<1x1024xi1> loc(#loc118)
      %tmp9_24 = arith.andi %r0_mask_15, %tmp9_23 : tensor<1x1024xi1> loc(#loc118)
      %tmp9_25 = arith.constant 0.000000e+00 : f32 loc(#loc119)
      %tmp9_26 = arith.constant dense<0.000000e+00> : tensor<1x1024xf32> loc(#loc119)
      %tmp9_27 = arith.truncf %tmp9_26 : tensor<1x1024xf32> to tensor<1x1024xbf16> loc(#loc119)
      %tmp9_28 = tt.load %tmp9_22, %tmp9_24, %tmp9_27 evictionPolicy = evict_first : tensor<1x1024x!tt.ptr<bf16>> loc(#loc119)
      %tmp9_29 = arith.extf %tmp9_28 : tensor<1x1024xbf16> to tensor<1x1024xf32> loc(#loc120)
      %tmp11 = arith.constant 5120 : i32 loc(#loc121)
      %tmp11_30 = arith.constant 5120 : i32 loc(#loc121)
      %tmp11_31 = arith.constant dense<5120> : tensor<1x1xi32> loc(#loc121)
      %tmp11_32 = arith.muli %tmp11_31, %xindex_6 : tensor<1x1xi32> loc(#loc121)
      %tmp11_33 = tt.broadcast %tmp11_32 : tensor<1x1xi32> -> tensor<1x1024xi32> loc(#loc122)
      %tmp11_34 = arith.addi %r0_index_14, %tmp11_33 : tensor<1x1024xi32> loc(#loc122)
      %tmp11_35 = tt.splat %in_ptr1 : !tt.ptr<bf16> -> tensor<1x1024x!tt.ptr<bf16>> loc(#loc123)
      %tmp11_36 = tt.addptr %tmp11_35, %tmp11_34 : tensor<1x1024x!tt.ptr<bf16>>, tensor<1x1024xi32> loc(#loc123)
      %tmp11_37 = tt.broadcast %xmask_7 : tensor<1x1xi1> -> tensor<1x1024xi1> loc(#loc124)
      %tmp11_38 = arith.andi %r0_mask_15, %tmp11_37 : tensor<1x1024xi1> loc(#loc124)
      %tmp11_39 = arith.constant 0.000000e+00 : f32 loc(#loc125)
      %tmp11_40 = arith.constant dense<0.000000e+00> : tensor<1x1024xf32> loc(#loc125)
      %tmp11_41 = arith.truncf %tmp11_40 : tensor<1x1024xf32> to tensor<1x1024xbf16> loc(#loc125)
      %tmp11_42 = tt.load %tmp11_36, %tmp11_38, %tmp11_41 evictionPolicy = evict_first : tensor<1x1024x!tt.ptr<bf16>> loc(#loc125)
      %tmp11_43 = arith.extf %tmp11_42 : tensor<1x1024xbf16> to tensor<1x1024xf32> loc(#loc126)
      %tmp21 = tt.splat %in_ptr2 : !tt.ptr<bf16> -> tensor<1x1024x!tt.ptr<bf16>> loc(#loc127)
      %tmp21_44 = tt.addptr %tmp21, %r0_index_14 : tensor<1x1024x!tt.ptr<bf16>>, tensor<1x1024xi32> loc(#loc127)
      %tmp21_45 = arith.constant 0.000000e+00 : f32 loc(#loc128)
      %tmp21_46 = arith.constant dense<0.000000e+00> : tensor<1x1024xf32> loc(#loc128)
      %tmp21_47 = arith.truncf %tmp21_46 : tensor<1x1024xf32> to tensor<1x1024xbf16> loc(#loc128)
      %tmp21_48 = tt.load %tmp21_44, %r0_mask_15, %tmp21_47 evictionPolicy = evict_last : tensor<1x1024x!tt.ptr<bf16>> loc(#loc128)
      %tmp21_49 = arith.extf %tmp21_48 : tensor<1x1024xbf16> to tensor<1x1024xf32> loc(#loc129)
      %tmp13 = arith.addf %tmp9_29, %tmp11_43 : tensor<1x1024xf32> loc(#loc130)
      %tmp14 = arith.constant 5.120000e+03 : f32 loc(#loc131)
      %tmp15 = arith.constant dense<5.120000e+03> : tensor<1x1xf32> loc(#loc132)
      %tmp15_50 = arith.divf %tmp7_11, %tmp15 : tensor<1x1xf32> loc(#loc132)
      %tmp16 = arith.constant 9.99999997E-7 : f32 loc(#loc133)
      %tmp17 = arith.constant dense<9.99999997E-7> : tensor<1x1xf32> loc(#loc134)
      %tmp17_51 = arith.addf %tmp15_50, %tmp17 : tensor<1x1xf32> loc(#loc134)
      %tmp18 = tt.extern_elementwise %tmp17_51 {libname = "", libpath = "", pure = true, symbol = "__nv_rsqrtf"} : (tensor<1x1xf32>) -> tensor<1x1xf32> loc(#loc135)
      %tmp19 = tt.broadcast %tmp18 : tensor<1x1xf32> -> tensor<1x1024xf32> loc(#loc136)
      %tmp19_52 = arith.mulf %tmp13, %tmp19 : tensor<1x1024xf32> loc(#loc136)
      %tmp22 = arith.mulf %tmp19_52, %tmp21_49 : tensor<1x1024xf32> loc(#loc137)
      %c5120_i32 = arith.constant 5120 : i32 loc(#loc60)
      %c5120_i32_53 = arith.constant 5120 : i32 loc(#loc60)
      %cst = arith.constant dense<5120> : tensor<1x1xi32> loc(#loc60)
      %8 = arith.muli %cst, %xindex_6 : tensor<1x1xi32> loc(#loc60)
      %9 = tt.broadcast %8 : tensor<1x1xi32> -> tensor<1x1024xi32> loc(#loc61)
      %10 = arith.addi %r0_index_14, %9 : tensor<1x1024xi32> loc(#loc61)
      %11 = tt.splat %out_ptr1 : !tt.ptr<bf16> -> tensor<1x1024x!tt.ptr<bf16>> loc(#loc62)
      %12 = tt.addptr %11, %10 : tensor<1x1024x!tt.ptr<bf16>>, tensor<1x1024xi32> loc(#loc62)
      %13 = tt.broadcast %xmask_7 : tensor<1x1xi1> -> tensor<1x1024xi1> loc(#loc63)
      %14 = arith.andi %r0_mask_15, %13 : tensor<1x1024xi1> loc(#loc63)
      %15 = arith.truncf %tmp22 : tensor<1x1024xf32> to tensor<1x1024xbf16> loc(#loc64)
      tt.store %12, %15, %14 : tensor<1x1024x!tt.ptr<bf16>> loc(#loc64)
    } loc(#loc34)
    tt.return loc(#loc65)
  } loc(#loc)
  tt.func private @"triton.language.standard.sum__fp32S1_1024S__(1,)cconstexpr_1__(2,)cconstexpr_False__(3,)cNone"(%input: tensor<1x1024xf32> loc("input"(#loc66))) -> tensor<1xf32> attributes {noinline = false} {
    %0 = "tt.reduce"(%input) <{axis = 1 : i32}> ({
    ^bb0(%arg1: f32 loc(unknown), %arg2: f32 loc(unknown)):
      %2 = tt.call @triton.language.standard._sum_combine__fp32_fp32__(%arg1, %arg2) : (f32, f32) -> f32 loc(#loc67)
      tt.reduce.return %2 : f32 loc(#loc67)
    }) : (tensor<1x1024xf32>) -> tensor<1xf32> loc(#loc67)
    tt.return %0 : tensor<1xf32> loc(#loc69)
  ^bb1:  // no predecessors
    %1 = ub.poison : tensor<1xf32> loc(#loc70)
    tt.return %1 : tensor<1xf32> loc(#loc70)
  } loc(#loc66)
  tt.func private @triton.language.standard._sum_combine__fp32_fp32__(%a: f32 loc("a"(#loc71)), %b: f32 loc("b"(#loc71))) -> f32 attributes {noinline = false} {
    %0 = arith.addf %a, %b : f32 loc(#loc72)
    tt.return %0 : f32 loc(#loc73)
  ^bb1:  // no predecessors
    %1 = ub.poison : f32 loc(#loc74)
    tt.return %1 : f32 loc(#loc74)
  } loc(#loc71)
} loc(#loc)
#loc1 = loc("/tmp/torchinductor_root/gu/cguakxafsbm6kcyjyahqwkrnqxzn3lq45s6r3nxu7iup3axvoqta.py":19:15)
#loc2 = loc("/tmp/torchinductor_root/gu/cguakxafsbm6kcyjyahqwkrnqxzn3lq45s6r3nxu7iup3axvoqta.py":22:28)
#loc3 = loc("/tmp/torchinductor_root/gu/cguakxafsbm6kcyjyahqwkrnqxzn3lq45s6r3nxu7iup3axvoqta.py":22:33)
#loc4 = loc("/tmp/torchinductor_root/gu/cguakxafsbm6kcyjyahqwkrnqxzn3lq45s6r3nxu7iup3axvoqta.py":23:36)
#loc5 = loc("/tmp/torchinductor_root/gu/cguakxafsbm6kcyjyahqwkrnqxzn3lq45s6r3nxu7iup3axvoqta.py":23:44)
#loc6 = loc("/tmp/torchinductor_root/gu/cguakxafsbm6kcyjyahqwkrnqxzn3lq45s6r3nxu7iup3axvoqta.py":23:23)
#loc7 = loc("/tmp/torchinductor_root/gu/cguakxafsbm6kcyjyahqwkrnqxzn3lq45s6r3nxu7iup3axvoqta.py":24:21)
#loc8 = loc("/tmp/torchinductor_root/gu/cguakxafsbm6kcyjyahqwkrnqxzn3lq45s6r3nxu7iup3axvoqta.py":25:27)
#loc9 = loc("/tmp/torchinductor_root/gu/cguakxafsbm6kcyjyahqwkrnqxzn3lq45s6r3nxu7iup3axvoqta.py":25:37)
#loc10 = loc("/tmp/torchinductor_root/gu/cguakxafsbm6kcyjyahqwkrnqxzn3lq45s6r3nxu7iup3axvoqta.py":28:43)
#loc11 = loc("/tmp/torchinductor_root/gu/cguakxafsbm6kcyjyahqwkrnqxzn3lq45s6r3nxu7iup3axvoqta.py":29:40)
#loc12 = loc("/tmp/torchinductor_root/gu/cguakxafsbm6kcyjyahqwkrnqxzn3lq45s6r3nxu7iup3axvoqta.py":30:31)
#loc13 = loc("/tmp/torchinductor_root/gu/cguakxafsbm6kcyjyahqwkrnqxzn3lq45s6r3nxu7iup3axvoqta.py":31:29)
#loc14 = loc("/tmp/torchinductor_root/gu/cguakxafsbm6kcyjyahqwkrnqxzn3lq45s6r3nxu7iup3axvoqta.py":35:46)
#loc15 = loc("/tmp/torchinductor_root/gu/cguakxafsbm6kcyjyahqwkrnqxzn3lq45s6r3nxu7iup3axvoqta.py":35:41)
#loc16 = loc("/tmp/torchinductor_root/gu/cguakxafsbm6kcyjyahqwkrnqxzn3lq45s6r3nxu7iup3axvoqta.py":35:34)
#loc17 = loc("/tmp/torchinductor_root/gu/cguakxafsbm6kcyjyahqwkrnqxzn3lq45s6r3nxu7iup3axvoqta.py":35:61)
#loc18 = loc("/tmp/torchinductor_root/gu/cguakxafsbm6kcyjyahqwkrnqxzn3lq45s6r3nxu7iup3axvoqta.py":35:51)
#loc19 = loc("/tmp/torchinductor_root/gu/cguakxafsbm6kcyjyahqwkrnqxzn3lq45s6r3nxu7iup3axvoqta.py":35:112)
#loc20 = loc("/tmp/torchinductor_root/gu/cguakxafsbm6kcyjyahqwkrnqxzn3lq45s6r3nxu7iup3axvoqta.py":36:46)
#loc21 = loc("/tmp/torchinductor_root/gu/cguakxafsbm6kcyjyahqwkrnqxzn3lq45s6r3nxu7iup3axvoqta.py":36:41)
#loc22 = loc("/tmp/torchinductor_root/gu/cguakxafsbm6kcyjyahqwkrnqxzn3lq45s6r3nxu7iup3axvoqta.py":36:34)
#loc23 = loc("/tmp/torchinductor_root/gu/cguakxafsbm6kcyjyahqwkrnqxzn3lq45s6r3nxu7iup3axvoqta.py":36:61)
#loc24 = loc("/tmp/torchinductor_root/gu/cguakxafsbm6kcyjyahqwkrnqxzn3lq45s6r3nxu7iup3axvoqta.py":36:51)
#loc25 = loc("/tmp/torchinductor_root/gu/cguakxafsbm6kcyjyahqwkrnqxzn3lq45s6r3nxu7iup3axvoqta.py":36:112)
#loc26 = loc("/tmp/torchinductor_root/gu/cguakxafsbm6kcyjyahqwkrnqxzn3lq45s6r3nxu7iup3axvoqta.py":39:22)
#loc27 = loc("/tmp/torchinductor_root/gu/cguakxafsbm6kcyjyahqwkrnqxzn3lq45s6r3nxu7iup3axvoqta.py":40:22)
#loc28 = loc("/tmp/torchinductor_root/gu/cguakxafsbm6kcyjyahqwkrnqxzn3lq45s6r3nxu7iup3axvoqta.py":42:23)
#loc29 = loc("/tmp/torchinductor_root/gu/cguakxafsbm6kcyjyahqwkrnqxzn3lq45s6r3nxu7iup3axvoqta.py":43:35)
#loc30 = loc("/tmp/torchinductor_root/gu/cguakxafsbm6kcyjyahqwkrnqxzn3lq45s6r3nxu7iup3axvoqta.py":43:48)
#loc31 = loc("/tmp/torchinductor_root/gu/cguakxafsbm6kcyjyahqwkrnqxzn3lq45s6r3nxu7iup3axvoqta.py":43:8)
#loc32 = loc("/tmp/torchinductor_root/gu/cguakxafsbm6kcyjyahqwkrnqxzn3lq45s6r3nxu7iup3axvoqta.py":44:25)
#loc33 = loc("/tmp/torchinductor_root/gu/cguakxafsbm6kcyjyahqwkrnqxzn3lq45s6r3nxu7iup3axvoqta.py":44:28)
#loc34 = loc("/tmp/torchinductor_root/gu/cguakxafsbm6kcyjyahqwkrnqxzn3lq45s6r3nxu7iup3axvoqta.py":45:40)
#loc35 = loc("/tmp/torchinductor_root/gu/cguakxafsbm6kcyjyahqwkrnqxzn3lq45s6r3nxu7iup3axvoqta.py":46:31)
#loc36 = loc("/tmp/torchinductor_root/gu/cguakxafsbm6kcyjyahqwkrnqxzn3lq45s6r3nxu7iup3axvoqta.py":47:29)
#loc37 = loc("/tmp/torchinductor_root/gu/cguakxafsbm6kcyjyahqwkrnqxzn3lq45s6r3nxu7iup3axvoqta.py":51:46)
#loc38 = loc("/tmp/torchinductor_root/gu/cguakxafsbm6kcyjyahqwkrnqxzn3lq45s6r3nxu7iup3axvoqta.py":51:41)
#loc39 = loc("/tmp/torchinductor_root/gu/cguakxafsbm6kcyjyahqwkrnqxzn3lq45s6r3nxu7iup3axvoqta.py":51:34)
#loc40 = loc("/tmp/torchinductor_root/gu/cguakxafsbm6kcyjyahqwkrnqxzn3lq45s6r3nxu7iup3axvoqta.py":51:61)
#loc41 = loc("/tmp/torchinductor_root/gu/cguakxafsbm6kcyjyahqwkrnqxzn3lq45s6r3nxu7iup3axvoqta.py":51:51)
#loc42 = loc("/tmp/torchinductor_root/gu/cguakxafsbm6kcyjyahqwkrnqxzn3lq45s6r3nxu7iup3axvoqta.py":51:113)
#loc43 = loc("/tmp/torchinductor_root/gu/cguakxafsbm6kcyjyahqwkrnqxzn3lq45s6r3nxu7iup3axvoqta.py":52:47)
#loc44 = loc("/tmp/torchinductor_root/gu/cguakxafsbm6kcyjyahqwkrnqxzn3lq45s6r3nxu7iup3axvoqta.py":52:42)
#loc45 = loc("/tmp/torchinductor_root/gu/cguakxafsbm6kcyjyahqwkrnqxzn3lq45s6r3nxu7iup3axvoqta.py":52:35)
#loc46 = loc("/tmp/torchinductor_root/gu/cguakxafsbm6kcyjyahqwkrnqxzn3lq45s6r3nxu7iup3axvoqta.py":52:62)
#loc47 = loc("/tmp/torchinductor_root/gu/cguakxafsbm6kcyjyahqwkrnqxzn3lq45s6r3nxu7iup3axvoqta.py":52:52)
#loc48 = loc("/tmp/torchinductor_root/gu/cguakxafsbm6kcyjyahqwkrnqxzn3lq45s6r3nxu7iup3axvoqta.py":52:114)
#loc49 = loc("/tmp/torchinductor_root/gu/cguakxafsbm6kcyjyahqwkrnqxzn3lq45s6r3nxu7iup3axvoqta.py":53:35)
#loc50 = loc("/tmp/torchinductor_root/gu/cguakxafsbm6kcyjyahqwkrnqxzn3lq45s6r3nxu7iup3axvoqta.py":53:42)
#loc51 = loc("/tmp/torchinductor_root/gu/cguakxafsbm6kcyjyahqwkrnqxzn3lq45s6r3nxu7iup3axvoqta.py":53:95)
#loc52 = loc("/tmp/torchinductor_root/gu/cguakxafsbm6kcyjyahqwkrnqxzn3lq45s6r3nxu7iup3axvoqta.py":56:24)
#loc53 = loc("/tmp/torchinductor_root/gu/cguakxafsbm6kcyjyahqwkrnqxzn3lq45s6r3nxu7iup3axvoqta.py":57:16)
#loc54 = loc("/tmp/torchinductor_root/gu/cguakxafsbm6kcyjyahqwkrnqxzn3lq45s6r3nxu7iup3axvoqta.py":58:24)
#loc55 = loc("/tmp/torchinductor_root/gu/cguakxafsbm6kcyjyahqwkrnqxzn3lq45s6r3nxu7iup3axvoqta.py":59:16)
#loc56 = loc("/tmp/torchinductor_root/gu/cguakxafsbm6kcyjyahqwkrnqxzn3lq45s6r3nxu7iup3axvoqta.py":60:24)
#loc57 = loc("/tmp/torchinductor_root/gu/cguakxafsbm6kcyjyahqwkrnqxzn3lq45s6r3nxu7iup3axvoqta.py":61:32)
#loc58 = loc("/tmp/torchinductor_root/gu/cguakxafsbm6kcyjyahqwkrnqxzn3lq45s6r3nxu7iup3axvoqta.py":62:24)
#loc59 = loc("/tmp/torchinductor_root/gu/cguakxafsbm6kcyjyahqwkrnqxzn3lq45s6r3nxu7iup3axvoqta.py":64:24)
#loc60 = loc("/tmp/torchinductor_root/gu/cguakxafsbm6kcyjyahqwkrnqxzn3lq45s6r3nxu7iup3axvoqta.py":65:41)
#loc61 = loc("/tmp/torchinductor_root/gu/cguakxafsbm6kcyjyahqwkrnqxzn3lq45s6r3nxu7iup3axvoqta.py":65:36)
#loc62 = loc("/tmp/torchinductor_root/gu/cguakxafsbm6kcyjyahqwkrnqxzn3lq45s6r3nxu7iup3axvoqta.py":65:29)
#loc63 = loc("/tmp/torchinductor_root/gu/cguakxafsbm6kcyjyahqwkrnqxzn3lq45s6r3nxu7iup3axvoqta.py":65:63)
#loc64 = loc("/tmp/torchinductor_root/gu/cguakxafsbm6kcyjyahqwkrnqxzn3lq45s6r3nxu7iup3axvoqta.py":65:53)
#loc65 = loc("/tmp/torchinductor_root/gu/cguakxafsbm6kcyjyahqwkrnqxzn3lq45s6r3nxu7iup3axvoqta.py":45:4)
#loc67 = loc("/root/miniconda3/envs/flagscale-inference/lib/python3.12/site-packages/triton/language/standard.py":291:36)
#loc69 = loc("/root/miniconda3/envs/flagscale-inference/lib/python3.12/site-packages/triton/language/standard.py":291:11)
#loc70 = loc("/root/miniconda3/envs/flagscale-inference/lib/python3.12/site-packages/triton/language/standard.py":291:4)
#loc72 = loc("/root/miniconda3/envs/flagscale-inference/lib/python3.12/site-packages/triton/language/standard.py":261:15)
#loc73 = loc("/root/miniconda3/envs/flagscale-inference/lib/python3.12/site-packages/triton/language/standard.py":261:11)
#loc74 = loc("/root/miniconda3/envs/flagscale-inference/lib/python3.12/site-packages/triton/language/standard.py":261:4)
#loc81 = loc("r0_numel"(#loc1))
#loc82 = loc("xoffset"(#loc2))
#loc83 = loc("xoffset"(#loc3))
#loc84 = loc("xindex"(#loc4))
#loc85 = loc("xindex"(#loc5))
#loc86 = loc("xindex"(#loc6))
#loc87 = loc("xmask"(#loc7))
#loc88 = loc("r0_base"(#loc8))
#loc89 = loc("r0_base"(#loc9))
#loc90 = loc("_tmp7"(#loc10))
#loc91 = loc("_tmp7"(#loc11))
#loc92 = loc("r0_index"(#loc12))
#loc93 = loc("r0_mask"(#loc13))
#loc94 = loc("tmp0"(#loc14))
#loc95 = loc("tmp0"(#loc15))
#loc96 = loc("tmp0"(#loc16))
#loc97 = loc("tmp0"(#loc17))
#loc98 = loc("tmp0"(#loc18))
#loc99 = loc("tmp0"(#loc19))
#loc100 = loc("tmp2"(#loc20))
#loc101 = loc("tmp2"(#loc21))
#loc102 = loc("tmp2"(#loc22))
#loc103 = loc("tmp2"(#loc23))
#loc104 = loc("tmp2"(#loc24))
#loc105 = loc("tmp2"(#loc25))
#loc106 = loc("tmp4"(#loc26))
#loc107 = loc("tmp5"(#loc27))
#loc108 = loc("tmp8"(#loc28))
#loc109 = loc("_tmp7"(#loc29))
#loc110 = loc("_tmp7"(#loc30))
#loc111 = loc("tmp7"(#loc32))
#loc112 = loc("tmp7"(#loc33))
#loc113 = loc("r0_index"(#loc35))
#loc114 = loc("r0_mask"(#loc36))
#loc115 = loc("tmp9"(#loc37))
#loc116 = loc("tmp9"(#loc38))
#loc117 = loc("tmp9"(#loc39))
#loc118 = loc("tmp9"(#loc40))
#loc119 = loc("tmp9"(#loc41))
#loc120 = loc("tmp9"(#loc42))
#loc121 = loc("tmp11"(#loc43))
#loc122 = loc("tmp11"(#loc44))
#loc123 = loc("tmp11"(#loc45))
#loc124 = loc("tmp11"(#loc46))
#loc125 = loc("tmp11"(#loc47))
#loc126 = loc("tmp11"(#loc48))
#loc127 = loc("tmp21"(#loc49))
#loc128 = loc("tmp21"(#loc50))
#loc129 = loc("tmp21"(#loc51))
#loc130 = loc("tmp13"(#loc52))
#loc131 = loc("tmp14"(#loc53))
#loc132 = loc("tmp15"(#loc54))
#loc133 = loc("tmp16"(#loc55))
#loc134 = loc("tmp17"(#loc56))
#loc135 = loc("tmp18"(#loc57))
#loc136 = loc("tmp19"(#loc58))
#loc137 = loc("tmp22"(#loc59))
