#loc = loc("/tmp/torchinductor_root/gu/cguakxafsbm6kcyjyahqwkrnqxzn3lq45s6r3nxu7iup3axvoqta.py":18:0)
#loc1 = loc(unknown)
#loc24 = loc("/tmp/torchinductor_root/gu/cguakxafsbm6kcyjyahqwkrnqxzn3lq45s6r3nxu7iup3axvoqta.py":44:25)
#loc51 = loc("in_ptr0"(#loc))
#loc52 = loc("in_ptr1"(#loc))
#loc53 = loc("in_ptr2"(#loc))
#loc54 = loc("out_ptr1"(#loc))
#loc55 = loc("xnumel"(#loc))
#loc56 = loc("r0_numel"(#loc))
#loc77 = loc("tmp7"(#loc24))
#loc102 = loc(callsite(#loc1 at #loc77))
module {
  tt.func public @triton_red_fused__to_copy_add_mean_mul_pow_rsqrt_0(%in_ptr0: !tt.ptr<bf16> {tt.divisibility = 16 : i32} loc("in_ptr0"(#loc)), %in_ptr1: !tt.ptr<bf16> {tt.divisibility = 16 : i32} loc("in_ptr1"(#loc)), %in_ptr2: !tt.ptr<bf16> {tt.divisibility = 16 : i32} loc("in_ptr2"(#loc)), %out_ptr1: !tt.ptr<bf16> {tt.divisibility = 16 : i32} loc("out_ptr1"(#loc)), %xnumel: i32 loc("xnumel"(#loc)), %r0_numel: i32 {tt.divisibility = 16 : i32} loc("r0_numel"(#loc))) attributes {noinline = false} {
    %cst = arith.constant dense<0.000000e+00> : tensor<1x1024xbf16> loc(#loc1)
    %c1024_i32 = arith.constant 1024 : i32 loc(#loc1)
    %c5120_i32 = arith.constant 5120 : i32 loc(#loc1)
    %c0_i32 = arith.constant 0 : i32 loc(#loc1)
    %cst_0 = arith.constant dense<9.99999997E-7> : tensor<1x1xf32> loc(#loc1)
    %cst_1 = arith.constant dense<5.120000e+03> : tensor<1x1xf32> loc(#loc1)
    %cst_2 = arith.constant dense<5120> : tensor<1x1024xi32> loc(#loc1)
    %cst_3 = arith.constant dense<0.000000e+00> : tensor<1x1024xf32> loc(#loc1)
    %xoffset = tt.get_program_id x : i32 loc(#loc57)
    %xmask = arith.cmpi slt, %xoffset, %xnumel : i32 loc(#loc58)
    %r0_base = tt.make_range {end = 1024 : i32, start = 0 : i32} : tensor<1024xi32> loc(#loc59)
    %r0_base_4 = tt.expand_dims %r0_base {axis = 0 : i32} : tensor<1024xi32> -> tensor<1x1024xi32> loc(#loc60)
    %_tmp7 = scf.for %r0_offset = %c0_i32 to %c5120_i32 step %c1024_i32 iter_args(%_tmp7_6 = %cst_3) -> (tensor<1x1024xf32>)  : i32 {
      %r0_index = tt.splat %r0_offset : i32 -> tensor<1x1024xi32> loc(#loc62)
      %r0_index_7 = arith.addi %r0_index, %r0_base_4 : tensor<1x1024xi32> loc(#loc62)
      %r0_mask = arith.cmpi slt, %r0_index_7, %cst_2 : tensor<1x1024xi32> loc(#loc63)
      %tmp0 = arith.muli %xoffset, %c5120_i32 : i32 loc(#loc64)
      %tmp0_8 = tt.splat %tmp0 : i32 -> tensor<1x1024xi32> loc(#loc99)
      %tmp0_9 = arith.addi %r0_index_7, %tmp0_8 : tensor<1x1024xi32> loc(#loc65)
      %tmp0_10 = tt.splat %in_ptr0 : !tt.ptr<bf16> -> tensor<1x1024x!tt.ptr<bf16>> loc(#loc66)
      %tmp0_11 = tt.addptr %tmp0_10, %tmp0_9 : tensor<1x1024x!tt.ptr<bf16>>, tensor<1x1024xi32> loc(#loc66)
      %tmp0_12 = tt.splat %xmask : i1 -> tensor<1x1024xi1> loc(#loc100)
      %tmp0_13 = arith.andi %r0_mask, %tmp0_12 : tensor<1x1024xi1> loc(#loc67)
      %tmp0_14 = tt.load %tmp0_11, %tmp0_13, %cst evictionPolicy = evict_last : tensor<1x1024x!tt.ptr<bf16>> loc(#loc68)
      %tmp0_15 = arith.extf %tmp0_14 : tensor<1x1024xbf16> to tensor<1x1024xf32> loc(#loc69)
      %tmp2 = tt.splat %in_ptr1 : !tt.ptr<bf16> -> tensor<1x1024x!tt.ptr<bf16>> loc(#loc70)
      %tmp2_16 = tt.addptr %tmp2, %tmp0_9 : tensor<1x1024x!tt.ptr<bf16>>, tensor<1x1024xi32> loc(#loc70)
      %tmp2_17 = tt.load %tmp2_16, %tmp0_13, %cst evictionPolicy = evict_last : tensor<1x1024x!tt.ptr<bf16>> loc(#loc71)
      %tmp2_18 = arith.extf %tmp2_17 : tensor<1x1024xbf16> to tensor<1x1024xf32> loc(#loc72)
      %tmp4 = arith.addf %tmp0_15, %tmp2_18 : tensor<1x1024xf32> loc(#loc73)
      %tmp5 = arith.mulf %tmp4, %tmp4 : tensor<1x1024xf32> loc(#loc74)
      %tmp8 = arith.addf %_tmp7_6, %tmp5 : tensor<1x1024xf32> loc(#loc75)
      %_tmp7_19 = arith.select %tmp0_13, %tmp8, %_tmp7_6 : tensor<1x1024xi1>, tensor<1x1024xf32> loc(#loc76)
      scf.yield %_tmp7_19 : tensor<1x1024xf32> loc(#loc22)
    } loc(#loc61)
    %tmp7 = "tt.reduce"(%_tmp7) <{axis = 1 : i32}> ({
    ^bb0(%tmp7_6: f32 loc(callsite(#loc1 at #loc77)), %tmp7_7: f32 loc(callsite(#loc1 at #loc77))):
      %tmp7_8 = arith.addf %tmp7_6, %tmp7_7 : f32 loc(#loc105)
      tt.reduce.return %tmp7_8 : f32 loc(#loc101)
    }) : (tensor<1x1024xf32>) -> tensor<1xf32> loc(#loc101)
    %tmp7_5 = tt.expand_dims %tmp7 {axis = 1 : i32} : tensor<1xf32> -> tensor<1x1xf32> loc(#loc78)
    scf.for %r0_offset = %c0_i32 to %c5120_i32 step %c1024_i32  : i32 {
      %r0_index = tt.splat %r0_offset : i32 -> tensor<1x1024xi32> loc(#loc79)
      %r0_index_6 = arith.addi %r0_index, %r0_base_4 : tensor<1x1024xi32> loc(#loc79)
      %r0_mask = arith.cmpi slt, %r0_index_6, %cst_2 : tensor<1x1024xi32> loc(#loc80)
      %tmp9 = arith.muli %xoffset, %c5120_i32 : i32 loc(#loc81)
      %tmp9_7 = tt.splat %tmp9 : i32 -> tensor<1x1024xi32> loc(#loc103)
      %tmp9_8 = arith.addi %r0_index_6, %tmp9_7 : tensor<1x1024xi32> loc(#loc82)
      %tmp9_9 = tt.splat %in_ptr0 : !tt.ptr<bf16> -> tensor<1x1024x!tt.ptr<bf16>> loc(#loc83)
      %tmp9_10 = tt.addptr %tmp9_9, %tmp9_8 : tensor<1x1024x!tt.ptr<bf16>>, tensor<1x1024xi32> loc(#loc83)
      %tmp9_11 = tt.splat %xmask : i1 -> tensor<1x1024xi1> loc(#loc104)
      %tmp9_12 = arith.andi %r0_mask, %tmp9_11 : tensor<1x1024xi1> loc(#loc84)
      %tmp9_13 = tt.load %tmp9_10, %tmp9_12, %cst evictionPolicy = evict_first : tensor<1x1024x!tt.ptr<bf16>> loc(#loc85)
      %tmp9_14 = arith.extf %tmp9_13 : tensor<1x1024xbf16> to tensor<1x1024xf32> loc(#loc86)
      %tmp11 = tt.splat %in_ptr1 : !tt.ptr<bf16> -> tensor<1x1024x!tt.ptr<bf16>> loc(#loc87)
      %tmp11_15 = tt.addptr %tmp11, %tmp9_8 : tensor<1x1024x!tt.ptr<bf16>>, tensor<1x1024xi32> loc(#loc87)
      %tmp11_16 = tt.load %tmp11_15, %tmp9_12, %cst evictionPolicy = evict_first : tensor<1x1024x!tt.ptr<bf16>> loc(#loc88)
      %tmp11_17 = arith.extf %tmp11_16 : tensor<1x1024xbf16> to tensor<1x1024xf32> loc(#loc89)
      %tmp21 = tt.splat %in_ptr2 : !tt.ptr<bf16> -> tensor<1x1024x!tt.ptr<bf16>> loc(#loc90)
      %tmp21_18 = tt.addptr %tmp21, %r0_index_6 : tensor<1x1024x!tt.ptr<bf16>>, tensor<1x1024xi32> loc(#loc90)
      %tmp21_19 = tt.load %tmp21_18, %r0_mask, %cst evictionPolicy = evict_last : tensor<1x1024x!tt.ptr<bf16>> loc(#loc91)
      %tmp21_20 = arith.extf %tmp21_19 : tensor<1x1024xbf16> to tensor<1x1024xf32> loc(#loc92)
      %tmp13 = arith.addf %tmp9_14, %tmp11_17 : tensor<1x1024xf32> loc(#loc93)
      %tmp15 = arith.divf %tmp7_5, %cst_1 : tensor<1x1xf32> loc(#loc94)
      %tmp17 = arith.addf %tmp15, %cst_0 : tensor<1x1xf32> loc(#loc95)
      %tmp18 = tt.extern_elementwise %tmp17 {libname = "", libpath = "", pure = true, symbol = "__nv_rsqrtf"} : (tensor<1x1xf32>) -> tensor<1x1xf32> loc(#loc96)
      %tmp19 = tt.broadcast %tmp18 : tensor<1x1xf32> -> tensor<1x1024xf32> loc(#loc97)
      %tmp19_21 = arith.mulf %tmp13, %tmp19 : tensor<1x1024xf32> loc(#loc97)
      %tmp22 = arith.mulf %tmp19_21, %tmp21_20 : tensor<1x1024xf32> loc(#loc98)
      %0 = tt.splat %out_ptr1 : !tt.ptr<bf16> -> tensor<1x1024x!tt.ptr<bf16>> loc(#loc48)
      %1 = tt.addptr %0, %tmp9_8 : tensor<1x1024x!tt.ptr<bf16>>, tensor<1x1024xi32> loc(#loc48)
      %2 = arith.truncf %tmp22 : tensor<1x1024xf32> to tensor<1x1024xbf16> loc(#loc49)
      tt.store %1, %2, %tmp9_12 : tensor<1x1024x!tt.ptr<bf16>> loc(#loc49)
    } loc(#loc27)
    tt.return loc(#loc50)
  } loc(#loc)
} loc(#loc)
#loc2 = loc("/tmp/torchinductor_root/gu/cguakxafsbm6kcyjyahqwkrnqxzn3lq45s6r3nxu7iup3axvoqta.py":22:28)
#loc3 = loc("/tmp/torchinductor_root/gu/cguakxafsbm6kcyjyahqwkrnqxzn3lq45s6r3nxu7iup3axvoqta.py":24:21)
#loc4 = loc("/tmp/torchinductor_root/gu/cguakxafsbm6kcyjyahqwkrnqxzn3lq45s6r3nxu7iup3axvoqta.py":25:27)
#loc5 = loc("/tmp/torchinductor_root/gu/cguakxafsbm6kcyjyahqwkrnqxzn3lq45s6r3nxu7iup3axvoqta.py":25:37)
#loc6 = loc("/tmp/torchinductor_root/gu/cguakxafsbm6kcyjyahqwkrnqxzn3lq45s6r3nxu7iup3axvoqta.py":29:40)
#loc7 = loc("/tmp/torchinductor_root/gu/cguakxafsbm6kcyjyahqwkrnqxzn3lq45s6r3nxu7iup3axvoqta.py":30:31)
#loc8 = loc("/tmp/torchinductor_root/gu/cguakxafsbm6kcyjyahqwkrnqxzn3lq45s6r3nxu7iup3axvoqta.py":31:29)
#loc9 = loc("/tmp/torchinductor_root/gu/cguakxafsbm6kcyjyahqwkrnqxzn3lq45s6r3nxu7iup3axvoqta.py":35:46)
#loc10 = loc("/tmp/torchinductor_root/gu/cguakxafsbm6kcyjyahqwkrnqxzn3lq45s6r3nxu7iup3axvoqta.py":35:41)
#loc11 = loc("/tmp/torchinductor_root/gu/cguakxafsbm6kcyjyahqwkrnqxzn3lq45s6r3nxu7iup3axvoqta.py":35:34)
#loc12 = loc("/tmp/torchinductor_root/gu/cguakxafsbm6kcyjyahqwkrnqxzn3lq45s6r3nxu7iup3axvoqta.py":35:61)
#loc13 = loc("/tmp/torchinductor_root/gu/cguakxafsbm6kcyjyahqwkrnqxzn3lq45s6r3nxu7iup3axvoqta.py":35:51)
#loc14 = loc("/tmp/torchinductor_root/gu/cguakxafsbm6kcyjyahqwkrnqxzn3lq45s6r3nxu7iup3axvoqta.py":35:112)
#loc15 = loc("/tmp/torchinductor_root/gu/cguakxafsbm6kcyjyahqwkrnqxzn3lq45s6r3nxu7iup3axvoqta.py":36:34)
#loc16 = loc("/tmp/torchinductor_root/gu/cguakxafsbm6kcyjyahqwkrnqxzn3lq45s6r3nxu7iup3axvoqta.py":36:51)
#loc17 = loc("/tmp/torchinductor_root/gu/cguakxafsbm6kcyjyahqwkrnqxzn3lq45s6r3nxu7iup3axvoqta.py":36:112)
#loc18 = loc("/tmp/torchinductor_root/gu/cguakxafsbm6kcyjyahqwkrnqxzn3lq45s6r3nxu7iup3axvoqta.py":39:22)
#loc19 = loc("/tmp/torchinductor_root/gu/cguakxafsbm6kcyjyahqwkrnqxzn3lq45s6r3nxu7iup3axvoqta.py":40:22)
#loc20 = loc("/tmp/torchinductor_root/gu/cguakxafsbm6kcyjyahqwkrnqxzn3lq45s6r3nxu7iup3axvoqta.py":42:23)
#loc21 = loc("/tmp/torchinductor_root/gu/cguakxafsbm6kcyjyahqwkrnqxzn3lq45s6r3nxu7iup3axvoqta.py":43:48)
#loc22 = loc("/tmp/torchinductor_root/gu/cguakxafsbm6kcyjyahqwkrnqxzn3lq45s6r3nxu7iup3axvoqta.py":43:8)
#loc23 = loc("/root/miniconda3/envs/flagscale-inference/lib/python3.12/site-packages/triton/language/standard.py":291:36)
#loc25 = loc("/root/miniconda3/envs/flagscale-inference/lib/python3.12/site-packages/triton/language/standard.py":261:15)
#loc26 = loc("/tmp/torchinductor_root/gu/cguakxafsbm6kcyjyahqwkrnqxzn3lq45s6r3nxu7iup3axvoqta.py":44:28)
#loc27 = loc("/tmp/torchinductor_root/gu/cguakxafsbm6kcyjyahqwkrnqxzn3lq45s6r3nxu7iup3axvoqta.py":45:40)
#loc28 = loc("/tmp/torchinductor_root/gu/cguakxafsbm6kcyjyahqwkrnqxzn3lq45s6r3nxu7iup3axvoqta.py":46:31)
#loc29 = loc("/tmp/torchinductor_root/gu/cguakxafsbm6kcyjyahqwkrnqxzn3lq45s6r3nxu7iup3axvoqta.py":47:29)
#loc30 = loc("/tmp/torchinductor_root/gu/cguakxafsbm6kcyjyahqwkrnqxzn3lq45s6r3nxu7iup3axvoqta.py":51:46)
#loc31 = loc("/tmp/torchinductor_root/gu/cguakxafsbm6kcyjyahqwkrnqxzn3lq45s6r3nxu7iup3axvoqta.py":51:41)
#loc32 = loc("/tmp/torchinductor_root/gu/cguakxafsbm6kcyjyahqwkrnqxzn3lq45s6r3nxu7iup3axvoqta.py":51:34)
#loc33 = loc("/tmp/torchinductor_root/gu/cguakxafsbm6kcyjyahqwkrnqxzn3lq45s6r3nxu7iup3axvoqta.py":51:61)
#loc34 = loc("/tmp/torchinductor_root/gu/cguakxafsbm6kcyjyahqwkrnqxzn3lq45s6r3nxu7iup3axvoqta.py":51:51)
#loc35 = loc("/tmp/torchinductor_root/gu/cguakxafsbm6kcyjyahqwkrnqxzn3lq45s6r3nxu7iup3axvoqta.py":51:113)
#loc36 = loc("/tmp/torchinductor_root/gu/cguakxafsbm6kcyjyahqwkrnqxzn3lq45s6r3nxu7iup3axvoqta.py":52:35)
#loc37 = loc("/tmp/torchinductor_root/gu/cguakxafsbm6kcyjyahqwkrnqxzn3lq45s6r3nxu7iup3axvoqta.py":52:52)
#loc38 = loc("/tmp/torchinductor_root/gu/cguakxafsbm6kcyjyahqwkrnqxzn3lq45s6r3nxu7iup3axvoqta.py":52:114)
#loc39 = loc("/tmp/torchinductor_root/gu/cguakxafsbm6kcyjyahqwkrnqxzn3lq45s6r3nxu7iup3axvoqta.py":53:35)
#loc40 = loc("/tmp/torchinductor_root/gu/cguakxafsbm6kcyjyahqwkrnqxzn3lq45s6r3nxu7iup3axvoqta.py":53:42)
#loc41 = loc("/tmp/torchinductor_root/gu/cguakxafsbm6kcyjyahqwkrnqxzn3lq45s6r3nxu7iup3axvoqta.py":53:95)
#loc42 = loc("/tmp/torchinductor_root/gu/cguakxafsbm6kcyjyahqwkrnqxzn3lq45s6r3nxu7iup3axvoqta.py":56:24)
#loc43 = loc("/tmp/torchinductor_root/gu/cguakxafsbm6kcyjyahqwkrnqxzn3lq45s6r3nxu7iup3axvoqta.py":58:24)
#loc44 = loc("/tmp/torchinductor_root/gu/cguakxafsbm6kcyjyahqwkrnqxzn3lq45s6r3nxu7iup3axvoqta.py":60:24)
#loc45 = loc("/tmp/torchinductor_root/gu/cguakxafsbm6kcyjyahqwkrnqxzn3lq45s6r3nxu7iup3axvoqta.py":61:32)
#loc46 = loc("/tmp/torchinductor_root/gu/cguakxafsbm6kcyjyahqwkrnqxzn3lq45s6r3nxu7iup3axvoqta.py":62:24)
#loc47 = loc("/tmp/torchinductor_root/gu/cguakxafsbm6kcyjyahqwkrnqxzn3lq45s6r3nxu7iup3axvoqta.py":64:24)
#loc48 = loc("/tmp/torchinductor_root/gu/cguakxafsbm6kcyjyahqwkrnqxzn3lq45s6r3nxu7iup3axvoqta.py":65:29)
#loc49 = loc("/tmp/torchinductor_root/gu/cguakxafsbm6kcyjyahqwkrnqxzn3lq45s6r3nxu7iup3axvoqta.py":65:53)
#loc50 = loc("/tmp/torchinductor_root/gu/cguakxafsbm6kcyjyahqwkrnqxzn3lq45s6r3nxu7iup3axvoqta.py":45:4)
#loc57 = loc("xoffset"(#loc2))
#loc58 = loc("xmask"(#loc3))
#loc59 = loc("r0_base"(#loc4))
#loc60 = loc("r0_base"(#loc5))
#loc61 = loc("_tmp7"(#loc6))
#loc62 = loc("r0_index"(#loc7))
#loc63 = loc("r0_mask"(#loc8))
#loc64 = loc("tmp0"(#loc9))
#loc65 = loc("tmp0"(#loc10))
#loc66 = loc("tmp0"(#loc11))
#loc67 = loc("tmp0"(#loc12))
#loc68 = loc("tmp0"(#loc13))
#loc69 = loc("tmp0"(#loc14))
#loc70 = loc("tmp2"(#loc15))
#loc71 = loc("tmp2"(#loc16))
#loc72 = loc("tmp2"(#loc17))
#loc73 = loc("tmp4"(#loc18))
#loc74 = loc("tmp5"(#loc19))
#loc75 = loc("tmp8"(#loc20))
#loc76 = loc("_tmp7"(#loc21))
#loc78 = loc("tmp7"(#loc26))
#loc79 = loc("r0_index"(#loc28))
#loc80 = loc("r0_mask"(#loc29))
#loc81 = loc("tmp9"(#loc30))
#loc82 = loc("tmp9"(#loc31))
#loc83 = loc("tmp9"(#loc32))
#loc84 = loc("tmp9"(#loc33))
#loc85 = loc("tmp9"(#loc34))
#loc86 = loc("tmp9"(#loc35))
#loc87 = loc("tmp11"(#loc36))
#loc88 = loc("tmp11"(#loc37))
#loc89 = loc("tmp11"(#loc38))
#loc90 = loc("tmp21"(#loc39))
#loc91 = loc("tmp21"(#loc40))
#loc92 = loc("tmp21"(#loc41))
#loc93 = loc("tmp13"(#loc42))
#loc94 = loc("tmp15"(#loc43))
#loc95 = loc("tmp17"(#loc44))
#loc96 = loc("tmp18"(#loc45))
#loc97 = loc("tmp19"(#loc46))
#loc98 = loc("tmp22"(#loc47))
#loc99 = loc(fused[#loc65, #loc64])
#loc100 = loc(fused[#loc67, #loc58])
#loc101 = loc(callsite(#loc23 at #loc77))
#loc103 = loc(fused[#loc82, #loc81])
#loc104 = loc(fused[#loc84, #loc58])
#loc105 = loc(callsite(#loc25 at #loc101))
