#loc = loc("/tmp/torchinductor_root/ws/cwsjx5ke2dr3q622ywvrmk73rvinpu6kiuiiubf3bnsua4pnhss7.py":18:0)
#loc25 = loc("/root/miniconda3/envs/flagscale-inference/lib/python3.12/site-packages/triton/language/standard.py":47:0)
#loc32 = loc("in_ptr0"(#loc))
#loc33 = loc("out_ptr0"(#loc))
#loc34 = loc("xnumel"(#loc))
#loc56 = loc("x"(#loc25))
module {
  tt.func public @triton_poi_fused_mul_silu_slice_1(%in_ptr0: !tt.ptr<bf16> {tt.divisibility = 16 : i32} loc("in_ptr0"(#loc)), %out_ptr0: !tt.ptr<bf16> {tt.divisibility = 16 : i32} loc("out_ptr0"(#loc)), %xnumel: i32 {tt.divisibility = 16 : i32} loc("xnumel"(#loc))) attributes {noinline = false} {
    %xoffset = tt.get_program_id x : i32 loc(#loc35)
    %xoffset_0 = arith.constant 1024 : i32 loc(#loc36)
    %xoffset_1 = arith.constant 1024 : i32 loc(#loc36)
    %xoffset_2 = arith.muli %xoffset, %xoffset_1 : i32 loc(#loc36)
    %xindex = tt.make_range {end = 1024 : i32, start = 0 : i32} : tensor<1024xi32> loc(#loc37)
    %xindex_3 = tt.splat %xoffset_2 : i32 -> tensor<1024xi32> loc(#loc38)
    %xindex_4 = arith.addi %xindex_3, %xindex : tensor<1024xi32> loc(#loc38)
    %xmask = tt.splat %xnumel : i32 -> tensor<1024xi32> loc(#loc39)
    %xmask_5 = arith.cmpi slt, %xindex_4, %xmask : tensor<1024xi32> loc(#loc39)
    %x0 = arith.constant 17408 : i32 loc(#loc40)
    %x0_6 = arith.constant 17408 : i32 loc(#loc40)
    %x0_7 = arith.constant dense<17408> : tensor<1024xi32> loc(#loc40)
    %x0_8 = arith.remsi %xindex_4, %x0_7 : tensor<1024xi32> loc(#loc40)
    %x1 = arith.constant 17408 : i32 loc(#loc41)
    %x1_9 = arith.constant 17408 : i32 loc(#loc41)
    %x1_10 = arith.constant dense<17408> : tensor<1024xi32> loc(#loc41)
    %x1_11 = arith.divsi %xindex_4, %x1_10 : tensor<1024xi32> loc(#loc41)
    %tmp0 = arith.constant 34816 : i32 loc(#loc42)
    %tmp0_12 = arith.constant 34816 : i32 loc(#loc42)
    %tmp0_13 = arith.constant dense<34816> : tensor<1024xi32> loc(#loc42)
    %tmp0_14 = arith.muli %tmp0_13, %x1_11 : tensor<1024xi32> loc(#loc42)
    %tmp0_15 = arith.addi %x0_8, %tmp0_14 : tensor<1024xi32> loc(#loc43)
    %tmp0_16 = tt.splat %in_ptr0 : !tt.ptr<bf16> -> tensor<1024x!tt.ptr<bf16>> loc(#loc44)
    %tmp0_17 = tt.addptr %tmp0_16, %tmp0_15 : tensor<1024x!tt.ptr<bf16>>, tensor<1024xi32> loc(#loc44)
    %tmp0_18 = tt.load %tmp0_17, %xmask_5 : tensor<1024x!tt.ptr<bf16>> loc(#loc45)
    %tmp0_19 = arith.extf %tmp0_18 : tensor<1024xbf16> to tensor<1024xf32> loc(#loc46)
    %tmp5 = arith.constant 17408 : i32 loc(#loc47)
    %tmp5_20 = arith.constant 17408 : i32 loc(#loc47)
    %tmp5_21 = arith.constant dense<17408> : tensor<1024xi32> loc(#loc47)
    %tmp5_22 = arith.addi %tmp5_21, %x0_8 : tensor<1024xi32> loc(#loc47)
    %tmp5_23 = arith.constant 34816 : i32 loc(#loc48)
    %tmp5_24 = arith.constant 34816 : i32 loc(#loc48)
    %tmp5_25 = arith.constant dense<34816> : tensor<1024xi32> loc(#loc48)
    %tmp5_26 = arith.muli %tmp5_25, %x1_11 : tensor<1024xi32> loc(#loc48)
    %tmp5_27 = arith.addi %tmp5_22, %tmp5_26 : tensor<1024xi32> loc(#loc49)
    %tmp5_28 = tt.splat %in_ptr0 : !tt.ptr<bf16> -> tensor<1024x!tt.ptr<bf16>> loc(#loc50)
    %tmp5_29 = tt.addptr %tmp5_28, %tmp5_27 : tensor<1024x!tt.ptr<bf16>>, tensor<1024xi32> loc(#loc50)
    %tmp5_30 = tt.load %tmp5_29, %xmask_5 : tensor<1024x!tt.ptr<bf16>> loc(#loc51)
    %tmp5_31 = arith.extf %tmp5_30 : tensor<1024xbf16> to tensor<1024xf32> loc(#loc52)
    %tmp2 = tt.call @triton.language.standard.sigmoid__fp32S1024S__(%tmp0_19) : (tensor<1024xf32>) -> tensor<1024xf32> loc(#loc53)
    %tmp3 = arith.mulf %tmp0_19, %tmp2 : tensor<1024xf32> loc(#loc54)
    %tmp6 = arith.mulf %tmp3, %tmp5_31 : tensor<1024xf32> loc(#loc55)
    %0 = tt.splat %out_ptr0 : !tt.ptr<bf16> -> tensor<1024x!tt.ptr<bf16>> loc(#loc22)
    %1 = tt.addptr %0, %xindex_4 : tensor<1024x!tt.ptr<bf16>>, tensor<1024xi32> loc(#loc22)
    %2 = arith.truncf %tmp6 : tensor<1024xf32> to tensor<1024xbf16> loc(#loc23)
    tt.store %1, %2, %xmask_5 : tensor<1024x!tt.ptr<bf16>> loc(#loc23)
    tt.return loc(#loc24)
  } loc(#loc)
  tt.func private @triton.language.standard.sigmoid__fp32S1024S__(%x: tensor<1024xf32> loc("x"(#loc25))) -> tensor<1024xf32> attributes {noinline = false} {
    %cst = arith.constant 0.000000e+00 : f32 loc(#loc26)
    %cst_0 = arith.constant dense<0.000000e+00> : tensor<1024xf32> loc(#loc26)
    %0 = arith.subf %cst_0, %x : tensor<1024xf32> loc(#loc26)
    %1 = math.exp %0 : tensor<1024xf32> loc(#loc27)
    %c1_i32 = arith.constant 1 : i32 loc(#loc28)
    %cst_1 = arith.constant 1.000000e+00 : f32 loc(#loc28)
    %cst_2 = arith.constant dense<1.000000e+00> : tensor<1024xf32> loc(#loc28)
    %2 = arith.addf %cst_2, %1 : tensor<1024xf32> loc(#loc28)
    %c1_i32_3 = arith.constant 1 : i32 loc(#loc29)
    %cst_4 = arith.constant 1.000000e+00 : f32 loc(#loc29)
    %cst_5 = arith.constant dense<1.000000e+00> : tensor<1024xf32> loc(#loc29)
    %3 = arith.divf %cst_5, %2 : tensor<1024xf32> loc(#loc29)
    tt.return %3 : tensor<1024xf32> loc(#loc30)
  ^bb1:  // no predecessors
    %4 = ub.poison : tensor<1024xf32> loc(#loc31)
    tt.return %4 : tensor<1024xf32> loc(#loc31)
  } loc(#loc25)
} loc(#loc)
#loc1 = loc("/tmp/torchinductor_root/ws/cwsjx5ke2dr3q622ywvrmk73rvinpu6kiuiiubf3bnsua4pnhss7.py":19:28)
#loc2 = loc("/tmp/torchinductor_root/ws/cwsjx5ke2dr3q622ywvrmk73rvinpu6kiuiiubf3bnsua4pnhss7.py":19:33)
#loc3 = loc("/tmp/torchinductor_root/ws/cwsjx5ke2dr3q622ywvrmk73rvinpu6kiuiiubf3bnsua4pnhss7.py":20:36)
#loc4 = loc("/tmp/torchinductor_root/ws/cwsjx5ke2dr3q622ywvrmk73rvinpu6kiuiiubf3bnsua4pnhss7.py":20:23)
#loc5 = loc("/tmp/torchinductor_root/ws/cwsjx5ke2dr3q622ywvrmk73rvinpu6kiuiiubf3bnsua4pnhss7.py":21:21)
#loc6 = loc("/tmp/torchinductor_root/ws/cwsjx5ke2dr3q622ywvrmk73rvinpu6kiuiiubf3bnsua4pnhss7.py":22:19)
#loc7 = loc("/tmp/torchinductor_root/ws/cwsjx5ke2dr3q622ywvrmk73rvinpu6kiuiiubf3bnsua4pnhss7.py":23:19)
#loc8 = loc("/tmp/torchinductor_root/ws/cwsjx5ke2dr3q622ywvrmk73rvinpu6kiuiiubf3bnsua4pnhss7.py":25:41)
#loc9 = loc("/tmp/torchinductor_root/ws/cwsjx5ke2dr3q622ywvrmk73rvinpu6kiuiiubf3bnsua4pnhss7.py":25:35)
#loc10 = loc("/tmp/torchinductor_root/ws/cwsjx5ke2dr3q622ywvrmk73rvinpu6kiuiiubf3bnsua4pnhss7.py":25:30)
#loc11 = loc("/tmp/torchinductor_root/ws/cwsjx5ke2dr3q622ywvrmk73rvinpu6kiuiiubf3bnsua4pnhss7.py":25:46)
#loc12 = loc("/tmp/torchinductor_root/ws/cwsjx5ke2dr3q622ywvrmk73rvinpu6kiuiiubf3bnsua4pnhss7.py":25:56)
#loc13 = loc("/tmp/torchinductor_root/ws/cwsjx5ke2dr3q622ywvrmk73rvinpu6kiuiiubf3bnsua4pnhss7.py":26:38)
#loc14 = loc("/tmp/torchinductor_root/ws/cwsjx5ke2dr3q622ywvrmk73rvinpu6kiuiiubf3bnsua4pnhss7.py":26:49)
#loc15 = loc("/tmp/torchinductor_root/ws/cwsjx5ke2dr3q622ywvrmk73rvinpu6kiuiiubf3bnsua4pnhss7.py":26:43)
#loc16 = loc("/tmp/torchinductor_root/ws/cwsjx5ke2dr3q622ywvrmk73rvinpu6kiuiiubf3bnsua4pnhss7.py":26:30)
#loc17 = loc("/tmp/torchinductor_root/ws/cwsjx5ke2dr3q622ywvrmk73rvinpu6kiuiiubf3bnsua4pnhss7.py":26:54)
#loc18 = loc("/tmp/torchinductor_root/ws/cwsjx5ke2dr3q622ywvrmk73rvinpu6kiuiiubf3bnsua4pnhss7.py":26:64)
#loc19 = loc("/tmp/torchinductor_root/ws/cwsjx5ke2dr3q622ywvrmk73rvinpu6kiuiiubf3bnsua4pnhss7.py":28:22)
#loc20 = loc("/tmp/torchinductor_root/ws/cwsjx5ke2dr3q622ywvrmk73rvinpu6kiuiiubf3bnsua4pnhss7.py":29:18)
#loc21 = loc("/tmp/torchinductor_root/ws/cwsjx5ke2dr3q622ywvrmk73rvinpu6kiuiiubf3bnsua4pnhss7.py":31:18)
#loc22 = loc("/tmp/torchinductor_root/ws/cwsjx5ke2dr3q622ywvrmk73rvinpu6kiuiiubf3bnsua4pnhss7.py":32:25)
#loc23 = loc("/tmp/torchinductor_root/ws/cwsjx5ke2dr3q622ywvrmk73rvinpu6kiuiiubf3bnsua4pnhss7.py":32:36)
#loc24 = loc("/tmp/torchinductor_root/ws/cwsjx5ke2dr3q622ywvrmk73rvinpu6kiuiiubf3bnsua4pnhss7.py":32:4)
#loc26 = loc("/root/miniconda3/envs/flagscale-inference/lib/python3.12/site-packages/triton/language/standard.py":48:30)
#loc27 = loc("/root/miniconda3/envs/flagscale-inference/lib/python3.12/site-packages/triton/language/standard.py":48:29)
#loc28 = loc("/root/miniconda3/envs/flagscale-inference/lib/python3.12/site-packages/triton/language/standard.py":48:20)
#loc29 = loc("/root/miniconda3/envs/flagscale-inference/lib/python3.12/site-packages/triton/language/standard.py":48:16)
#loc30 = loc("/root/miniconda3/envs/flagscale-inference/lib/python3.12/site-packages/triton/language/standard.py":48:11)
#loc31 = loc("/root/miniconda3/envs/flagscale-inference/lib/python3.12/site-packages/triton/language/standard.py":48:4)
#loc35 = loc("xoffset"(#loc1))
#loc36 = loc("xoffset"(#loc2))
#loc37 = loc("xindex"(#loc3))
#loc38 = loc("xindex"(#loc4))
#loc39 = loc("xmask"(#loc5))
#loc40 = loc("x0"(#loc6))
#loc41 = loc("x1"(#loc7))
#loc42 = loc("tmp0"(#loc8))
#loc43 = loc("tmp0"(#loc9))
#loc44 = loc("tmp0"(#loc10))
#loc45 = loc("tmp0"(#loc11))
#loc46 = loc("tmp0"(#loc12))
#loc47 = loc("tmp5"(#loc13))
#loc48 = loc("tmp5"(#loc14))
#loc49 = loc("tmp5"(#loc15))
#loc50 = loc("tmp5"(#loc16))
#loc51 = loc("tmp5"(#loc17))
#loc52 = loc("tmp5"(#loc18))
#loc53 = loc("tmp2"(#loc19))
#loc54 = loc("tmp3"(#loc20))
#loc55 = loc("tmp6"(#loc21))
