#loc = loc("/tmp/torchinductor_root/ws/cwsjx5ke2dr3q622ywvrmk73rvinpu6kiuiiubf3bnsua4pnhss7.py":18:0)
#loc29 = loc("in_ptr0"(#loc))
#loc30 = loc("out_ptr0"(#loc))
#loc31 = loc("xnumel"(#loc))
module {
  tt.func public @triton_poi_fused_mul_silu_slice_1(%in_ptr0: !tt.ptr<bf16> {tt.divisibility = 16 : i32} loc("in_ptr0"(#loc)), %out_ptr0: !tt.ptr<bf16> {tt.divisibility = 16 : i32} loc("out_ptr0"(#loc)), %xnumel: i32 {tt.divisibility = 16 : i32} loc("xnumel"(#loc))) attributes {noinline = false} {
    %tmp2 = arith.constant dense<0.000000e+00> : tensor<1024xf32> loc(#loc52)
    %tmp2_0 = arith.constant dense<1.000000e+00> : tensor<1024xf32> loc(#loc53)
    %cst = arith.constant dense<34816> : tensor<1024xi32> loc(#loc3)
    %cst_1 = arith.constant dense<17408> : tensor<1024xi32> loc(#loc3)
    %c1024_i32 = arith.constant 1024 : i32 loc(#loc3)
    %xoffset = tt.get_program_id x : i32 loc(#loc33)
    %xoffset_2 = arith.muli %xoffset, %c1024_i32 : i32 loc(#loc34)
    %xindex = tt.make_range {end = 1024 : i32, start = 0 : i32} : tensor<1024xi32> loc(#loc35)
    %xindex_3 = tt.splat %xoffset_2 : i32 -> tensor<1024xi32> loc(#loc36)
    %xindex_4 = arith.addi %xindex_3, %xindex : tensor<1024xi32> loc(#loc36)
    %xmask = tt.splat %xnumel : i32 -> tensor<1024xi32> loc(#loc37)
    %xmask_5 = arith.cmpi slt, %xindex_4, %xmask : tensor<1024xi32> loc(#loc37)
    %x0 = arith.remsi %xindex_4, %cst_1 : tensor<1024xi32> loc(#loc38)
    %x1 = arith.divsi %xindex_4, %cst_1 : tensor<1024xi32> loc(#loc39)
    %tmp0 = arith.muli %x1, %cst : tensor<1024xi32> loc(#loc40)
    %tmp0_6 = arith.addi %x0, %tmp0 : tensor<1024xi32> loc(#loc41)
    %tmp0_7 = tt.splat %in_ptr0 : !tt.ptr<bf16> -> tensor<1024x!tt.ptr<bf16>> loc(#loc42)
    %tmp0_8 = tt.addptr %tmp0_7, %tmp0_6 : tensor<1024x!tt.ptr<bf16>>, tensor<1024xi32> loc(#loc42)
    %tmp0_9 = tt.load %tmp0_8, %xmask_5 : tensor<1024x!tt.ptr<bf16>> loc(#loc43)
    %tmp0_10 = arith.extf %tmp0_9 : tensor<1024xbf16> to tensor<1024xf32> loc(#loc44)
    %tmp5 = arith.addi %x0, %cst_1 : tensor<1024xi32> loc(#loc45)
    %tmp5_11 = arith.addi %tmp5, %tmp0 : tensor<1024xi32> loc(#loc46)
    %tmp5_12 = tt.addptr %tmp0_7, %tmp5_11 : tensor<1024x!tt.ptr<bf16>>, tensor<1024xi32> loc(#loc47)
    %tmp5_13 = tt.load %tmp5_12, %xmask_5 : tensor<1024x!tt.ptr<bf16>> loc(#loc48)
    %tmp5_14 = arith.extf %tmp5_13 : tensor<1024xbf16> to tensor<1024xf32> loc(#loc49)
    %tmp2_15 = arith.subf %tmp2, %tmp0_10 : tensor<1024xf32> loc(#loc52)
    %tmp2_16 = math.exp %tmp2_15 : tensor<1024xf32> loc(#loc54)
    %tmp2_17 = arith.addf %tmp2_16, %tmp2_0 : tensor<1024xf32> loc(#loc55)
    %tmp2_18 = arith.divf %tmp2_0, %tmp2_17 : tensor<1024xf32> loc(#loc56)
    %tmp3 = arith.mulf %tmp0_10, %tmp2_18 : tensor<1024xf32> loc(#loc50)
    %tmp6 = arith.mulf %tmp3, %tmp5_14 : tensor<1024xf32> loc(#loc51)
    %0 = tt.splat %out_ptr0 : !tt.ptr<bf16> -> tensor<1024x!tt.ptr<bf16>> loc(#loc26)
    %1 = tt.addptr %0, %xindex_4 : tensor<1024x!tt.ptr<bf16>>, tensor<1024xi32> loc(#loc26)
    %2 = arith.truncf %tmp6 : tensor<1024xf32> to tensor<1024xbf16> loc(#loc27)
    tt.store %1, %2, %xmask_5 : tensor<1024x!tt.ptr<bf16>> loc(#loc27)
    tt.return loc(#loc28)
  } loc(#loc)
} loc(#loc)
#loc1 = loc("/root/miniconda3/envs/flagscale-inference/lib/python3.12/site-packages/triton/language/standard.py":48:30)
#loc2 = loc("/tmp/torchinductor_root/ws/cwsjx5ke2dr3q622ywvrmk73rvinpu6kiuiiubf3bnsua4pnhss7.py":28:22)
#loc3 = loc(unknown)
#loc4 = loc("/tmp/torchinductor_root/ws/cwsjx5ke2dr3q622ywvrmk73rvinpu6kiuiiubf3bnsua4pnhss7.py":19:28)
#loc5 = loc("/tmp/torchinductor_root/ws/cwsjx5ke2dr3q622ywvrmk73rvinpu6kiuiiubf3bnsua4pnhss7.py":19:33)
#loc6 = loc("/tmp/torchinductor_root/ws/cwsjx5ke2dr3q622ywvrmk73rvinpu6kiuiiubf3bnsua4pnhss7.py":20:36)
#loc7 = loc("/tmp/torchinductor_root/ws/cwsjx5ke2dr3q622ywvrmk73rvinpu6kiuiiubf3bnsua4pnhss7.py":20:23)
#loc8 = loc("/tmp/torchinductor_root/ws/cwsjx5ke2dr3q622ywvrmk73rvinpu6kiuiiubf3bnsua4pnhss7.py":21:21)
#loc9 = loc("/tmp/torchinductor_root/ws/cwsjx5ke2dr3q622ywvrmk73rvinpu6kiuiiubf3bnsua4pnhss7.py":22:19)
#loc10 = loc("/tmp/torchinductor_root/ws/cwsjx5ke2dr3q622ywvrmk73rvinpu6kiuiiubf3bnsua4pnhss7.py":23:19)
#loc11 = loc("/tmp/torchinductor_root/ws/cwsjx5ke2dr3q622ywvrmk73rvinpu6kiuiiubf3bnsua4pnhss7.py":25:41)
#loc12 = loc("/tmp/torchinductor_root/ws/cwsjx5ke2dr3q622ywvrmk73rvinpu6kiuiiubf3bnsua4pnhss7.py":25:35)
#loc13 = loc("/tmp/torchinductor_root/ws/cwsjx5ke2dr3q622ywvrmk73rvinpu6kiuiiubf3bnsua4pnhss7.py":25:30)
#loc14 = loc("/tmp/torchinductor_root/ws/cwsjx5ke2dr3q622ywvrmk73rvinpu6kiuiiubf3bnsua4pnhss7.py":25:46)
#loc15 = loc("/tmp/torchinductor_root/ws/cwsjx5ke2dr3q622ywvrmk73rvinpu6kiuiiubf3bnsua4pnhss7.py":25:56)
#loc16 = loc("/tmp/torchinductor_root/ws/cwsjx5ke2dr3q622ywvrmk73rvinpu6kiuiiubf3bnsua4pnhss7.py":26:38)
#loc17 = loc("/tmp/torchinductor_root/ws/cwsjx5ke2dr3q622ywvrmk73rvinpu6kiuiiubf3bnsua4pnhss7.py":26:43)
#loc18 = loc("/tmp/torchinductor_root/ws/cwsjx5ke2dr3q622ywvrmk73rvinpu6kiuiiubf3bnsua4pnhss7.py":26:30)
#loc19 = loc("/tmp/torchinductor_root/ws/cwsjx5ke2dr3q622ywvrmk73rvinpu6kiuiiubf3bnsua4pnhss7.py":26:54)
#loc20 = loc("/tmp/torchinductor_root/ws/cwsjx5ke2dr3q622ywvrmk73rvinpu6kiuiiubf3bnsua4pnhss7.py":26:64)
#loc21 = loc("/root/miniconda3/envs/flagscale-inference/lib/python3.12/site-packages/triton/language/standard.py":48:29)
#loc22 = loc("/root/miniconda3/envs/flagscale-inference/lib/python3.12/site-packages/triton/language/standard.py":48:20)
#loc23 = loc("/root/miniconda3/envs/flagscale-inference/lib/python3.12/site-packages/triton/language/standard.py":48:16)
#loc24 = loc("/tmp/torchinductor_root/ws/cwsjx5ke2dr3q622ywvrmk73rvinpu6kiuiiubf3bnsua4pnhss7.py":29:18)
#loc25 = loc("/tmp/torchinductor_root/ws/cwsjx5ke2dr3q622ywvrmk73rvinpu6kiuiiubf3bnsua4pnhss7.py":31:18)
#loc26 = loc("/tmp/torchinductor_root/ws/cwsjx5ke2dr3q622ywvrmk73rvinpu6kiuiiubf3bnsua4pnhss7.py":32:25)
#loc27 = loc("/tmp/torchinductor_root/ws/cwsjx5ke2dr3q622ywvrmk73rvinpu6kiuiiubf3bnsua4pnhss7.py":32:36)
#loc28 = loc("/tmp/torchinductor_root/ws/cwsjx5ke2dr3q622ywvrmk73rvinpu6kiuiiubf3bnsua4pnhss7.py":32:4)
#loc32 = loc("tmp2"(#loc2))
#loc33 = loc("xoffset"(#loc4))
#loc34 = loc("xoffset"(#loc5))
#loc35 = loc("xindex"(#loc6))
#loc36 = loc("xindex"(#loc7))
#loc37 = loc("xmask"(#loc8))
#loc38 = loc("x0"(#loc9))
#loc39 = loc("x1"(#loc10))
#loc40 = loc("tmp0"(#loc11))
#loc41 = loc("tmp0"(#loc12))
#loc42 = loc("tmp0"(#loc13))
#loc43 = loc("tmp0"(#loc14))
#loc44 = loc("tmp0"(#loc15))
#loc45 = loc("tmp5"(#loc16))
#loc46 = loc("tmp5"(#loc17))
#loc47 = loc("tmp5"(#loc18))
#loc48 = loc("tmp5"(#loc19))
#loc49 = loc("tmp5"(#loc20))
#loc50 = loc("tmp3"(#loc24))
#loc51 = loc("tmp6"(#loc25))
#loc52 = loc(callsite(#loc1 at #loc32))
#loc53 = loc(callsite(#loc3 at #loc32))
#loc54 = loc(callsite(#loc21 at #loc32))
#loc55 = loc(callsite(#loc22 at #loc32))
#loc56 = loc(callsite(#loc23 at #loc32))
