#loc = loc("/root/miniconda3/envs/flagscale-inference/lib/python3.12/site-packages/vllm/attention/ops/triton_unified_attention.py":57:0)
#loc1 = loc(unknown)
#loc2 = loc("/root/miniconda3/envs/flagscale-inference/lib/python3.12/site-packages/vllm/attention/ops/triton_unified_attention.py":112:68)
#loc7 = loc("left")
#loc8 = loc("right")
#loc120 = loc("/root/miniconda3/envs/flagscale-inference/lib/python3.12/site-packages/vllm/attention/ops/triton_unified_attention.py":338:35)
#loc129 = loc("/root/miniconda3/envs/flagscale-inference/lib/python3.12/site-packages/vllm/attention/ops/triton_unified_attention.py":348:21)
#loc149 = loc("output_ptr"(#loc))
#loc150 = loc("query_ptr"(#loc))
#loc151 = loc("key_cache_ptr"(#loc))
#loc152 = loc("value_cache_ptr"(#loc))
#loc153 = loc("block_tables_ptr"(#loc))
#loc154 = loc("seq_lens_ptr"(#loc))
#loc155 = loc("scale"(#loc))
#loc156 = loc("k_scale"(#loc))
#loc157 = loc("v_scale"(#loc))
#loc158 = loc("out_scale"(#loc))
#loc159 = loc("softcap"(#loc))
#loc160 = loc("block_table_stride"(#loc))
#loc161 = loc("query_stride_0"(#loc))
#loc162 = loc("query_stride_1"(#loc))
#loc163 = loc("output_stride_0"(#loc))
#loc164 = loc("output_stride_1"(#loc))
#loc165 = loc("qq_bias_stride_0"(#loc))
#loc166 = loc("stride_k_cache_0"(#loc))
#loc167 = loc("stride_k_cache_1"(#loc))
#loc168 = loc("stride_k_cache_2"(#loc))
#loc169 = loc("stride_v_cache_0"(#loc))
#loc170 = loc("stride_v_cache_1"(#loc))
#loc171 = loc("stride_v_cache_2"(#loc))
#loc172 = loc("query_start_len_ptr"(#loc))
#loc173 = loc("num_seqs"(#loc))
#loc174 = loc("seq_idx"(#loc2))
#loc178 = loc("left"(#loc7))
#loc179 = loc("right"(#loc8))
#loc281 = loc("m_j"(#loc120))
#loc288 = loc("l_j"(#loc129))
#loc306 = loc(callsite(#loc178 at #loc174))
#loc307 = loc(callsite(#loc179 at #loc174))
#loc323 = loc(callsite(#loc1 at #loc281))
#loc325 = loc(callsite(#loc1 at #loc288))
module {
  tt.func public @kernel_unified_attention_2d(%output_ptr: !tt.ptr<bf16> {tt.divisibility = 16 : i32} loc("output_ptr"(#loc)), %query_ptr: !tt.ptr<bf16> {tt.divisibility = 16 : i32} loc("query_ptr"(#loc)), %key_cache_ptr: !tt.ptr<bf16> {tt.divisibility = 16 : i32} loc("key_cache_ptr"(#loc)), %value_cache_ptr: !tt.ptr<bf16> {tt.divisibility = 16 : i32} loc("value_cache_ptr"(#loc)), %block_tables_ptr: !tt.ptr<i32> {tt.divisibility = 16 : i32} loc("block_tables_ptr"(#loc)), %seq_lens_ptr: !tt.ptr<i32> {tt.divisibility = 16 : i32} loc("seq_lens_ptr"(#loc)), %scale: f32 loc("scale"(#loc)), %k_scale: !tt.ptr<f32> {tt.divisibility = 16 : i32} loc("k_scale"(#loc)), %v_scale: !tt.ptr<f32> {tt.divisibility = 16 : i32} loc("v_scale"(#loc)), %out_scale: f32 loc("out_scale"(#loc)), %softcap: i32 {tt.divisibility = 16 : i32} loc("softcap"(#loc)), %block_table_stride: i64 {tt.divisibility = 16 : i32} loc("block_table_stride"(#loc)), %query_stride_0: i64 {tt.divisibility = 16 : i32} loc("query_stride_0"(#loc)), %query_stride_1: i64 {tt.divisibility = 16 : i32} loc("query_stride_1"(#loc)), %output_stride_0: i64 {tt.divisibility = 16 : i32} loc("output_stride_0"(#loc)), %output_stride_1: i64 {tt.divisibility = 16 : i32} loc("output_stride_1"(#loc)), %qq_bias_stride_0: i64 {tt.divisibility = 16 : i32} loc("qq_bias_stride_0"(#loc)), %stride_k_cache_0: i64 {tt.divisibility = 16 : i32} loc("stride_k_cache_0"(#loc)), %stride_k_cache_1: i64 {tt.divisibility = 16 : i32} loc("stride_k_cache_1"(#loc)), %stride_k_cache_2: i64 {tt.divisibility = 16 : i32} loc("stride_k_cache_2"(#loc)), %stride_v_cache_0: i64 {tt.divisibility = 16 : i32} loc("stride_v_cache_0"(#loc)), %stride_v_cache_1: i64 {tt.divisibility = 16 : i32} loc("stride_v_cache_1"(#loc)), %stride_v_cache_2: i64 {tt.divisibility = 16 : i32} loc("stride_v_cache_2"(#loc)), %query_start_len_ptr: !tt.ptr<i32> {tt.divisibility = 16 : i32} loc("query_start_len_ptr"(#loc)), %num_seqs: i32 {tt.divisibility = 16 : i32} loc("num_seqs"(#loc))) attributes {noinline = false} {
    %c31_i32 = arith.constant 31 : i32 loc(#loc1)
    %seq_idx = arith.constant 2 : i32 loc(#loc303)
    %cst = arith.constant dense<0.000000e+00> : tensor<32x128xbf16> loc(#loc1)
    %cst_0 = arith.constant dense<0.000000e+00> : tensor<128x32xbf16> loc(#loc1)
    %c0_i32 = arith.constant 0 : i32 loc(#loc1)
    %c4_i32 = arith.constant 4 : i32 loc(#loc1)
    %cst_1 = arith.constant dense<0.000000e+00> : tensor<16x128xbf16> loc(#loc1)
    %cst_2 = arith.constant dense<0.000000e+00> : tensor<16xf32> loc(#loc1)
    %cst_3 = arith.constant dense<0xFF800000> : tensor<16x32xf32> loc(#loc1)
    %cst_4 = arith.constant dense<0.000000e+00> : tensor<16x32xf32> loc(#loc1)
    %cst_5 = arith.constant dense<16> : tensor<32xi32> loc(#loc1)
    %c32_i32 = arith.constant 32 : i32 loc(#loc1)
    %cst_6 = arith.constant dense<1.000000e+00> : tensor<16xf32> loc(#loc1)
    %cst_7 = arith.constant dense<0xFF800000> : tensor<16xf32> loc(#loc1)
    %cst_8 = arith.constant dense<0.000000e+00> : tensor<16x128xf32> loc(#loc1)
    %cst_9 = arith.constant dense<40> : tensor<16xi32> loc(#loc1)
    %cst_10 = arith.constant dense<0> : tensor<16xi32> loc(#loc1)
    %cst_11 = arith.constant dense<1> : tensor<16xi32> loc(#loc1)
    %cst_12 = arith.constant dense<0> : tensor<128xi32> loc(#loc1)
    %cst_13 = arith.constant dense<1> : tensor<128xi32> loc(#loc1)
    %cst_14 = arith.constant dense<128> : tensor<128xi32> loc(#loc1)
    %cst_15 = arith.constant dense<5> : tensor<16xi32> loc(#loc1)
    %c5_i32 = arith.constant 5 : i32 loc(#loc1)
    %c1_i32 = arith.constant 1 : i32 loc(#loc1)
    %c3_i32 = arith.constant 3 : i32 loc(#loc1)
    %q_block_global_idx = tt.get_program_id x : i32 loc(#loc175)
    %kv_head_idx = tt.get_program_id y : i32 loc(#loc176)
    %right:2 = scf.while (%left = %c0_i32, %right_71 = %num_seqs) : (i32, i32) -> (i32, i32) {
      %seq_idx_72 = arith.cmpi slt, %left, %right_71 : i32 loc(#loc305)
      scf.condition(%seq_idx_72) %left, %right_71 : i32, i32 loc(#loc305)
    } do {
    ^bb0(%left: i32 loc(callsite(#loc178 at #loc174)), %right_71: i32 loc(callsite(#loc179 at #loc174))):
      %mid = arith.addi %left, %right_71 : i32 loc(#loc308)
      %right_72 = arith.divsi %mid, %seq_idx : i32 loc(#loc327)
      %val = tt.addptr %query_start_len_ptr, %right_72 : !tt.ptr<i32>, i32 loc(#loc310)
      %val_73 = tt.load %val : !tt.ptr<i32> loc(#loc311)
      %mid_val = arith.divsi %val_73, %c3_i32 : i32 loc(#loc312)
      %mid_val_74 = arith.addi %mid_val, %right_72 : i32 loc(#loc313)
      %seq_idx_75 = arith.cmpi sle, %mid_val_74, %q_block_global_idx : i32 loc(#loc314)
      %seq_idx_76 = arith.select %seq_idx_75, %right_71, %right_72 : i32 loc(#loc315)
      %seq_idx_77 = scf.if %seq_idx_75 -> (i32) {
        %left_78 = arith.addi %right_72, %c1_i32 : i32 loc(#loc328)
        scf.yield %left_78 : i32 loc(#loc328)
      } else {
        scf.yield %left : i32 loc(#loc303)
      } loc(#loc315)
      scf.yield %seq_idx_77, %seq_idx_76 : i32, i32 loc(#loc317)
    } loc(#loc326)
    %seq_idx_16 = arith.subi %right#0, %c1_i32 : i32 loc(#loc318)
    %q_block_start_idx = tt.addptr %query_start_len_ptr, %seq_idx_16 : !tt.ptr<i32>, i32 loc(#loc187)
    %q_block_start_idx_17 = tt.load %q_block_start_idx : !tt.ptr<i32> loc(#loc188)
    %q_block_start_idx_18 = arith.divsi %q_block_start_idx_17, %c3_i32 : i32 loc(#loc189)
    %q_block_start_idx_19 = arith.addi %q_block_start_idx_18, %seq_idx_16 : i32 loc(#loc190)
    %q_block_local_idx = arith.subi %q_block_global_idx, %q_block_start_idx_19 : i32 loc(#loc191)
    %cur_batch_in_all_stop_index = tt.addptr %q_block_start_idx, %c1_i32 : !tt.ptr<i32>, i32 loc(#loc192)
    %cur_batch_in_all_stop_index_20 = tt.load %cur_batch_in_all_stop_index : !tt.ptr<i32> loc(#loc193)
    %cur_batch_query_len = arith.subi %cur_batch_in_all_stop_index_20, %q_block_start_idx_17 : i32 loc(#loc194)
    %0 = arith.muli %q_block_local_idx, %c3_i32 : i32 loc(#loc28)
    %1 = arith.cmpi sge, %0, %cur_batch_query_len : i32 loc(#loc29)
    cf.cond_br %1, ^bb1, ^bb2 loc(#loc29)
  ^bb1:  // pred: ^bb0
    tt.return loc(#loc30)
  ^bb2:  // pred: ^bb0
    %offs_m = tt.make_range {end = 16 : i32, start = 0 : i32} : tensor<16xi32> loc(#loc195)
    %offs_d = tt.make_range {end = 128 : i32, start = 0 : i32} : tensor<128xi32> loc(#loc196)
    %offs_t = tt.make_range {end = 32 : i32, start = 0 : i32} : tensor<32xi32> loc(#loc197)
    %query_pos = arith.divsi %offs_m, %cst_15 : tensor<16xi32> loc(#loc198)
    %query_pos_21 = tt.splat %0 : i32 -> tensor<16xi32> loc(#loc199)
    %query_pos_22 = arith.addi %query_pos_21, %query_pos : tensor<16xi32> loc(#loc199)
    %query_offset_0 = tt.splat %q_block_start_idx_17 : i32 -> tensor<16xi32> loc(#loc200)
    %query_offset_0_23 = arith.addi %query_offset_0, %query_pos_22 : tensor<16xi32> loc(#loc200)
    %query_offset_1 = arith.muli %kv_head_idx, %c5_i32 : i32 loc(#loc201)
    %query_offset_1_24 = arith.remsi %offs_m, %cst_15 : tensor<16xi32> loc(#loc202)
    %query_offset_1_25 = tt.splat %query_offset_1 : i32 -> tensor<16xi32> loc(#loc203)
    %query_offset_1_26 = arith.addi %query_offset_1_25, %query_offset_1_24 : tensor<16xi32> loc(#loc203)
    %query_offset = tt.expand_dims %query_offset_0_23 {axis = 1 : i32} : tensor<16xi32> -> tensor<16x1xi32> loc(#loc204)
    %query_offset_27 = arith.extsi %query_offset : tensor<16x1xi32> to tensor<16x1xi64> loc(#loc205)
    %query_offset_28 = tt.splat %query_stride_0 : i64 -> tensor<16x1xi64> loc(#loc205)
    %query_offset_29 = arith.muli %query_offset_27, %query_offset_28 : tensor<16x1xi64> loc(#loc205)
    %query_offset_30 = tt.expand_dims %query_offset_1_26 {axis = 1 : i32} : tensor<16xi32> -> tensor<16x1xi32> loc(#loc206)
    %query_offset_31 = arith.extsi %query_offset_30 : tensor<16x1xi32> to tensor<16x1xi64> loc(#loc207)
    %query_offset_32 = tt.splat %query_stride_1 : i64 -> tensor<16x1xi64> loc(#loc207)
    %query_offset_33 = arith.muli %query_offset_31, %query_offset_32 : tensor<16x1xi64> loc(#loc207)
    %query_offset_34 = arith.addi %query_offset_29, %query_offset_33 : tensor<16x1xi64> loc(#loc208)
    %query_offset_35 = tt.expand_dims %offs_d {axis = 0 : i32} : tensor<128xi32> -> tensor<1x128xi32> loc(#loc209)
    %query_offset_36 = arith.extsi %query_offset_35 : tensor<1x128xi32> to tensor<1x128xi64> loc(#loc210)
    %query_offset_37 = tt.broadcast %query_offset_34 : tensor<16x1xi64> -> tensor<16x128xi64> loc(#loc210)
    %query_offset_38 = tt.broadcast %query_offset_36 : tensor<1x128xi64> -> tensor<16x128xi64> loc(#loc210)
    %query_offset_39 = arith.addi %query_offset_37, %query_offset_38 : tensor<16x128xi64> loc(#loc210)
    %dim_mask = arith.cmpi slt, %offs_d, %cst_14 : tensor<128xi32> loc(#loc211)
    %dim_mask_40 = arith.select %dim_mask, %cst_13, %cst_12 : tensor<128xi1>, tensor<128xi32> loc(#loc212)
    %dim_mask_41 = arith.cmpi ne, %dim_mask_40, %cst_12 : tensor<128xi32> loc(#loc213)
    %query_mask_0 = tt.splat %cur_batch_query_len : i32 -> tensor<16xi32> loc(#loc214)
    %query_mask_0_42 = arith.cmpi slt, %query_pos_22, %query_mask_0 : tensor<16xi32> loc(#loc214)
    %query_mask_0_43 = arith.select %query_mask_0_42, %cst_11, %cst_10 : tensor<16xi1>, tensor<16xi32> loc(#loc215)
    %query_mask_0_44 = arith.cmpi ne, %query_mask_0_43, %cst_10 : tensor<16xi32> loc(#loc216)
    %query_mask_1 = arith.cmpi slt, %query_offset_1_26, %cst_9 : tensor<16xi32> loc(#loc217)
    %query_mask_1_45 = arith.select %query_mask_1, %cst_11, %cst_10 : tensor<16xi1>, tensor<16xi32> loc(#loc218)
    %query_mask_1_46 = arith.cmpi ne, %query_mask_1_45, %cst_10 : tensor<16xi32> loc(#loc219)
    %Q = tt.expand_dims %dim_mask_41 {axis = 0 : i32} : tensor<128xi1> -> tensor<1x128xi1> loc(#loc220)
    %Q_47 = tt.expand_dims %query_mask_0_44 {axis = 1 : i32} : tensor<16xi1> -> tensor<16x1xi1> loc(#loc221)
    %Q_48 = tt.broadcast %Q : tensor<1x128xi1> -> tensor<16x128xi1> loc(#loc222)
    %Q_49 = tt.broadcast %Q_47 : tensor<16x1xi1> -> tensor<16x128xi1> loc(#loc222)
    %Q_50 = arith.andi %Q_48, %Q_49 : tensor<16x128xi1> loc(#loc222)
    %Q_51 = tt.expand_dims %query_mask_1_46 {axis = 1 : i32} : tensor<16xi1> -> tensor<16x1xi1> loc(#loc223)
    %Q_52 = tt.broadcast %Q_51 : tensor<16x1xi1> -> tensor<16x128xi1> loc(#loc224)
    %Q_53 = arith.andi %Q_50, %Q_52 : tensor<16x128xi1> loc(#loc224)
    %Q_54 = tt.splat %query_ptr : !tt.ptr<bf16> -> tensor<16x128x!tt.ptr<bf16>> loc(#loc225)
    %Q_55 = tt.addptr %Q_54, %query_offset_39 : tensor<16x128x!tt.ptr<bf16>>, tensor<16x128xi64> loc(#loc225)
    %Q_56 = tt.load %Q_55, %Q_53, %cst_1 : tensor<16x128x!tt.ptr<bf16>> loc(#loc226)
    %block_table_offset = arith.extsi %seq_idx_16 : i32 to i64 loc(#loc227)
    %block_table_offset_57 = arith.muli %block_table_offset, %block_table_stride : i64 loc(#loc227)
    %seq_len = tt.addptr %seq_lens_ptr, %seq_idx_16 : !tt.ptr<i32>, i32 loc(#loc228)
    %seq_len_58 = tt.load %seq_len : !tt.ptr<i32> loc(#loc229)
    %context_len = arith.subi %seq_len_58, %cur_batch_query_len : i32 loc(#loc230)
    %max_seq_prefix_len = arith.addi %context_len, %0 : i32 loc(#loc231)
    %max_seq_prefix_len_59 = arith.addi %max_seq_prefix_len, %c4_i32 : i32 loc(#loc232)
    %max_seq_prefix_len_60 = arith.minsi %max_seq_prefix_len_59, %seq_len_58 : i32 loc(#loc233)
    %num_tiles = arith.addi %max_seq_prefix_len_60, %c31_i32 : i32 loc(#loc319)
    %num_tiles_61 = arith.divsi %num_tiles, %c32_i32 : i32 loc(#loc320)
    %acc:3 = scf.for %j = %c0_i32 to %num_tiles_61 step %c1_i32 iter_args(%M = %cst_7, %L = %cst_6, %acc_71 = %cst_8) -> (tensor<16xf32>, tensor<16xf32>, tensor<16x128xf32>)  : i32 {
      %seq_offset = arith.muli %j, %c32_i32 : i32 loc(#loc236)
      %seq_offset_72 = tt.splat %seq_offset : i32 -> tensor<32xi32> loc(#loc237)
      %seq_offset_73 = arith.addi %seq_offset_72, %offs_t : tensor<32xi32> loc(#loc237)
      %tile_mask = tt.splat %max_seq_prefix_len_60 : i32 -> tensor<32xi32> loc(#loc238)
      %tile_mask_74 = arith.cmpi slt, %seq_offset_73, %tile_mask : tensor<32xi32> loc(#loc238)
      %physical_block_idx = tt.addptr %block_tables_ptr, %block_table_offset_57 : !tt.ptr<i32>, i64 loc(#loc239)
      %physical_block_idx_75 = arith.divsi %seq_offset_73, %cst_5 : tensor<32xi32> loc(#loc240)
      %physical_block_idx_76 = tt.splat %physical_block_idx : !tt.ptr<i32> -> tensor<32x!tt.ptr<i32>> loc(#loc241)
      %physical_block_idx_77 = tt.addptr %physical_block_idx_76, %physical_block_idx_75 : tensor<32x!tt.ptr<i32>>, tensor<32xi32> loc(#loc241)
      %physical_block_idx_78 = tt.load %physical_block_idx_77 : tensor<32x!tt.ptr<i32>> loc(#loc242)
      %physical_block_idx_79 = arith.extsi %physical_block_idx_78 : tensor<32xi32> to tensor<32xi64> loc(#loc243)
      %v_offset = tt.expand_dims %physical_block_idx_79 {axis = 1 : i32} : tensor<32xi64> -> tensor<32x1xi64> loc(#loc244)
      %v_offset_80 = tt.splat %stride_v_cache_0 : i64 -> tensor<32x1xi64> loc(#loc245)
      %v_offset_81 = arith.muli %v_offset, %v_offset_80 : tensor<32x1xi64> loc(#loc245)
      %v_offset_82 = arith.extsi %kv_head_idx : i32 to i64 loc(#loc246)
      %v_offset_83 = arith.muli %v_offset_82, %stride_v_cache_2 : i64 loc(#loc246)
      %v_offset_84 = tt.splat %v_offset_83 : i64 -> tensor<32x1xi64> loc(#loc247)
      %v_offset_85 = arith.addi %v_offset_81, %v_offset_84 : tensor<32x1xi64> loc(#loc247)
      %v_offset_86 = tt.broadcast %v_offset_85 : tensor<32x1xi64> -> tensor<32x128xi64> loc(#loc248)
      %v_offset_87 = tt.broadcast %query_offset_36 : tensor<1x128xi64> -> tensor<32x128xi64> loc(#loc248)
      %v_offset_88 = arith.addi %v_offset_86, %v_offset_87 : tensor<32x128xi64> loc(#loc248)
      %v_offset_89 = arith.remsi %seq_offset_73, %cst_5 : tensor<32xi32> loc(#loc249)
      %v_offset_90 = tt.expand_dims %v_offset_89 {axis = 1 : i32} : tensor<32xi32> -> tensor<32x1xi32> loc(#loc250)
      %v_offset_91 = arith.extsi %v_offset_90 : tensor<32x1xi32> to tensor<32x1xi64> loc(#loc251)
      %v_offset_92 = tt.splat %stride_v_cache_1 : i64 -> tensor<32x1xi64> loc(#loc251)
      %v_offset_93 = arith.muli %v_offset_91, %v_offset_92 : tensor<32x1xi64> loc(#loc251)
      %v_offset_94 = tt.broadcast %v_offset_93 : tensor<32x1xi64> -> tensor<32x128xi64> loc(#loc252)
      %v_offset_95 = arith.addi %v_offset_88, %v_offset_94 : tensor<32x128xi64> loc(#loc252)
      %k_offset = tt.expand_dims %physical_block_idx_79 {axis = 0 : i32} : tensor<32xi64> -> tensor<1x32xi64> loc(#loc253)
      %k_offset_96 = tt.splat %stride_k_cache_0 : i64 -> tensor<1x32xi64> loc(#loc254)
      %k_offset_97 = arith.muli %k_offset, %k_offset_96 : tensor<1x32xi64> loc(#loc254)
      %k_offset_98 = arith.muli %v_offset_82, %stride_k_cache_2 : i64 loc(#loc255)
      %k_offset_99 = tt.splat %k_offset_98 : i64 -> tensor<1x32xi64> loc(#loc256)
      %k_offset_100 = arith.addi %k_offset_97, %k_offset_99 : tensor<1x32xi64> loc(#loc256)
      %k_offset_101 = tt.expand_dims %offs_d {axis = 1 : i32} : tensor<128xi32> -> tensor<128x1xi32> loc(#loc257)
      %k_offset_102 = arith.extsi %k_offset_101 : tensor<128x1xi32> to tensor<128x1xi64> loc(#loc258)
      %k_offset_103 = tt.broadcast %k_offset_100 : tensor<1x32xi64> -> tensor<128x32xi64> loc(#loc258)
      %k_offset_104 = tt.broadcast %k_offset_102 : tensor<128x1xi64> -> tensor<128x32xi64> loc(#loc258)
      %k_offset_105 = arith.addi %k_offset_103, %k_offset_104 : tensor<128x32xi64> loc(#loc258)
      %k_offset_106 = tt.expand_dims %v_offset_89 {axis = 0 : i32} : tensor<32xi32> -> tensor<1x32xi32> loc(#loc259)
      %k_offset_107 = arith.extsi %k_offset_106 : tensor<1x32xi32> to tensor<1x32xi64> loc(#loc260)
      %k_offset_108 = tt.splat %stride_k_cache_1 : i64 -> tensor<1x32xi64> loc(#loc260)
      %k_offset_109 = arith.muli %k_offset_107, %k_offset_108 : tensor<1x32xi64> loc(#loc260)
      %k_offset_110 = tt.broadcast %k_offset_109 : tensor<1x32xi64> -> tensor<128x32xi64> loc(#loc261)
      %k_offset_111 = arith.addi %k_offset_105, %k_offset_110 : tensor<128x32xi64> loc(#loc261)
      %K_load = tt.expand_dims %dim_mask_41 {axis = 1 : i32} : tensor<128xi1> -> tensor<128x1xi1> loc(#loc262)
      %K_load_112 = tt.expand_dims %tile_mask_74 {axis = 0 : i32} : tensor<32xi1> -> tensor<1x32xi1> loc(#loc263)
      %K_load_113 = tt.broadcast %K_load : tensor<128x1xi1> -> tensor<128x32xi1> loc(#loc264)
      %K_load_114 = tt.broadcast %K_load_112 : tensor<1x32xi1> -> tensor<128x32xi1> loc(#loc264)
      %K_load_115 = arith.andi %K_load_113, %K_load_114 : tensor<128x32xi1> loc(#loc264)
      %K_load_116 = tt.splat %key_cache_ptr : !tt.ptr<bf16> -> tensor<128x32x!tt.ptr<bf16>> loc(#loc265)
      %K_load_117 = tt.addptr %K_load_116, %k_offset_111 : tensor<128x32x!tt.ptr<bf16>>, tensor<128x32xi64> loc(#loc265)
      %K_load_118 = tt.load %K_load_117, %K_load_115, %cst_0 : tensor<128x32x!tt.ptr<bf16>> loc(#loc266)
      %V_load = tt.expand_dims %tile_mask_74 {axis = 1 : i32} : tensor<32xi1> -> tensor<32x1xi1> loc(#loc267)
      %V_load_119 = tt.broadcast %Q : tensor<1x128xi1> -> tensor<32x128xi1> loc(#loc268)
      %V_load_120 = tt.broadcast %V_load : tensor<32x1xi1> -> tensor<32x128xi1> loc(#loc268)
      %V_load_121 = arith.andi %V_load_119, %V_load_120 : tensor<32x128xi1> loc(#loc268)
      %V_load_122 = tt.splat %value_cache_ptr : !tt.ptr<bf16> -> tensor<32x128x!tt.ptr<bf16>> loc(#loc269)
      %V_load_123 = tt.addptr %V_load_122, %v_offset_95 : tensor<32x128x!tt.ptr<bf16>>, tensor<32x128xi64> loc(#loc269)
      %V_load_124 = tt.load %V_load_123, %V_load_121, %cst : tensor<32x128x!tt.ptr<bf16>> loc(#loc270)
      %query_abs_pos = tt.expand_dims %query_pos_22 {axis = 1 : i32} : tensor<16xi32> -> tensor<16x1xi32> loc(#loc271)
      %query_abs_pos_125 = tt.splat %context_len : i32 -> tensor<16x1xi32> loc(#loc272)
      %query_abs_pos_126 = arith.addi %query_abs_pos_125, %query_abs_pos : tensor<16x1xi32> loc(#loc272)
      %seq_mask = tt.expand_dims %seq_offset_73 {axis = 0 : i32} : tensor<32xi32> -> tensor<1x32xi32> loc(#loc273)
      %seq_mask_127 = tt.broadcast %seq_mask : tensor<1x32xi32> -> tensor<16x32xi32> loc(#loc274)
      %seq_mask_128 = tt.broadcast %query_abs_pos_126 : tensor<16x1xi32> -> tensor<16x32xi32> loc(#loc274)
      %seq_mask_129 = arith.cmpi sle, %seq_mask_127, %seq_mask_128 : tensor<16x32xi32> loc(#loc274)
      %S = tt.dot %Q_56, %K_load_118, %cst_4, inputPrecision = tf32 : tensor<16x128xbf16> * tensor<128x32xbf16> -> tensor<16x32xf32> loc(#loc275)
      %S_130 = tt.splat %scale : f32 -> tensor<16x32xf32> loc(#loc276)
      %S_131 = arith.mulf %S_130, %S : tensor<16x32xf32> loc(#loc276)
      %S_132 = arith.addf %S_131, %cst_4 : tensor<16x32xf32> loc(#loc277)
      %S_133 = arith.andi %Q_51, %Q_47 : tensor<16x1xi1> loc(#loc278)
      %S_134 = tt.broadcast %S_133 : tensor<16x1xi1> -> tensor<16x32xi1> loc(#loc279)
      %S_135 = arith.andi %S_134, %seq_mask_129 : tensor<16x32xi1> loc(#loc279)
      %S_136 = arith.select %S_135, %S_132, %cst_3 : tensor<16x32xi1>, tensor<16x32xf32> loc(#loc280)
      %m_j = "tt.reduce"(%S_136) <{axis = 1 : i32}> ({
      ^bb0(%m_j_151: f32 loc(callsite(#loc1 at #loc281)), %m_j_152: f32 loc(callsite(#loc1 at #loc281))):
        %m_j_153 = arith.maxnumf %m_j_151, %m_j_152 : f32 loc(#loc330)
        tt.reduce.return %m_j_153 : f32 loc(#loc322)
      }) : (tensor<16x32xf32>) -> tensor<16xf32> loc(#loc322)
      %m_j_137 = arith.maxnumf %M, %m_j : tensor<16xf32> loc(#loc282)
      %m_j_138 = arith.cmpf ogt, %m_j_137, %cst_7 : tensor<16xf32> loc(#loc283)
      %m_j_139 = arith.select %m_j_138, %m_j_137, %cst_2 : tensor<16xi1>, tensor<16xf32> loc(#loc284)
      %P = tt.expand_dims %m_j_139 {axis = 1 : i32} : tensor<16xf32> -> tensor<16x1xf32> loc(#loc285)
      %P_140 = tt.broadcast %P : tensor<16x1xf32> -> tensor<16x32xf32> loc(#loc286)
      %P_141 = arith.subf %S_136, %P_140 : tensor<16x32xf32> loc(#loc286)
      %P_142 = math.exp %P_141 : tensor<16x32xf32> loc(#loc287)
      %l_j = "tt.reduce"(%P_142) <{axis = 1 : i32}> ({
      ^bb0(%l_j_151: f32 loc(callsite(#loc1 at #loc288)), %l_j_152: f32 loc(callsite(#loc1 at #loc288))):
        %l_j_153 = arith.addf %l_j_151, %l_j_152 : f32 loc(#loc331)
        tt.reduce.return %l_j_153 : f32 loc(#loc324)
      }) : (tensor<16x32xf32>) -> tensor<16xf32> loc(#loc324)
      %alpha = arith.subf %M, %m_j_139 : tensor<16xf32> loc(#loc289)
      %alpha_143 = math.exp %alpha : tensor<16xf32> loc(#loc290)
      %acc_144 = tt.expand_dims %alpha_143 {axis = 1 : i32} : tensor<16xf32> -> tensor<16x1xf32> loc(#loc291)
      %acc_145 = tt.broadcast %acc_144 : tensor<16x1xf32> -> tensor<16x128xf32> loc(#loc292)
      %acc_146 = arith.mulf %acc_71, %acc_145 : tensor<16x128xf32> loc(#loc292)
      %L_147 = arith.mulf %L, %alpha_143 : tensor<16xf32> loc(#loc293)
      %L_148 = arith.addf %L_147, %l_j : tensor<16xf32> loc(#loc294)
      %acc_149 = arith.truncf %P_142 : tensor<16x32xf32> to tensor<16x32xbf16> loc(#loc295)
      %acc_150 = tt.dot %acc_149, %V_load_124, %acc_146, inputPrecision = tf32 : tensor<16x32xbf16> * tensor<32x128xbf16> -> tensor<16x128xf32> loc(#loc296)
      scf.yield %m_j_139, %L_148, %acc_150 : tensor<16xf32>, tensor<16xf32>, tensor<16x128xf32> loc(#loc139)
    } loc(#loc329)
    %acc_62 = tt.expand_dims %acc#1 {axis = 1 : i32} : tensor<16xf32> -> tensor<16x1xf32> loc(#loc297)
    %acc_63 = tt.broadcast %acc_62 : tensor<16x1xf32> -> tensor<16x128xf32> loc(#loc298)
    %acc_64 = arith.divf %acc#2, %acc_63 : tensor<16x128xf32> loc(#loc298)
    %output_offset = tt.splat %output_stride_0 : i64 -> tensor<16x1xi64> loc(#loc299)
    %output_offset_65 = arith.muli %query_offset_27, %output_offset : tensor<16x1xi64> loc(#loc299)
    %output_offset_66 = tt.splat %output_stride_1 : i64 -> tensor<16x1xi64> loc(#loc300)
    %output_offset_67 = arith.muli %query_offset_31, %output_offset_66 : tensor<16x1xi64> loc(#loc300)
    %output_offset_68 = arith.addi %output_offset_65, %output_offset_67 : tensor<16x1xi64> loc(#loc301)
    %output_offset_69 = tt.broadcast %output_offset_68 : tensor<16x1xi64> -> tensor<16x128xi64> loc(#loc302)
    %output_offset_70 = arith.addi %output_offset_69, %query_offset_38 : tensor<16x128xi64> loc(#loc302)
    %2 = tt.splat %output_ptr : !tt.ptr<bf16> -> tensor<16x128x!tt.ptr<bf16>> loc(#loc146)
    %3 = tt.addptr %2, %output_offset_70 : tensor<16x128x!tt.ptr<bf16>>, tensor<16x128xi64> loc(#loc146)
    %4 = arith.truncf %acc_64 : tensor<16x128xf32> to tensor<16x128xbf16> loc(#loc147)
    tt.store %3, %4, %Q_53 : tensor<16x128x!tt.ptr<bf16>> loc(#loc147)
    tt.return loc(#loc148)
  } loc(#loc)
} loc(#loc)
#loc3 = loc("/root/miniconda3/envs/flagscale-inference/lib/python3.12/site-packages/vllm/attention/ops/triton_unified_attention.py":108:39)
#loc4 = loc("/root/miniconda3/envs/flagscale-inference/lib/python3.12/site-packages/vllm/attention/ops/triton_unified_attention.py":109:32)
#loc5 = loc("/root/miniconda3/envs/flagscale-inference/lib/python3.12/site-packages/vllm/attention/ops/triton_unified_attention.py":43:4)
#loc6 = loc("/root/miniconda3/envs/flagscale-inference/lib/python3.12/site-packages/vllm/attention/ops/triton_unified_attention.py":43:17)
#loc9 = loc("/root/miniconda3/envs/flagscale-inference/lib/python3.12/site-packages/vllm/attention/ops/triton_unified_attention.py":44:22)
#loc10 = loc("/root/miniconda3/envs/flagscale-inference/lib/python3.12/site-packages/vllm/attention/ops/triton_unified_attention.py":44:32)
#loc11 = loc("/root/miniconda3/envs/flagscale-inference/lib/python3.12/site-packages/vllm/attention/ops/triton_unified_attention.py":45:44)
#loc12 = loc("/root/miniconda3/envs/flagscale-inference/lib/python3.12/site-packages/vllm/attention/ops/triton_unified_attention.py":45:22)
#loc13 = loc("/root/miniconda3/envs/flagscale-inference/lib/python3.12/site-packages/vllm/attention/ops/triton_unified_attention.py":46:25)
#loc14 = loc("/root/miniconda3/envs/flagscale-inference/lib/python3.12/site-packages/vllm/attention/ops/triton_unified_attention.py":46:35)
#loc15 = loc("/root/miniconda3/envs/flagscale-inference/lib/python3.12/site-packages/vllm/attention/ops/triton_unified_attention.py":48:22)
#loc16 = loc("/root/miniconda3/envs/flagscale-inference/lib/python3.12/site-packages/vllm/attention/ops/triton_unified_attention.py":48:11)
#loc17 = loc("/root/miniconda3/envs/flagscale-inference/lib/python3.12/site-packages/vllm/attention/ops/triton_unified_attention.py":49:25)
#loc18 = loc("/root/miniconda3/envs/flagscale-inference/lib/python3.12/site-packages/vllm/attention/ops/triton_unified_attention.py":48:8)
#loc19 = loc("/root/miniconda3/envs/flagscale-inference/lib/python3.12/site-packages/vllm/attention/ops/triton_unified_attention.py":53:18)
#loc20 = loc("/root/miniconda3/envs/flagscale-inference/lib/python3.12/site-packages/vllm/attention/ops/triton_unified_attention.py":115:54)
#loc21 = loc("/root/miniconda3/envs/flagscale-inference/lib/python3.12/site-packages/vllm/attention/ops/triton_unified_attention.py":115:32)
#loc22 = loc("/root/miniconda3/envs/flagscale-inference/lib/python3.12/site-packages/vllm/attention/ops/triton_unified_attention.py":115:66)
#loc23 = loc("/root/miniconda3/envs/flagscale-inference/lib/python3.12/site-packages/vllm/attention/ops/triton_unified_attention.py":115:76)
#loc24 = loc("/root/miniconda3/envs/flagscale-inference/lib/python3.12/site-packages/vllm/attention/ops/triton_unified_attention.py":117:45)
#loc25 = loc("/root/miniconda3/envs/flagscale-inference/lib/python3.12/site-packages/vllm/attention/ops/triton_unified_attention.py":120:74)
#loc26 = loc("/root/miniconda3/envs/flagscale-inference/lib/python3.12/site-packages/vllm/attention/ops/triton_unified_attention.py":120:42)
#loc27 = loc("/root/miniconda3/envs/flagscale-inference/lib/python3.12/site-packages/vllm/attention/ops/triton_unified_attention.py":122:56)
#loc28 = loc("/root/miniconda3/envs/flagscale-inference/lib/python3.12/site-packages/vllm/attention/ops/triton_unified_attention.py":124:27)
#loc29 = loc("/root/miniconda3/envs/flagscale-inference/lib/python3.12/site-packages/vllm/attention/ops/triton_unified_attention.py":124:38)
#loc30 = loc("/root/miniconda3/envs/flagscale-inference/lib/python3.12/site-packages/vllm/attention/ops/triton_unified_attention.py":125:8)
#loc31 = loc("/root/miniconda3/envs/flagscale-inference/lib/python3.12/site-packages/vllm/attention/ops/triton_unified_attention.py":127:26)
#loc32 = loc("/root/miniconda3/envs/flagscale-inference/lib/python3.12/site-packages/vllm/attention/ops/triton_unified_attention.py":128:26)
#loc33 = loc("/root/miniconda3/envs/flagscale-inference/lib/python3.12/site-packages/vllm/attention/ops/triton_unified_attention.py":129:26)
#loc34 = loc("/root/miniconda3/envs/flagscale-inference/lib/python3.12/site-packages/vllm/attention/ops/triton_unified_attention.py":130:56)
#loc35 = loc("/root/miniconda3/envs/flagscale-inference/lib/python3.12/site-packages/vllm/attention/ops/triton_unified_attention.py":130:46)
#loc36 = loc("/root/miniconda3/envs/flagscale-inference/lib/python3.12/site-packages/vllm/attention/ops/triton_unified_attention.py":132:52)
#loc37 = loc("/root/miniconda3/envs/flagscale-inference/lib/python3.12/site-packages/vllm/attention/ops/triton_unified_attention.py":133:35)
#loc38 = loc("/root/miniconda3/envs/flagscale-inference/lib/python3.12/site-packages/vllm/attention/ops/triton_unified_attention.py":133:65)
#loc39 = loc("/root/miniconda3/envs/flagscale-inference/lib/python3.12/site-packages/vllm/attention/ops/triton_unified_attention.py":133:56)
#loc40 = loc("/root/miniconda3/envs/flagscale-inference/lib/python3.12/site-packages/vllm/attention/ops/triton_unified_attention.py":135:23)
#loc41 = loc("/root/miniconda3/envs/flagscale-inference/lib/python3.12/site-packages/vllm/attention/ops/triton_unified_attention.py":135:34)
#loc42 = loc("/root/miniconda3/envs/flagscale-inference/lib/python3.12/site-packages/vllm/attention/ops/triton_unified_attention.py":136:25)
#loc43 = loc("/root/miniconda3/envs/flagscale-inference/lib/python3.12/site-packages/vllm/attention/ops/triton_unified_attention.py":136:36)
#loc44 = loc("/root/miniconda3/envs/flagscale-inference/lib/python3.12/site-packages/vllm/attention/ops/triton_unified_attention.py":136:10)
#loc45 = loc("/root/miniconda3/envs/flagscale-inference/lib/python3.12/site-packages/vllm/attention/ops/triton_unified_attention.py":137:17)
#loc46 = loc("/root/miniconda3/envs/flagscale-inference/lib/python3.12/site-packages/vllm/attention/ops/triton_unified_attention.py":137:10)
#loc47 = loc("/root/miniconda3/envs/flagscale-inference/lib/python3.12/site-packages/vllm/attention/ops/triton_unified_attention.py":140:33)
#loc48 = loc("/root/miniconda3/envs/flagscale-inference/lib/python3.12/site-packages/vllm/attention/ops/triton_unified_attention.py":140:47)
#loc49 = loc("/root/miniconda3/envs/flagscale-inference/lib/python3.12/site-packages/vllm/attention/ops/triton_unified_attention.py":140:53)
#loc50 = loc("/root/miniconda3/envs/flagscale-inference/lib/python3.12/site-packages/vllm/attention/ops/triton_unified_attention.py":141:40)
#loc51 = loc("/root/miniconda3/envs/flagscale-inference/lib/python3.12/site-packages/vllm/attention/ops/triton_unified_attention.py":141:64)
#loc52 = loc("/root/miniconda3/envs/flagscale-inference/lib/python3.12/site-packages/vllm/attention/ops/triton_unified_attention.py":141:70)
#loc53 = loc("/root/miniconda3/envs/flagscale-inference/lib/python3.12/site-packages/vllm/attention/ops/triton_unified_attention.py":142:45)
#loc54 = loc("/root/miniconda3/envs/flagscale-inference/lib/python3.12/site-packages/vllm/attention/ops/triton_unified_attention.py":142:65)
#loc55 = loc("/root/miniconda3/envs/flagscale-inference/lib/python3.12/site-packages/vllm/attention/ops/triton_unified_attention.py":142:71)
#loc56 = loc("/root/miniconda3/envs/flagscale-inference/lib/python3.12/site-packages/vllm/attention/ops/triton_unified_attention.py":147:22)
#loc57 = loc("/root/miniconda3/envs/flagscale-inference/lib/python3.12/site-packages/vllm/attention/ops/triton_unified_attention.py":147:46)
#loc58 = loc("/root/miniconda3/envs/flagscale-inference/lib/python3.12/site-packages/vllm/attention/ops/triton_unified_attention.py":147:33)
#loc59 = loc("/root/miniconda3/envs/flagscale-inference/lib/python3.12/site-packages/vllm/attention/ops/triton_unified_attention.py":147:70)
#loc60 = loc("/root/miniconda3/envs/flagscale-inference/lib/python3.12/site-packages/vllm/attention/ops/triton_unified_attention.py":147:57)
#loc61 = loc("/root/miniconda3/envs/flagscale-inference/lib/python3.12/site-packages/vllm/attention/ops/triton_unified_attention.py":146:20)
#loc62 = loc("/root/miniconda3/envs/flagscale-inference/lib/python3.12/site-packages/vllm/attention/ops/triton_unified_attention.py":146:8)
#loc63 = loc("/root/miniconda3/envs/flagscale-inference/lib/python3.12/site-packages/vllm/attention/ops/triton_unified_attention.py":151:35)
#loc64 = loc("/root/miniconda3/envs/flagscale-inference/lib/python3.12/site-packages/vllm/attention/ops/triton_unified_attention.py":166:37)
#loc65 = loc("/root/miniconda3/envs/flagscale-inference/lib/python3.12/site-packages/vllm/attention/ops/triton_unified_attention.py":166:22)
#loc66 = loc("/root/miniconda3/envs/flagscale-inference/lib/python3.12/site-packages/vllm/attention/ops/triton_unified_attention.py":169:28)
#loc67 = loc("/root/miniconda3/envs/flagscale-inference/lib/python3.12/site-packages/vllm/attention/ops/triton_unified_attention.py":187:10)
#loc68 = loc("/root/miniconda3/envs/flagscale-inference/lib/python3.12/site-packages/vllm/attention/ops/triton_unified_attention.py":189:10)
#loc69 = loc("/root/miniconda3/envs/flagscale-inference/lib/python3.12/site-packages/vllm/attention/ops/triton_unified_attention.py":194:56)
#loc70 = loc("/root/miniconda3/envs/flagscale-inference/lib/python3.12/site-packages/vllm/attention/ops/triton_unified_attention.py":22:20)
#loc71 = loc("/root/miniconda3/envs/flagscale-inference/lib/python3.12/site-packages/vllm/attention/ops/triton_unified_attention.py":199:44)
#loc72 = loc("/root/miniconda3/envs/flagscale-inference/lib/python3.12/site-packages/vllm/attention/ops/triton_unified_attention.py":22:26)
#loc73 = loc("/root/miniconda3/envs/flagscale-inference/lib/python3.12/site-packages/vllm/attention/ops/triton_unified_attention.py":224:31)
#loc74 = loc("/root/miniconda3/envs/flagscale-inference/lib/python3.12/site-packages/vllm/attention/ops/triton_unified_attention.py":225:25)
#loc75 = loc("/root/miniconda3/envs/flagscale-inference/lib/python3.12/site-packages/vllm/attention/ops/triton_unified_attention.py":225:37)
#loc76 = loc("/root/miniconda3/envs/flagscale-inference/lib/python3.12/site-packages/vllm/attention/ops/triton_unified_attention.py":226:33)
#loc77 = loc("/root/miniconda3/envs/flagscale-inference/lib/python3.12/site-packages/vllm/attention/ops/triton_unified_attention.py":229:31)
#loc78 = loc("/root/miniconda3/envs/flagscale-inference/lib/python3.12/site-packages/vllm/attention/ops/triton_unified_attention.py":229:66)
#loc79 = loc("/root/miniconda3/envs/flagscale-inference/lib/python3.12/site-packages/vllm/attention/ops/triton_unified_attention.py":229:52)
#loc80 = loc("/root/miniconda3/envs/flagscale-inference/lib/python3.12/site-packages/vllm/attention/ops/triton_unified_attention.py":229:12)
#loc81 = loc("/root/miniconda3/envs/flagscale-inference/lib/python3.12/site-packages/vllm/attention/ops/triton_unified_attention.py":230:13)
#loc82 = loc("/root/miniconda3/envs/flagscale-inference/lib/python3.12/site-packages/vllm/attention/ops/triton_unified_attention.py":233:31)
#loc83 = loc("/root/miniconda3/envs/flagscale-inference/lib/python3.12/site-packages/vllm/attention/ops/triton_unified_attention.py":233:42)
#loc84 = loc("/root/miniconda3/envs/flagscale-inference/lib/python3.12/site-packages/vllm/attention/ops/triton_unified_attention.py":234:28)
#loc85 = loc("/root/miniconda3/envs/flagscale-inference/lib/python3.12/site-packages/vllm/attention/ops/triton_unified_attention.py":234:14)
#loc86 = loc("/root/miniconda3/envs/flagscale-inference/lib/python3.12/site-packages/vllm/attention/ops/triton_unified_attention.py":235:14)
#loc87 = loc("/root/miniconda3/envs/flagscale-inference/lib/python3.12/site-packages/vllm/attention/ops/triton_unified_attention.py":236:28)
#loc88 = loc("/root/miniconda3/envs/flagscale-inference/lib/python3.12/site-packages/vllm/attention/ops/triton_unified_attention.py":236:40)
#loc89 = loc("/root/miniconda3/envs/flagscale-inference/lib/python3.12/site-packages/vllm/attention/ops/triton_unified_attention.py":236:51)
#loc90 = loc("/root/miniconda3/envs/flagscale-inference/lib/python3.12/site-packages/vllm/attention/ops/triton_unified_attention.py":236:14)
#loc91 = loc("/root/miniconda3/envs/flagscale-inference/lib/python3.12/site-packages/vllm/attention/ops/triton_unified_attention.py":240:31)
#loc92 = loc("/root/miniconda3/envs/flagscale-inference/lib/python3.12/site-packages/vllm/attention/ops/triton_unified_attention.py":240:42)
#loc93 = loc("/root/miniconda3/envs/flagscale-inference/lib/python3.12/site-packages/vllm/attention/ops/triton_unified_attention.py":241:28)
#loc94 = loc("/root/miniconda3/envs/flagscale-inference/lib/python3.12/site-packages/vllm/attention/ops/triton_unified_attention.py":241:14)
#loc95 = loc("/root/miniconda3/envs/flagscale-inference/lib/python3.12/site-packages/vllm/attention/ops/triton_unified_attention.py":242:21)
#loc96 = loc("/root/miniconda3/envs/flagscale-inference/lib/python3.12/site-packages/vllm/attention/ops/triton_unified_attention.py":242:14)
#loc97 = loc("/root/miniconda3/envs/flagscale-inference/lib/python3.12/site-packages/vllm/attention/ops/triton_unified_attention.py":243:40)
#loc98 = loc("/root/miniconda3/envs/flagscale-inference/lib/python3.12/site-packages/vllm/attention/ops/triton_unified_attention.py":243:51)
#loc99 = loc("/root/miniconda3/envs/flagscale-inference/lib/python3.12/site-packages/vllm/attention/ops/triton_unified_attention.py":243:14)
#loc100 = loc("/root/miniconda3/envs/flagscale-inference/lib/python3.12/site-packages/vllm/attention/ops/triton_unified_attention.py":249:26)
#loc101 = loc("/root/miniconda3/envs/flagscale-inference/lib/python3.12/site-packages/vllm/attention/ops/triton_unified_attention.py":249:47)
#loc102 = loc("/root/miniconda3/envs/flagscale-inference/lib/python3.12/site-packages/vllm/attention/ops/triton_unified_attention.py":249:37)
#loc103 = loc("/root/miniconda3/envs/flagscale-inference/lib/python3.12/site-packages/vllm/attention/ops/triton_unified_attention.py":248:28)
#loc104 = loc("/root/miniconda3/envs/flagscale-inference/lib/python3.12/site-packages/vllm/attention/ops/triton_unified_attention.py":248:12)
#loc105 = loc("/root/miniconda3/envs/flagscale-inference/lib/python3.12/site-packages/vllm/attention/ops/triton_unified_attention.py":264:47)
#loc106 = loc("/root/miniconda3/envs/flagscale-inference/lib/python3.12/site-packages/vllm/attention/ops/triton_unified_attention.py":264:37)
#loc107 = loc("/root/miniconda3/envs/flagscale-inference/lib/python3.12/site-packages/vllm/attention/ops/triton_unified_attention.py":263:30)
#loc108 = loc("/root/miniconda3/envs/flagscale-inference/lib/python3.12/site-packages/vllm/attention/ops/triton_unified_attention.py":263:12)
#loc109 = loc("/root/miniconda3/envs/flagscale-inference/lib/python3.12/site-packages/vllm/attention/ops/triton_unified_attention.py":277:48)
#loc110 = loc("/root/miniconda3/envs/flagscale-inference/lib/python3.12/site-packages/vllm/attention/ops/triton_unified_attention.py":277:38)
#loc111 = loc("/root/miniconda3/envs/flagscale-inference/lib/python3.12/site-packages/vllm/attention/ops/triton_unified_attention.py":278:30)
#loc112 = loc("/root/miniconda3/envs/flagscale-inference/lib/python3.12/site-packages/vllm/attention/ops/triton_unified_attention.py":278:42)
#loc113 = loc("/root/miniconda3/envs/flagscale-inference/lib/python3.12/site-packages/vllm/attention/ops/triton_unified_attention.py":312:31)
#loc114 = loc("/root/miniconda3/envs/flagscale-inference/lib/python3.12/site-packages/vllm/attention/ops/triton_unified_attention.py":312:21)
#loc115 = loc("/root/miniconda3/envs/flagscale-inference/lib/python3.12/site-packages/vllm/attention/ops/triton_unified_attention.py":312:13)
#loc116 = loc("/root/miniconda3/envs/flagscale-inference/lib/python3.12/site-packages/vllm/attention/ops/triton_unified_attention.py":318:36)
#loc117 = loc("/root/miniconda3/envs/flagscale-inference/lib/python3.12/site-packages/vllm/attention/ops/triton_unified_attention.py":318:60)
#loc118 = loc("/root/miniconda3/envs/flagscale-inference/lib/python3.12/site-packages/vllm/attention/ops/triton_unified_attention.py":318:73)
#loc119 = loc("/root/miniconda3/envs/flagscale-inference/lib/python3.12/site-packages/triton/language/standard.py":189:40)
#loc121 = loc("/root/miniconda3/envs/flagscale-inference/lib/python3.12/site-packages/triton/language/standard.py":168:27)
#loc122 = loc("/root/miniconda3/envs/flagscale-inference/lib/python3.12/site-packages/vllm/attention/ops/triton_unified_attention.py":338:28)
#loc123 = loc("/root/miniconda3/envs/flagscale-inference/lib/python3.12/site-packages/vllm/attention/ops/triton_unified_attention.py":342:29)
#loc124 = loc("/root/miniconda3/envs/flagscale-inference/lib/python3.12/site-packages/vllm/attention/ops/triton_unified_attention.py":342:49)
#loc125 = loc("/root/miniconda3/envs/flagscale-inference/lib/python3.12/site-packages/vllm/attention/ops/triton_unified_attention.py":345:27)
#loc126 = loc("/root/miniconda3/envs/flagscale-inference/lib/python3.12/site-packages/vllm/attention/ops/triton_unified_attention.py":345:23)
#loc127 = loc("/root/miniconda3/envs/flagscale-inference/lib/python3.12/site-packages/vllm/attention/ops/triton_unified_attention.py":345:19)
#loc128 = loc("/root/miniconda3/envs/flagscale-inference/lib/python3.12/site-packages/triton/language/standard.py":291:36)
#loc130 = loc("/root/miniconda3/envs/flagscale-inference/lib/python3.12/site-packages/triton/language/standard.py":261:15)
#loc131 = loc("/root/miniconda3/envs/flagscale-inference/lib/python3.12/site-packages/vllm/attention/ops/triton_unified_attention.py":351:27)
#loc132 = loc("/root/miniconda3/envs/flagscale-inference/lib/python3.12/site-packages/vllm/attention/ops/triton_unified_attention.py":351:23)
#loc133 = loc("/root/miniconda3/envs/flagscale-inference/lib/python3.12/site-packages/vllm/attention/ops/triton_unified_attention.py":354:26)
#loc134 = loc("/root/miniconda3/envs/flagscale-inference/lib/python3.12/site-packages/vllm/attention/ops/triton_unified_attention.py":354:20)
#loc135 = loc("/root/miniconda3/envs/flagscale-inference/lib/python3.12/site-packages/vllm/attention/ops/triton_unified_attention.py":357:16)
#loc136 = loc("/root/miniconda3/envs/flagscale-inference/lib/python3.12/site-packages/vllm/attention/ops/triton_unified_attention.py":357:24)
#loc137 = loc("/root/miniconda3/envs/flagscale-inference/lib/python3.12/site-packages/vllm/attention/ops/triton_unified_attention.py":361:27)
#loc138 = loc("/root/miniconda3/envs/flagscale-inference/lib/python3.12/site-packages/vllm/attention/ops/triton_unified_attention.py":361:37)
#loc139 = loc("/root/miniconda3/envs/flagscale-inference/lib/python3.12/site-packages/vllm/attention/ops/triton_unified_attention.py":361:8)
#loc140 = loc("/root/miniconda3/envs/flagscale-inference/lib/python3.12/site-packages/vllm/attention/ops/triton_unified_attention.py":364:18)
#loc141 = loc("/root/miniconda3/envs/flagscale-inference/lib/python3.12/site-packages/vllm/attention/ops/triton_unified_attention.py":364:16)
#loc142 = loc("/root/miniconda3/envs/flagscale-inference/lib/python3.12/site-packages/vllm/attention/ops/triton_unified_attention.py":370:34)
#loc143 = loc("/root/miniconda3/envs/flagscale-inference/lib/python3.12/site-packages/vllm/attention/ops/triton_unified_attention.py":371:36)
#loc144 = loc("/root/miniconda3/envs/flagscale-inference/lib/python3.12/site-packages/vllm/attention/ops/triton_unified_attention.py":371:10)
#loc145 = loc("/root/miniconda3/envs/flagscale-inference/lib/python3.12/site-packages/vllm/attention/ops/triton_unified_attention.py":372:10)
#loc146 = loc("/root/miniconda3/envs/flagscale-inference/lib/python3.12/site-packages/vllm/attention/ops/triton_unified_attention.py":376:21)
#loc147 = loc("/root/miniconda3/envs/flagscale-inference/lib/python3.12/site-packages/vllm/attention/ops/triton_unified_attention.py":377:8)
#loc148 = loc("/root/miniconda3/envs/flagscale-inference/lib/python3.12/site-packages/vllm/attention/ops/triton_unified_attention.py":375:4)
#loc175 = loc("q_block_global_idx"(#loc3))
#loc176 = loc("kv_head_idx"(#loc4))
#loc177 = loc("left"(#loc5))
#loc180 = loc("mid"(#loc9))
#loc181 = loc("mid"(#loc10))
#loc182 = loc("val"(#loc11))
#loc183 = loc("val"(#loc12))
#loc184 = loc("mid_val"(#loc13))
#loc185 = loc("mid_val"(#loc14))
#loc186 = loc("left"(#loc17))
#loc187 = loc("q_block_start_idx"(#loc20))
#loc188 = loc("q_block_start_idx"(#loc21))
#loc189 = loc("q_block_start_idx"(#loc22))
#loc190 = loc("q_block_start_idx"(#loc23))
#loc191 = loc("q_block_local_idx"(#loc24))
#loc192 = loc("cur_batch_in_all_stop_index"(#loc25))
#loc193 = loc("cur_batch_in_all_stop_index"(#loc26))
#loc194 = loc("cur_batch_query_len"(#loc27))
#loc195 = loc("offs_m"(#loc31))
#loc196 = loc("offs_d"(#loc32))
#loc197 = loc("offs_t"(#loc33))
#loc198 = loc("query_pos"(#loc34))
#loc199 = loc("query_pos"(#loc35))
#loc200 = loc("query_offset_0"(#loc36))
#loc201 = loc("query_offset_1"(#loc37))
#loc202 = loc("query_offset_1"(#loc38))
#loc203 = loc("query_offset_1"(#loc39))
#loc204 = loc("query_offset"(#loc40))
#loc205 = loc("query_offset"(#loc41))
#loc206 = loc("query_offset"(#loc42))
#loc207 = loc("query_offset"(#loc43))
#loc208 = loc("query_offset"(#loc44))
#loc209 = loc("query_offset"(#loc45))
#loc210 = loc("query_offset"(#loc46))
#loc211 = loc("dim_mask"(#loc47))
#loc212 = loc("dim_mask"(#loc48))
#loc213 = loc("dim_mask"(#loc49))
#loc214 = loc("query_mask_0"(#loc50))
#loc215 = loc("query_mask_0"(#loc51))
#loc216 = loc("query_mask_0"(#loc52))
#loc217 = loc("query_mask_1"(#loc53))
#loc218 = loc("query_mask_1"(#loc54))
#loc219 = loc("query_mask_1"(#loc55))
#loc220 = loc("Q"(#loc56))
#loc221 = loc("Q"(#loc57))
#loc222 = loc("Q"(#loc58))
#loc223 = loc("Q"(#loc59))
#loc224 = loc("Q"(#loc60))
#loc225 = loc("Q"(#loc61))
#loc226 = loc("Q"(#loc62))
#loc227 = loc("block_table_offset"(#loc63))
#loc228 = loc("seq_len"(#loc64))
#loc229 = loc("seq_len"(#loc65))
#loc230 = loc("context_len"(#loc66))
#loc231 = loc("max_seq_prefix_len"(#loc67))
#loc232 = loc("max_seq_prefix_len"(#loc68))
#loc233 = loc("max_seq_prefix_len"(#loc69))
#loc234 = loc("num_tiles"(#loc71))
#loc235 = loc("M"(#loc73))
#loc236 = loc("seq_offset"(#loc74))
#loc237 = loc("seq_offset"(#loc75))
#loc238 = loc("tile_mask"(#loc76))
#loc239 = loc("physical_block_idx"(#loc77))
#loc240 = loc("physical_block_idx"(#loc78))
#loc241 = loc("physical_block_idx"(#loc79))
#loc242 = loc("physical_block_idx"(#loc80))
#loc243 = loc("physical_block_idx"(#loc81))
#loc244 = loc("v_offset"(#loc82))
#loc245 = loc("v_offset"(#loc83))
#loc246 = loc("v_offset"(#loc84))
#loc247 = loc("v_offset"(#loc85))
#loc248 = loc("v_offset"(#loc86))
#loc249 = loc("v_offset"(#loc87))
#loc250 = loc("v_offset"(#loc88))
#loc251 = loc("v_offset"(#loc89))
#loc252 = loc("v_offset"(#loc90))
#loc253 = loc("k_offset"(#loc91))
#loc254 = loc("k_offset"(#loc92))
#loc255 = loc("k_offset"(#loc93))
#loc256 = loc("k_offset"(#loc94))
#loc257 = loc("k_offset"(#loc95))
#loc258 = loc("k_offset"(#loc96))
#loc259 = loc("k_offset"(#loc97))
#loc260 = loc("k_offset"(#loc98))
#loc261 = loc("k_offset"(#loc99))
#loc262 = loc("K_load"(#loc100))
#loc263 = loc("K_load"(#loc101))
#loc264 = loc("K_load"(#loc102))
#loc265 = loc("K_load"(#loc103))
#loc266 = loc("K_load"(#loc104))
#loc267 = loc("V_load"(#loc105))
#loc268 = loc("V_load"(#loc106))
#loc269 = loc("V_load"(#loc107))
#loc270 = loc("V_load"(#loc108))
#loc271 = loc("query_abs_pos"(#loc109))
#loc272 = loc("query_abs_pos"(#loc110))
#loc273 = loc("seq_mask"(#loc111))
#loc274 = loc("seq_mask"(#loc112))
#loc275 = loc("S"(#loc113))
#loc276 = loc("S"(#loc114))
#loc277 = loc("S"(#loc115))
#loc278 = loc("S"(#loc116))
#loc279 = loc("S"(#loc117))
#loc280 = loc("S"(#loc118))
#loc282 = loc("m_j"(#loc122))
#loc283 = loc("m_j"(#loc123))
#loc284 = loc("m_j"(#loc124))
#loc285 = loc("P"(#loc125))
#loc286 = loc("P"(#loc126))
#loc287 = loc("P"(#loc127))
#loc289 = loc("alpha"(#loc131))
#loc290 = loc("alpha"(#loc132))
#loc291 = loc("acc"(#loc133))
#loc292 = loc("acc"(#loc134))
#loc293 = loc("L"(#loc135))
#loc294 = loc("L"(#loc136))
#loc295 = loc("acc"(#loc137))
#loc296 = loc("acc"(#loc138))
#loc297 = loc("acc"(#loc140))
#loc298 = loc("acc"(#loc141))
#loc299 = loc("output_offset"(#loc142))
#loc300 = loc("output_offset"(#loc143))
#loc301 = loc("output_offset"(#loc144))
#loc302 = loc("output_offset"(#loc145))
#loc303 = loc(callsite(#loc1 at #loc174))
#loc304 = loc("right"(#loc177))
#loc305 = loc(callsite(#loc6 at #loc174))
#loc308 = loc(callsite(#loc180 at #loc174))
#loc309 = loc("right"(#loc181))
#loc310 = loc(callsite(#loc182 at #loc174))
#loc311 = loc(callsite(#loc183 at #loc174))
#loc312 = loc(callsite(#loc184 at #loc174))
#loc313 = loc(callsite(#loc185 at #loc174))
#loc314 = loc(callsite(#loc15 at #loc174))
#loc315 = loc(callsite(#loc16 at #loc174))
#loc316 = loc("left"(#loc186))
#loc317 = loc(callsite(#loc18 at #loc174))
#loc318 = loc(callsite(#loc19 at #loc174))
#loc319 = loc(callsite(#loc70 at #loc234))
#loc320 = loc(callsite(#loc72 at #loc234))
#loc321 = loc("L"(#loc235))
#loc322 = loc(callsite(#loc119 at #loc281))
#loc324 = loc(callsite(#loc128 at #loc288))
#loc326 = loc(callsite(#loc304 at #loc174))
#loc327 = loc(callsite(#loc309 at #loc174))
#loc328 = loc(callsite(#loc316 at #loc174))
#loc329 = loc("acc"(#loc321))
#loc330 = loc(callsite(#loc121 at #loc322))
#loc331 = loc(callsite(#loc130 at #loc324))
