#loc = loc("/root/miniconda3/envs/flagscale-inference/lib/python3.12/site-packages/flag_gems/ops/cumsum.py":327:0)
#loc15 = loc("/root/miniconda3/envs/flagscale-inference/lib/python3.12/site-packages/triton/language/standard.py":332:0)
#loc17 = loc(unknown)
#loc20 = loc("/root/miniconda3/envs/flagscale-inference/lib/python3.12/site-packages/triton/language/standard.py":260:0)
#loc24 = loc("in_ptr"(#loc))
#loc25 = loc("out_ptr"(#loc))
#loc26 = loc("N"(#loc))
#loc36 = loc("input"(#loc15))
#loc37 = loc("a"(#loc20))
#loc38 = loc("b"(#loc20))
module {
  tt.func public @reduce_then_scan_root_scan_kernel_row(%in_ptr: !tt.ptr<f32> {tt.divisibility = 16 : i32} loc("in_ptr"(#loc)), %out_ptr: !tt.ptr<f32> {tt.divisibility = 16 : i32} loc("out_ptr"(#loc)), %N: i32 loc("N"(#loc))) attributes {noinline = false} {
    %pid = tt.get_program_id x : i32 loc(#loc27)
    %pid_0 = arith.extsi %pid : i32 to i64 loc(#loc28)
    %offsets = tt.make_range {end = 64 : i32, start = 0 : i32} : tensor<64xi32> loc(#loc29)
    %mask = tt.splat %N : i32 -> tensor<64xi32> loc(#loc30)
    %mask_1 = arith.cmpi slt, %offsets, %mask : tensor<64xi32> loc(#loc30)
    %x = arith.extsi %N : i32 to i64 loc(#loc31)
    %x_2 = arith.muli %pid_0, %x : i64 loc(#loc31)
    %x_3 = tt.addptr %in_ptr, %x_2 : !tt.ptr<f32>, i64 loc(#loc32)
    %x_4 = tt.splat %x_3 : !tt.ptr<f32> -> tensor<64x!tt.ptr<f32>> loc(#loc33)
    %x_5 = tt.addptr %x_4, %offsets : tensor<64x!tt.ptr<f32>>, tensor<64xi32> loc(#loc33)
    %x_6 = arith.constant 0 : i32 loc(#loc34)
    %x_7 = arith.constant dense<0> : tensor<64xi32> loc(#loc34)
    %x_8 = arith.sitofp %x_7 : tensor<64xi32> to tensor<64xf32> loc(#loc34)
    %x_9 = tt.load %x_5, %mask_1, %x_8 : tensor<64x!tt.ptr<f32>> loc(#loc34)
    %out = tt.call @"triton.language.standard.cumsum__fp32S64S__(1,)cconstexpr_0__(2,)cconstexpr_False__(3,)cNone"(%x_9) : (tensor<64xf32>) -> tensor<64xf32> loc(#loc35)
    %0 = arith.extsi %N : i32 to i64 loc(#loc10)
    %1 = arith.muli %pid_0, %0 : i64 loc(#loc10)
    %2 = tt.addptr %out_ptr, %1 : !tt.ptr<f32>, i64 loc(#loc11)
    %3 = tt.splat %2 : !tt.ptr<f32> -> tensor<64x!tt.ptr<f32>> loc(#loc12)
    %4 = tt.addptr %3, %offsets : tensor<64x!tt.ptr<f32>>, tensor<64xi32> loc(#loc12)
    tt.store %4, %out, %mask_1 : tensor<64x!tt.ptr<f32>> loc(#loc13)
    tt.return loc(#loc14)
  } loc(#loc)
  tt.func private @"triton.language.standard.cumsum__fp32S64S__(1,)cconstexpr_0__(2,)cconstexpr_False__(3,)cNone"(%input: tensor<64xf32> loc("input"(#loc15))) -> tensor<64xf32> attributes {noinline = false} {
    %0 = "tt.scan"(%input) <{axis = 0 : i32, reverse = false}> ({
    ^bb0(%arg1: f32 loc(unknown), %arg2: f32 loc(unknown)):
      %2 = tt.call @triton.language.standard._sum_combine__fp32_fp32__(%arg1, %arg2) : (f32, f32) -> f32 loc(#loc16)
      tt.scan.return %2 : f32 loc(#loc16)
    }) : (tensor<64xf32>) -> tensor<64xf32> loc(#loc16)
    tt.return %0 : tensor<64xf32> loc(#loc18)
  ^bb1:  // no predecessors
    %1 = ub.poison : tensor<64xf32> loc(#loc19)
    tt.return %1 : tensor<64xf32> loc(#loc19)
  } loc(#loc15)
  tt.func private @triton.language.standard._sum_combine__fp32_fp32__(%a: f32 loc("a"(#loc20)), %b: f32 loc("b"(#loc20))) -> f32 attributes {noinline = false} {
    %0 = arith.addf %a, %b : f32 loc(#loc21)
    tt.return %0 : f32 loc(#loc22)
  ^bb1:  // no predecessors
    %1 = ub.poison : f32 loc(#loc23)
    tt.return %1 : f32 loc(#loc23)
  } loc(#loc20)
} loc(#loc)
#loc1 = loc("/root/miniconda3/envs/flagscale-inference/lib/python3.12/site-packages/flag_gems/ops/cumsum.py":329:24)
#loc2 = loc("/root/miniconda3/envs/flagscale-inference/lib/python3.12/site-packages/flag_gems/ops/cumsum.py":329:30)
#loc3 = loc("/root/miniconda3/envs/flagscale-inference/lib/python3.12/site-packages/flag_gems/ops/cumsum.py":330:27)
#loc4 = loc("/root/miniconda3/envs/flagscale-inference/lib/python3.12/site-packages/flag_gems/ops/cumsum.py":331:21)
#loc5 = loc("/root/miniconda3/envs/flagscale-inference/lib/python3.12/site-packages/flag_gems/ops/cumsum.py":333:31)
#loc6 = loc("/root/miniconda3/envs/flagscale-inference/lib/python3.12/site-packages/flag_gems/ops/cumsum.py":333:25)
#loc7 = loc("/root/miniconda3/envs/flagscale-inference/lib/python3.12/site-packages/flag_gems/ops/cumsum.py":333:35)
#loc8 = loc("/root/miniconda3/envs/flagscale-inference/lib/python3.12/site-packages/flag_gems/ops/cumsum.py":333:16)
#loc9 = loc("/root/miniconda3/envs/flagscale-inference/lib/python3.12/site-packages/flag_gems/ops/cumsum.py":334:23)
#loc10 = loc("/root/miniconda3/envs/flagscale-inference/lib/python3.12/site-packages/flag_gems/ops/cumsum.py":335:29)
#loc11 = loc("/root/miniconda3/envs/flagscale-inference/lib/python3.12/site-packages/flag_gems/ops/cumsum.py":335:23)
#loc12 = loc("/root/miniconda3/envs/flagscale-inference/lib/python3.12/site-packages/flag_gems/ops/cumsum.py":335:33)
#loc13 = loc("/root/miniconda3/envs/flagscale-inference/lib/python3.12/site-packages/flag_gems/ops/cumsum.py":335:42)
#loc14 = loc("/root/miniconda3/envs/flagscale-inference/lib/python3.12/site-packages/flag_gems/ops/cumsum.py":335:4)
#loc16 = loc("/root/miniconda3/envs/flagscale-inference/lib/python3.12/site-packages/triton/language/standard.py":341:60)
#loc18 = loc("/root/miniconda3/envs/flagscale-inference/lib/python3.12/site-packages/triton/language/standard.py":341:11)
#loc19 = loc("/root/miniconda3/envs/flagscale-inference/lib/python3.12/site-packages/triton/language/standard.py":341:4)
#loc21 = loc("/root/miniconda3/envs/flagscale-inference/lib/python3.12/site-packages/triton/language/standard.py":261:15)
#loc22 = loc("/root/miniconda3/envs/flagscale-inference/lib/python3.12/site-packages/triton/language/standard.py":261:11)
#loc23 = loc("/root/miniconda3/envs/flagscale-inference/lib/python3.12/site-packages/triton/language/standard.py":261:4)
#loc27 = loc("pid"(#loc1))
#loc28 = loc("pid"(#loc2))
#loc29 = loc("offsets"(#loc3))
#loc30 = loc("mask"(#loc4))
#loc31 = loc("x"(#loc5))
#loc32 = loc("x"(#loc6))
#loc33 = loc("x"(#loc7))
#loc34 = loc("x"(#loc8))
#loc35 = loc("out"(#loc9))
