#loc = loc("/root/.flaggems/code_cache/pointwise_dynamic_db884d13b83589e39b9e97530cb4dc00140be614ef7d83c8359509243a8f3bd1__to_copy_func_kernel_rank_1_bptr.py":61:0)
#loc19 = loc("in0_ptr"(#loc))
#loc20 = loc("out0_ptr"(#loc))
#loc21 = loc("in0_stride0"(#loc))
#loc22 = loc("out0_stride0"(#loc))
#loc23 = loc("s0"(#loc))
#loc24 = loc("num_tasks"(#loc))
#loc25 = loc("tiles_per_cta"(#loc))
module {
  tt.func public @_to_copy_func_kernel_rank_1(%in0_ptr: !tt.ptr<bf16> {tt.divisibility = 16 : i32} loc("in0_ptr"(#loc)), %out0_ptr: !tt.ptr<f32> {tt.divisibility = 16 : i32} loc("out0_ptr"(#loc)), %in0_stride0: i32 loc("in0_stride0"(#loc)), %out0_stride0: i32 loc("out0_stride0"(#loc)), %s0: i32 {tt.divisibility = 16 : i32} loc("s0"(#loc)), %num_tasks: i32 {tt.divisibility = 16 : i32} loc("num_tasks"(#loc)), %tiles_per_cta: i32 loc("tiles_per_cta"(#loc))) attributes {noinline = false} {
    %cst = arith.constant dense<0> : tensor<512xi64> loc(#loc1)
    %c1_i32 = arith.constant 1 : i32 loc(#loc2)
    %c0_i32 = arith.constant 0 : i32 loc(#loc2)
    %c512_i64 = arith.constant 512 : i64 loc(#loc1)
    %pid = tt.get_program_id x : i32 loc(#loc35)
    %pid_0 = arith.extsi %pid : i32 to i64 loc(#loc36)
    %num_ctas = tt.get_num_programs x : i32 loc(#loc37)
    %num_ctas_1 = arith.extsi %num_ctas : i32 to i64 loc(#loc38)
    scf.for %j = %c0_i32 to %tiles_per_cta step %c1_i32  : i32 {
      %tile_id = arith.extsi %j : i32 to i64 loc(#loc28)
      %tile_id_2 = arith.muli %tile_id, %num_ctas_1 : i64 loc(#loc28)
      %tile_id_3 = arith.addi %pid_0, %tile_id_2 : i64 loc(#loc29)
      %offset0 = arith.muli %tile_id_3, %c512_i64 : i64 loc(#loc30)
      %offset0_4 = arith.trunci %offset0 : i64 to i32 loc(#loc31)
      %in0_bptr = arith.extsi %s0 : i32 to i64 loc(#loc32)
      %in0_bptr_5 = arith.extsi %in0_stride0 : i32 to i64 loc(#loc32)
      %in0_bptr_6 = arith.extsi %offset0_4 : i32 to i64 loc(#loc32)
      %in0 = tt.splat %in0_ptr : !tt.ptr<bf16> -> tensor<512x!tt.ptr<bf16>> loc(#loc33)
      %in0_7 = tt.splat %in0_bptr_6 : i64 -> tensor<512xi64> loc(#loc33)
      %in0_8 = tt.make_range {end = 512 : i32, start = 0 : i32} : tensor<512xi32> loc(#loc33)
      %in0_9 = arith.extsi %in0_8 : tensor<512xi32> to tensor<512xi64> loc(#loc33)
      %in0_10 = arith.addi %in0_7, %in0_9 : tensor<512xi64> loc(#loc33)
      %in0_11 = tt.splat %in0_bptr_5 : i64 -> tensor<512xi64> loc(#loc33)
      %in0_12 = arith.muli %in0_10, %in0_11 : tensor<512xi64> loc(#loc33)
      %in0_13 = tt.addptr %in0, %in0_12 : tensor<512x!tt.ptr<bf16>>, tensor<512xi64> loc(#loc33)
      %in0_14 = arith.cmpi sge, %in0_10, %cst : tensor<512xi64> loc(#loc33)
      %in0_15 = tt.splat %in0_bptr : i64 -> tensor<512xi64> loc(#loc33)
      %in0_16 = arith.cmpi slt, %in0_10, %in0_15 : tensor<512xi64> loc(#loc33)
      %in0_17 = arith.andi %in0_14, %in0_16 : tensor<512xi1> loc(#loc33)
      %in0_18 = tt.load %in0_13, %in0_17 : tensor<512x!tt.ptr<bf16>> loc(#loc33)
      %out0_bptr = arith.extsi %out0_stride0 : i32 to i64 loc(#loc34)
      %0 = arith.extf %in0_18 : tensor<512xbf16> to tensor<512xf32> loc(#loc16)
      %1 = tt.splat %out0_ptr : !tt.ptr<f32> -> tensor<512x!tt.ptr<f32>> loc(#loc17)
      %2 = tt.splat %out0_bptr : i64 -> tensor<512xi64> loc(#loc17)
      %3 = arith.muli %in0_10, %2 : tensor<512xi64> loc(#loc17)
      %4 = tt.addptr %1, %3 : tensor<512x!tt.ptr<f32>>, tensor<512xi64> loc(#loc17)
      tt.store %4, %0, %in0_17 : tensor<512x!tt.ptr<f32>> loc(#loc17)
    } loc(#loc2)
    tt.return loc(#loc18)
  } loc(#loc)
} loc(#loc)
#loc1 = loc(unknown)
#loc2 = loc("/root/.flaggems/code_cache/pointwise_dynamic_db884d13b83589e39b9e97530cb4dc00140be614ef7d83c8359509243a8f3bd1__to_copy_func_kernel_rank_1_bptr.py":95:26)
#loc3 = loc("/root/miniconda3/envs/flagscale-inference/lib/python3.12/site-packages/flag_gems/utils/triton_lang_extension.py":24:25)
#loc4 = loc("/root/.flaggems/code_cache/pointwise_dynamic_db884d13b83589e39b9e97530cb4dc00140be614ef7d83c8359509243a8f3bd1__to_copy_func_kernel_rank_1_bptr.py":74:25)
#loc5 = loc("/root/miniconda3/envs/flagscale-inference/lib/python3.12/site-packages/flag_gems/utils/triton_lang_extension.py":24:34)
#loc6 = loc("/root/miniconda3/envs/flagscale-inference/lib/python3.12/site-packages/flag_gems/utils/triton_lang_extension.py":31:27)
#loc7 = loc("/root/.flaggems/code_cache/pointwise_dynamic_db884d13b83589e39b9e97530cb4dc00140be614ef7d83c8359509243a8f3bd1__to_copy_func_kernel_rank_1_bptr.py":94:36)
#loc8 = loc("/root/miniconda3/envs/flagscale-inference/lib/python3.12/site-packages/flag_gems/utils/triton_lang_extension.py":31:36)
#loc9 = loc("/root/.flaggems/code_cache/pointwise_dynamic_db884d13b83589e39b9e97530cb4dc00140be614ef7d83c8359509243a8f3bd1__to_copy_func_kernel_rank_1_bptr.py":96:32)
#loc10 = loc("/root/.flaggems/code_cache/pointwise_dynamic_db884d13b83589e39b9e97530cb4dc00140be614ef7d83c8359509243a8f3bd1__to_copy_func_kernel_rank_1_bptr.py":96:28)
#loc11 = loc("/root/.flaggems/code_cache/pointwise_dynamic_db884d13b83589e39b9e97530cb4dc00140be614ef7d83c8359509243a8f3bd1__to_copy_func_kernel_rank_1_bptr.py":101:34)
#loc12 = loc("/root/.flaggems/code_cache/pointwise_dynamic_db884d13b83589e39b9e97530cb4dc00140be614ef7d83c8359509243a8f3bd1__to_copy_func_kernel_rank_1_bptr.py":101:49)
#loc13 = loc("/root/.flaggems/code_cache/pointwise_dynamic_db884d13b83589e39b9e97530cb4dc00140be614ef7d83c8359509243a8f3bd1__to_copy_func_kernel_rank_1_bptr.py":103:85)
#loc14 = loc("/root/.flaggems/code_cache/pointwise_dynamic_db884d13b83589e39b9e97530cb4dc00140be614ef7d83c8359509243a8f3bd1__to_copy_func_kernel_rank_1_bptr.py":104:26)
#loc15 = loc("/root/.flaggems/code_cache/pointwise_dynamic_db884d13b83589e39b9e97530cb4dc00140be614ef7d83c8359509243a8f3bd1__to_copy_func_kernel_rank_1_bptr.py":110:88)
#loc16 = loc("/root/.flaggems/code_cache/pointwise_dynamic_db884d13b83589e39b9e97530cb4dc00140be614ef7d83c8359509243a8f3bd1__to_copy_func_kernel_rank_1_bptr.py":111:40)
#loc17 = loc("/root/.flaggems/code_cache/pointwise_dynamic_db884d13b83589e39b9e97530cb4dc00140be614ef7d83c8359509243a8f3bd1__to_copy_func_kernel_rank_1_bptr.py":111:32)
#loc18 = loc("/root/.flaggems/code_cache/pointwise_dynamic_db884d13b83589e39b9e97530cb4dc00140be614ef7d83c8359509243a8f3bd1__to_copy_func_kernel_rank_1_bptr.py":76:4)
#loc26 = loc("pid"(#loc4))
#loc27 = loc("num_ctas"(#loc7))
#loc28 = loc("tile_id"(#loc9))
#loc29 = loc("tile_id"(#loc10))
#loc30 = loc("offset0"(#loc11))
#loc31 = loc("offset0"(#loc12))
#loc32 = loc("in0_bptr"(#loc13))
#loc33 = loc("in0"(#loc14))
#loc34 = loc("out0_bptr"(#loc15))
#loc35 = loc(callsite(#loc3 at #loc26))
#loc36 = loc(callsite(#loc5 at #loc26))
#loc37 = loc(callsite(#loc6 at #loc27))
#loc38 = loc(callsite(#loc8 at #loc27))
