#loc = loc("/root/miniconda3/envs/flagscale-inference/lib/python3.12/site-packages/vllm/attention/ops/triton_unified_attention.py":383:0)
#loc19 = loc(unknown)
#loc179 = loc("/root/miniconda3/envs/flagscale-inference/lib/python3.12/site-packages/vllm/attention/ops/triton_unified_attention.py":34:0)
#loc183 = loc("left")
#loc184 = loc("right")
#loc198 = loc("/root/miniconda3/envs/flagscale-inference/lib/python3.12/site-packages/vllm/attention/ops/triton_unified_attention.py":21:0)
#loc208 = loc("/root/miniconda3/envs/flagscale-inference/lib/python3.12/site-packages/triton/language/standard.py":175:0)
#loc212 = loc("/root/miniconda3/envs/flagscale-inference/lib/python3.12/site-packages/triton/language/standard.py":167:0)
#loc216 = loc("/root/miniconda3/envs/flagscale-inference/lib/python3.12/site-packages/triton/language/standard.py":285:0)
#loc220 = loc("/root/miniconda3/envs/flagscale-inference/lib/python3.12/site-packages/triton/language/standard.py":260:0)
#loc224 = loc("segm_output_ptr"(#loc))
#loc225 = loc("segm_max_ptr"(#loc))
#loc226 = loc("segm_expsum_ptr"(#loc))
#loc227 = loc("query_ptr"(#loc))
#loc228 = loc("key_cache_ptr"(#loc))
#loc229 = loc("value_cache_ptr"(#loc))
#loc230 = loc("block_tables_ptr"(#loc))
#loc231 = loc("seq_lens_ptr"(#loc))
#loc232 = loc("scale"(#loc))
#loc233 = loc("k_scale"(#loc))
#loc234 = loc("v_scale"(#loc))
#loc235 = loc("softcap"(#loc))
#loc236 = loc("block_table_stride"(#loc))
#loc237 = loc("query_stride_0"(#loc))
#loc238 = loc("query_stride_1"(#loc))
#loc239 = loc("qq_bias_stride_0"(#loc))
#loc240 = loc("stride_k_cache_0"(#loc))
#loc241 = loc("stride_k_cache_1"(#loc))
#loc242 = loc("stride_k_cache_2"(#loc))
#loc243 = loc("stride_v_cache_0"(#loc))
#loc244 = loc("stride_v_cache_1"(#loc))
#loc245 = loc("stride_v_cache_2"(#loc))
#loc246 = loc("query_start_len_ptr"(#loc))
#loc247 = loc("num_seqs"(#loc))
#loc399 = loc("query_start_len_ptr"(#loc179))
#loc400 = loc("target_idx"(#loc179))
#loc401 = loc("num_seqs"(#loc179))
#loc404 = loc("left"(#loc183))
#loc405 = loc("right"(#loc184))
#loc413 = loc("x"(#loc198))
#loc414 = loc("y"(#loc198))
#loc415 = loc("input"(#loc208))
#loc416 = loc("a"(#loc212))
#loc417 = loc("b"(#loc212))
#loc418 = loc("input"(#loc216))
#loc419 = loc("a"(#loc220))
#loc420 = loc("b"(#loc220))
#loc422 = loc("right"(#loc401))
module {
  tt.func public @kernel_unified_attention_3d(%segm_output_ptr: !tt.ptr<f32> {tt.divisibility = 16 : i32} loc("segm_output_ptr"(#loc)), %segm_max_ptr: !tt.ptr<f32> {tt.divisibility = 16 : i32} loc("segm_max_ptr"(#loc)), %segm_expsum_ptr: !tt.ptr<f32> {tt.divisibility = 16 : i32} loc("segm_expsum_ptr"(#loc)), %query_ptr: !tt.ptr<bf16> {tt.divisibility = 16 : i32} loc("query_ptr"(#loc)), %key_cache_ptr: !tt.ptr<bf16> {tt.divisibility = 16 : i32} loc("key_cache_ptr"(#loc)), %value_cache_ptr: !tt.ptr<bf16> {tt.divisibility = 16 : i32} loc("value_cache_ptr"(#loc)), %block_tables_ptr: !tt.ptr<i32> {tt.divisibility = 16 : i32} loc("block_tables_ptr"(#loc)), %seq_lens_ptr: !tt.ptr<i32> {tt.divisibility = 16 : i32} loc("seq_lens_ptr"(#loc)), %scale: f32 loc("scale"(#loc)), %k_scale: !tt.ptr<f32> {tt.divisibility = 16 : i32} loc("k_scale"(#loc)), %v_scale: !tt.ptr<f32> {tt.divisibility = 16 : i32} loc("v_scale"(#loc)), %softcap: i32 {tt.divisibility = 16 : i32} loc("softcap"(#loc)), %block_table_stride: i64 {tt.divisibility = 16 : i32} loc("block_table_stride"(#loc)), %query_stride_0: i64 {tt.divisibility = 16 : i32} loc("query_stride_0"(#loc)), %query_stride_1: i64 {tt.divisibility = 16 : i32} loc("query_stride_1"(#loc)), %qq_bias_stride_0: i64 {tt.divisibility = 16 : i32} loc("qq_bias_stride_0"(#loc)), %stride_k_cache_0: i64 {tt.divisibility = 16 : i32} loc("stride_k_cache_0"(#loc)), %stride_k_cache_1: i64 {tt.divisibility = 16 : i32} loc("stride_k_cache_1"(#loc)), %stride_k_cache_2: i64 {tt.divisibility = 16 : i32} loc("stride_k_cache_2"(#loc)), %stride_v_cache_0: i64 {tt.divisibility = 16 : i32} loc("stride_v_cache_0"(#loc)), %stride_v_cache_1: i64 {tt.divisibility = 16 : i32} loc("stride_v_cache_1"(#loc)), %stride_v_cache_2: i64 {tt.divisibility = 16 : i32} loc("stride_v_cache_2"(#loc)), %query_start_len_ptr: !tt.ptr<i32> {tt.divisibility = 16 : i32} loc("query_start_len_ptr"(#loc)), %num_seqs: i32 loc("num_seqs"(#loc))) attributes {noinline = false} {
    %q_block_global_idx = tt.get_program_id x : i32 loc(#loc248)
    %kv_head_idx = tt.get_program_id y : i32 loc(#loc249)
    %segm_idx = tt.get_program_id z : i32 loc(#loc250)
    %seq_idx = tt.call @"vllm.attention.ops.triton_unified_attention.find_seq_idx__Pi32_i32_i32__(3,)cconstexpr_3__(4,)cconstexpr_True_"(%query_start_len_ptr, %q_block_global_idx, %num_seqs) : (!tt.ptr<i32>, i32, i32) -> i32 loc(#loc251)
    %q_block_start_idx = tt.addptr %query_start_len_ptr, %seq_idx : !tt.ptr<i32>, i32 loc(#loc252)
    %q_block_start_idx_0 = tt.load %q_block_start_idx : !tt.ptr<i32> loc(#loc253)
    %q_block_start_idx_1 = arith.constant 3 : i32 loc(#loc254)
    %q_block_start_idx_2 = arith.constant 3 : i32 loc(#loc254)
    %q_block_start_idx_3 = arith.divsi %q_block_start_idx_0, %q_block_start_idx_2 : i32 loc(#loc254)
    %q_block_start_idx_4 = arith.extsi %q_block_start_idx_3 : i32 to i64 loc(#loc255)
    %q_block_start_idx_5 = arith.extsi %seq_idx : i32 to i64 loc(#loc255)
    %q_block_start_idx_6 = arith.addi %q_block_start_idx_4, %q_block_start_idx_5 : i64 loc(#loc255)
    %q_block_start_idx_7 = arith.constant 2147483647 : i64 loc(#loc255)
    %q_block_start_idx_8 = arith.constant -2147483648 : i64 loc(#loc255)
    %q_block_start_idx_9 = arith.cmpi sle, %q_block_start_idx_6, %q_block_start_idx_7 : i64 loc(#loc255)
    %q_block_start_idx_10 = arith.cmpi sge, %q_block_start_idx_6, %q_block_start_idx_8 : i64 loc(#loc255)
    %q_block_start_idx_11 = arith.andi %q_block_start_idx_9, %q_block_start_idx_10 : i1 loc(#loc255)
    %q_block_start_idx_12 = arith.addi %q_block_start_idx_3, %seq_idx : i32 loc(#loc255)
    %q_block_local_idx = arith.extsi %q_block_global_idx : i32 to i64 loc(#loc256)
    %q_block_local_idx_13 = arith.extsi %q_block_start_idx_12 : i32 to i64 loc(#loc256)
    %q_block_local_idx_14 = arith.subi %q_block_local_idx, %q_block_local_idx_13 : i64 loc(#loc256)
    %q_block_local_idx_15 = arith.constant 2147483647 : i64 loc(#loc256)
    %q_block_local_idx_16 = arith.constant -2147483648 : i64 loc(#loc256)
    %q_block_local_idx_17 = arith.cmpi sle, %q_block_local_idx_14, %q_block_local_idx_15 : i64 loc(#loc256)
    %q_block_local_idx_18 = arith.cmpi sge, %q_block_local_idx_14, %q_block_local_idx_16 : i64 loc(#loc256)
    %q_block_local_idx_19 = arith.andi %q_block_local_idx_17, %q_block_local_idx_18 : i1 loc(#loc256)
    %q_block_local_idx_20 = arith.subi %q_block_global_idx, %q_block_start_idx_12 : i32 loc(#loc256)
    %cur_batch_in_all_start_index = tt.addptr %query_start_len_ptr, %seq_idx : !tt.ptr<i32>, i32 loc(#loc257)
    %cur_batch_in_all_start_index_21 = tt.load %cur_batch_in_all_start_index : !tt.ptr<i32> loc(#loc258)
    %cur_batch_in_all_stop_index = tt.addptr %query_start_len_ptr, %seq_idx : !tt.ptr<i32>, i32 loc(#loc259)
    %cur_batch_in_all_stop_index_22 = arith.constant 1 : i32 loc(#loc260)
    %cur_batch_in_all_stop_index_23 = tt.addptr %cur_batch_in_all_stop_index, %cur_batch_in_all_stop_index_22 : !tt.ptr<i32>, i32 loc(#loc260)
    %cur_batch_in_all_stop_index_24 = tt.load %cur_batch_in_all_stop_index_23 : !tt.ptr<i32> loc(#loc261)
    %cur_batch_query_len = arith.extsi %cur_batch_in_all_stop_index_24 : i32 to i64 loc(#loc262)
    %cur_batch_query_len_25 = arith.extsi %cur_batch_in_all_start_index_21 : i32 to i64 loc(#loc262)
    %cur_batch_query_len_26 = arith.subi %cur_batch_query_len, %cur_batch_query_len_25 : i64 loc(#loc262)
    %cur_batch_query_len_27 = arith.constant 2147483647 : i64 loc(#loc262)
    %cur_batch_query_len_28 = arith.constant -2147483648 : i64 loc(#loc262)
    %cur_batch_query_len_29 = arith.cmpi sle, %cur_batch_query_len_26, %cur_batch_query_len_27 : i64 loc(#loc262)
    %cur_batch_query_len_30 = arith.cmpi sge, %cur_batch_query_len_26, %cur_batch_query_len_28 : i64 loc(#loc262)
    %cur_batch_query_len_31 = arith.andi %cur_batch_query_len_29, %cur_batch_query_len_30 : i1 loc(#loc262)
    %cur_batch_query_len_32 = arith.subi %cur_batch_in_all_stop_index_24, %cur_batch_in_all_start_index_21 : i32 loc(#loc262)
    %c3_i32 = arith.constant 3 : i32 loc(#loc16)
    %c3_i32_33 = arith.constant 3 : i32 loc(#loc16)
    %0 = arith.extsi %q_block_local_idx_20 : i32 to i64 loc(#loc16)
    %1 = arith.extsi %c3_i32_33 : i32 to i64 loc(#loc16)
    %2 = arith.muli %0, %1 : i64 loc(#loc16)
    %c2147483647_i64 = arith.constant 2147483647 : i64 loc(#loc16)
    %c-2147483648_i64 = arith.constant -2147483648 : i64 loc(#loc16)
    %3 = arith.cmpi sle, %2, %c2147483647_i64 : i64 loc(#loc16)
    %4 = arith.cmpi sge, %2, %c-2147483648_i64 : i64 loc(#loc16)
    %5 = arith.andi %3, %4 : i1 loc(#loc16)
    %6 = arith.muli %q_block_local_idx_20, %c3_i32_33 : i32 loc(#loc16)
    %7 = arith.cmpi sge, %6, %cur_batch_query_len_32 : i32 loc(#loc17)
    cf.cond_br %7, ^bb1, ^bb2 loc(#loc17)
  ^bb1:  // pred: ^bb0
    tt.return loc(#loc18)
  ^bb2:  // pred: ^bb0
    cf.br ^bb4 loc(#loc19)
  ^bb3:  // no predecessors
    cf.br ^bb4 loc(#loc19)
  ^bb4:  // 2 preds: ^bb2, ^bb3
    %seq_len = tt.addptr %seq_lens_ptr, %seq_idx : !tt.ptr<i32>, i32 loc(#loc263)
    %seq_len_34 = tt.load %seq_len : !tt.ptr<i32> loc(#loc264)
    %num_segments = arith.constant 16 : i32 loc(#loc265)
    %tiles_per_segment = arith.constant 16 : i32 loc(#loc266)
    %tiles_per_segment_35 = arith.constant 16 : i32 loc(#loc266)
    %tiles_per_segment_36 = arith.extsi %num_segments : i32 to i64 loc(#loc266)
    %tiles_per_segment_37 = arith.extsi %tiles_per_segment_35 : i32 to i64 loc(#loc266)
    %tiles_per_segment_38 = arith.muli %tiles_per_segment_36, %tiles_per_segment_37 : i64 loc(#loc266)
    %tiles_per_segment_39 = arith.constant 2147483647 : i64 loc(#loc266)
    %tiles_per_segment_40 = arith.constant -2147483648 : i64 loc(#loc266)
    %tiles_per_segment_41 = arith.cmpi sle, %tiles_per_segment_38, %tiles_per_segment_39 : i64 loc(#loc266)
    %tiles_per_segment_42 = arith.cmpi sge, %tiles_per_segment_38, %tiles_per_segment_40 : i64 loc(#loc266)
    %tiles_per_segment_43 = arith.andi %tiles_per_segment_41, %tiles_per_segment_42 : i1 loc(#loc266)
    %tiles_per_segment_44 = arith.muli %num_segments, %tiles_per_segment_35 : i32 loc(#loc266)
    %tiles_per_segment_45 = tt.call @vllm.attention.ops.triton_unified_attention.cdiv_fn__i32_i32__(%seq_len_34, %tiles_per_segment_44) : (i32, i32) -> i32 loc(#loc267)
    %8 = arith.extsi %segm_idx : i32 to i64 loc(#loc25)
    %9 = arith.extsi %tiles_per_segment_45 : i32 to i64 loc(#loc25)
    %10 = arith.muli %8, %9 : i64 loc(#loc25)
    %c2147483647_i64_46 = arith.constant 2147483647 : i64 loc(#loc25)
    %c-2147483648_i64_47 = arith.constant -2147483648 : i64 loc(#loc25)
    %11 = arith.cmpi sle, %10, %c2147483647_i64_46 : i64 loc(#loc25)
    %12 = arith.cmpi sge, %10, %c-2147483648_i64_47 : i64 loc(#loc25)
    %13 = arith.andi %11, %12 : i1 loc(#loc25)
    %14 = arith.muli %segm_idx, %tiles_per_segment_45 : i32 loc(#loc25)
    %c16_i32 = arith.constant 16 : i32 loc(#loc26)
    %c16_i32_48 = arith.constant 16 : i32 loc(#loc26)
    %15 = arith.extsi %14 : i32 to i64 loc(#loc26)
    %16 = arith.extsi %c16_i32_48 : i32 to i64 loc(#loc26)
    %17 = arith.muli %15, %16 : i64 loc(#loc26)
    %c2147483647_i64_49 = arith.constant 2147483647 : i64 loc(#loc26)
    %c-2147483648_i64_50 = arith.constant -2147483648 : i64 loc(#loc26)
    %18 = arith.cmpi sle, %17, %c2147483647_i64_49 : i64 loc(#loc26)
    %19 = arith.cmpi sge, %17, %c-2147483648_i64_50 : i64 loc(#loc26)
    %20 = arith.andi %18, %19 : i1 loc(#loc26)
    %21 = arith.muli %14, %c16_i32_48 : i32 loc(#loc26)
    %22 = arith.cmpi sge, %21, %seq_len_34 : i32 loc(#loc27)
    cf.cond_br %22, ^bb5, ^bb6 loc(#loc27)
  ^bb5:  // pred: ^bb4
    tt.return loc(#loc28)
  ^bb6:  // pred: ^bb4
    cf.br ^bb8 loc(#loc19)
  ^bb7:  // no predecessors
    cf.br ^bb8 loc(#loc19)
  ^bb8:  // 2 preds: ^bb6, ^bb7
    %offs_m = tt.make_range {end = 16 : i32, start = 0 : i32} : tensor<16xi32> loc(#loc268)
    %offs_d = tt.make_range {end = 128 : i32, start = 0 : i32} : tensor<128xi32> loc(#loc269)
    %offs_t = tt.make_range {end = 16 : i32, start = 0 : i32} : tensor<16xi32> loc(#loc270)
    %query_pos = arith.constant 3 : i32 loc(#loc271)
    %query_pos_51 = arith.constant 3 : i32 loc(#loc271)
    %query_pos_52 = arith.extsi %q_block_local_idx_20 : i32 to i64 loc(#loc271)
    %query_pos_53 = arith.extsi %query_pos_51 : i32 to i64 loc(#loc271)
    %query_pos_54 = arith.muli %query_pos_52, %query_pos_53 : i64 loc(#loc271)
    %query_pos_55 = arith.constant 2147483647 : i64 loc(#loc271)
    %query_pos_56 = arith.constant -2147483648 : i64 loc(#loc271)
    %query_pos_57 = arith.cmpi sle, %query_pos_54, %query_pos_55 : i64 loc(#loc271)
    %query_pos_58 = arith.cmpi sge, %query_pos_54, %query_pos_56 : i64 loc(#loc271)
    %query_pos_59 = arith.andi %query_pos_57, %query_pos_58 : i1 loc(#loc271)
    %query_pos_60 = arith.muli %q_block_local_idx_20, %query_pos_51 : i32 loc(#loc271)
    %query_pos_61 = arith.constant 5 : i32 loc(#loc272)
    %query_pos_62 = arith.constant 5 : i32 loc(#loc272)
    %query_pos_63 = arith.constant dense<5> : tensor<16xi32> loc(#loc272)
    %query_pos_64 = arith.divsi %offs_m, %query_pos_63 : tensor<16xi32> loc(#loc272)
    %query_pos_65 = tt.splat %query_pos_60 : i32 -> tensor<16xi32> loc(#loc273)
    %query_pos_66 = arith.extsi %query_pos_65 : tensor<16xi32> to tensor<16xi64> loc(#loc273)
    %query_pos_67 = arith.extsi %query_pos_64 : tensor<16xi32> to tensor<16xi64> loc(#loc273)
    %query_pos_68 = arith.addi %query_pos_66, %query_pos_67 : tensor<16xi64> loc(#loc273)
    %query_pos_69 = arith.constant 2147483647 : i64 loc(#loc273)
    %query_pos_70 = arith.constant -2147483648 : i64 loc(#loc273)
    %query_pos_71 = arith.constant dense<2147483647> : tensor<16xi64> loc(#loc273)
    %query_pos_72 = arith.cmpi sle, %query_pos_68, %query_pos_71 : tensor<16xi64> loc(#loc273)
    %query_pos_73 = arith.constant dense<-2147483648> : tensor<16xi64> loc(#loc273)
    %query_pos_74 = arith.cmpi sge, %query_pos_68, %query_pos_73 : tensor<16xi64> loc(#loc273)
    %query_pos_75 = arith.andi %query_pos_72, %query_pos_74 : tensor<16xi1> loc(#loc273)
    %query_pos_76 = arith.addi %query_pos_65, %query_pos_64 : tensor<16xi32> loc(#loc273)
    %query_offset_0 = tt.splat %cur_batch_in_all_start_index_21 : i32 -> tensor<16xi32> loc(#loc274)
    %query_offset_0_77 = arith.extsi %query_offset_0 : tensor<16xi32> to tensor<16xi64> loc(#loc274)
    %query_offset_0_78 = arith.extsi %query_pos_76 : tensor<16xi32> to tensor<16xi64> loc(#loc274)
    %query_offset_0_79 = arith.addi %query_offset_0_77, %query_offset_0_78 : tensor<16xi64> loc(#loc274)
    %query_offset_0_80 = arith.constant 2147483647 : i64 loc(#loc274)
    %query_offset_0_81 = arith.constant -2147483648 : i64 loc(#loc274)
    %query_offset_0_82 = arith.constant dense<2147483647> : tensor<16xi64> loc(#loc274)
    %query_offset_0_83 = arith.cmpi sle, %query_offset_0_79, %query_offset_0_82 : tensor<16xi64> loc(#loc274)
    %query_offset_0_84 = arith.constant dense<-2147483648> : tensor<16xi64> loc(#loc274)
    %query_offset_0_85 = arith.cmpi sge, %query_offset_0_79, %query_offset_0_84 : tensor<16xi64> loc(#loc274)
    %query_offset_0_86 = arith.andi %query_offset_0_83, %query_offset_0_85 : tensor<16xi1> loc(#loc274)
    %query_offset_0_87 = arith.addi %query_offset_0, %query_pos_76 : tensor<16xi32> loc(#loc274)
    %query_offset_1 = arith.constant 5 : i32 loc(#loc275)
    %query_offset_1_88 = arith.constant 5 : i32 loc(#loc275)
    %query_offset_1_89 = arith.extsi %kv_head_idx : i32 to i64 loc(#loc275)
    %query_offset_1_90 = arith.extsi %query_offset_1_88 : i32 to i64 loc(#loc275)
    %query_offset_1_91 = arith.muli %query_offset_1_89, %query_offset_1_90 : i64 loc(#loc275)
    %query_offset_1_92 = arith.constant 2147483647 : i64 loc(#loc275)
    %query_offset_1_93 = arith.constant -2147483648 : i64 loc(#loc275)
    %query_offset_1_94 = arith.cmpi sle, %query_offset_1_91, %query_offset_1_92 : i64 loc(#loc275)
    %query_offset_1_95 = arith.cmpi sge, %query_offset_1_91, %query_offset_1_93 : i64 loc(#loc275)
    %query_offset_1_96 = arith.andi %query_offset_1_94, %query_offset_1_95 : i1 loc(#loc275)
    %query_offset_1_97 = arith.muli %kv_head_idx, %query_offset_1_88 : i32 loc(#loc275)
    %query_offset_1_98 = arith.constant 5 : i32 loc(#loc276)
    %query_offset_1_99 = arith.constant 5 : i32 loc(#loc276)
    %query_offset_1_100 = arith.constant dense<5> : tensor<16xi32> loc(#loc276)
    %query_offset_1_101 = arith.remsi %offs_m, %query_offset_1_100 : tensor<16xi32> loc(#loc276)
    %query_offset_1_102 = tt.splat %query_offset_1_97 : i32 -> tensor<16xi32> loc(#loc277)
    %query_offset_1_103 = arith.extsi %query_offset_1_102 : tensor<16xi32> to tensor<16xi64> loc(#loc277)
    %query_offset_1_104 = arith.extsi %query_offset_1_101 : tensor<16xi32> to tensor<16xi64> loc(#loc277)
    %query_offset_1_105 = arith.addi %query_offset_1_103, %query_offset_1_104 : tensor<16xi64> loc(#loc277)
    %query_offset_1_106 = arith.constant 2147483647 : i64 loc(#loc277)
    %query_offset_1_107 = arith.constant -2147483648 : i64 loc(#loc277)
    %query_offset_1_108 = arith.constant dense<2147483647> : tensor<16xi64> loc(#loc277)
    %query_offset_1_109 = arith.cmpi sle, %query_offset_1_105, %query_offset_1_108 : tensor<16xi64> loc(#loc277)
    %query_offset_1_110 = arith.constant dense<-2147483648> : tensor<16xi64> loc(#loc277)
    %query_offset_1_111 = arith.cmpi sge, %query_offset_1_105, %query_offset_1_110 : tensor<16xi64> loc(#loc277)
    %query_offset_1_112 = arith.andi %query_offset_1_109, %query_offset_1_111 : tensor<16xi1> loc(#loc277)
    %query_offset_1_113 = arith.addi %query_offset_1_102, %query_offset_1_101 : tensor<16xi32> loc(#loc277)
    %query_offset = tt.expand_dims %query_offset_0_87 {axis = 1 : i32} : tensor<16xi32> -> tensor<16x1xi32> loc(#loc278)
    %query_offset_114 = arith.extsi %query_offset : tensor<16x1xi32> to tensor<16x1xi64> loc(#loc279)
    %query_offset_115 = tt.splat %query_stride_0 : i64 -> tensor<16x1xi64> loc(#loc279)
    %query_offset_116 = arith.muli %query_offset_114, %query_offset_115 : tensor<16x1xi64> loc(#loc279)
    %query_offset_117 = tt.expand_dims %query_offset_1_113 {axis = 1 : i32} : tensor<16xi32> -> tensor<16x1xi32> loc(#loc280)
    %query_offset_118 = arith.extsi %query_offset_117 : tensor<16x1xi32> to tensor<16x1xi64> loc(#loc281)
    %query_offset_119 = tt.splat %query_stride_1 : i64 -> tensor<16x1xi64> loc(#loc281)
    %query_offset_120 = arith.muli %query_offset_118, %query_offset_119 : tensor<16x1xi64> loc(#loc281)
    %query_offset_121 = arith.addi %query_offset_116, %query_offset_120 : tensor<16x1xi64> loc(#loc282)
    %query_offset_122 = tt.expand_dims %offs_d {axis = 0 : i32} : tensor<128xi32> -> tensor<1x128xi32> loc(#loc283)
    %query_offset_123 = arith.extsi %query_offset_122 : tensor<1x128xi32> to tensor<1x128xi64> loc(#loc284)
    %query_offset_124 = tt.broadcast %query_offset_121 : tensor<16x1xi64> -> tensor<16x128xi64> loc(#loc284)
    %query_offset_125 = tt.broadcast %query_offset_123 : tensor<1x128xi64> -> tensor<16x128xi64> loc(#loc284)
    %query_offset_126 = arith.addi %query_offset_124, %query_offset_125 : tensor<16x128xi64> loc(#loc284)
    %dim_mask = arith.constant 128 : i32 loc(#loc285)
    %dim_mask_127 = arith.constant dense<128> : tensor<128xi32> loc(#loc285)
    %dim_mask_128 = arith.cmpi slt, %offs_d, %dim_mask_127 : tensor<128xi32> loc(#loc285)
    %dim_mask_129 = arith.constant 1 : i32 loc(#loc286)
    %dim_mask_130 = arith.constant 0 : i32 loc(#loc286)
    %dim_mask_131 = arith.constant 1 : i32 loc(#loc286)
    %dim_mask_132 = arith.constant 0 : i32 loc(#loc286)
    %dim_mask_133 = arith.constant dense<1> : tensor<128xi32> loc(#loc286)
    %dim_mask_134 = arith.constant dense<0> : tensor<128xi32> loc(#loc286)
    %dim_mask_135 = arith.select %dim_mask_128, %dim_mask_133, %dim_mask_134 : tensor<128xi1>, tensor<128xi32> loc(#loc286)
    %dim_mask_136 = arith.constant 0 : i32 loc(#loc287)
    %dim_mask_137 = arith.constant dense<0> : tensor<128xi32> loc(#loc287)
    %dim_mask_138 = arith.cmpi ne, %dim_mask_135, %dim_mask_137 : tensor<128xi32> loc(#loc287)
    %query_mask_0 = tt.splat %cur_batch_query_len_32 : i32 -> tensor<16xi32> loc(#loc288)
    %query_mask_0_139 = arith.cmpi slt, %query_pos_76, %query_mask_0 : tensor<16xi32> loc(#loc288)
    %query_mask_0_140 = arith.constant 1 : i32 loc(#loc289)
    %query_mask_0_141 = arith.constant 0 : i32 loc(#loc289)
    %query_mask_0_142 = arith.constant 1 : i32 loc(#loc289)
    %query_mask_0_143 = arith.constant 0 : i32 loc(#loc289)
    %query_mask_0_144 = arith.constant dense<1> : tensor<16xi32> loc(#loc289)
    %query_mask_0_145 = arith.constant dense<0> : tensor<16xi32> loc(#loc289)
    %query_mask_0_146 = arith.select %query_mask_0_139, %query_mask_0_144, %query_mask_0_145 : tensor<16xi1>, tensor<16xi32> loc(#loc289)
    %query_mask_0_147 = arith.constant 0 : i32 loc(#loc290)
    %query_mask_0_148 = arith.constant dense<0> : tensor<16xi32> loc(#loc290)
    %query_mask_0_149 = arith.cmpi ne, %query_mask_0_146, %query_mask_0_148 : tensor<16xi32> loc(#loc290)
    %query_mask_1 = arith.constant 40 : i32 loc(#loc291)
    %query_mask_1_150 = arith.constant dense<40> : tensor<16xi32> loc(#loc291)
    %query_mask_1_151 = arith.cmpi slt, %query_offset_1_113, %query_mask_1_150 : tensor<16xi32> loc(#loc291)
    %query_mask_1_152 = arith.constant 1 : i32 loc(#loc292)
    %query_mask_1_153 = arith.constant 0 : i32 loc(#loc292)
    %query_mask_1_154 = arith.constant 1 : i32 loc(#loc292)
    %query_mask_1_155 = arith.constant 0 : i32 loc(#loc292)
    %query_mask_1_156 = arith.constant dense<1> : tensor<16xi32> loc(#loc292)
    %query_mask_1_157 = arith.constant dense<0> : tensor<16xi32> loc(#loc292)
    %query_mask_1_158 = arith.select %query_mask_1_151, %query_mask_1_156, %query_mask_1_157 : tensor<16xi1>, tensor<16xi32> loc(#loc292)
    %query_mask_1_159 = arith.constant 0 : i32 loc(#loc293)
    %query_mask_1_160 = arith.constant dense<0> : tensor<16xi32> loc(#loc293)
    %query_mask_1_161 = arith.cmpi ne, %query_mask_1_158, %query_mask_1_160 : tensor<16xi32> loc(#loc293)
    %Q = tt.expand_dims %dim_mask_138 {axis = 0 : i32} : tensor<128xi1> -> tensor<1x128xi1> loc(#loc294)
    %Q_162 = tt.expand_dims %query_mask_0_149 {axis = 1 : i32} : tensor<16xi1> -> tensor<16x1xi1> loc(#loc295)
    %Q_163 = tt.broadcast %Q : tensor<1x128xi1> -> tensor<16x128xi1> loc(#loc296)
    %Q_164 = tt.broadcast %Q_162 : tensor<16x1xi1> -> tensor<16x128xi1> loc(#loc296)
    %Q_165 = arith.andi %Q_163, %Q_164 : tensor<16x128xi1> loc(#loc296)
    %Q_166 = tt.expand_dims %query_mask_1_161 {axis = 1 : i32} : tensor<16xi1> -> tensor<16x1xi1> loc(#loc297)
    %Q_167 = tt.broadcast %Q_166 : tensor<16x1xi1> -> tensor<16x128xi1> loc(#loc298)
    %Q_168 = arith.andi %Q_165, %Q_167 : tensor<16x128xi1> loc(#loc298)
    %Q_169 = tt.splat %query_ptr : !tt.ptr<bf16> -> tensor<16x128x!tt.ptr<bf16>> loc(#loc299)
    %Q_170 = tt.addptr %Q_169, %query_offset_126 : tensor<16x128x!tt.ptr<bf16>>, tensor<16x128xi64> loc(#loc299)
    %Q_171 = arith.constant 0.000000e+00 : f32 loc(#loc300)
    %Q_172 = arith.constant dense<0.000000e+00> : tensor<16x128xf32> loc(#loc300)
    %Q_173 = arith.truncf %Q_172 : tensor<16x128xf32> to tensor<16x128xbf16> loc(#loc300)
    %Q_174 = tt.load %Q_170, %Q_168, %Q_173 : tensor<16x128x!tt.ptr<bf16>> loc(#loc300)
    %block_table_offset = arith.extsi %seq_idx : i32 to i64 loc(#loc301)
    %block_table_offset_175 = arith.muli %block_table_offset, %block_table_stride : i64 loc(#loc301)
    %M = arith.constant 0xFF800000 : f32 loc(#loc302)
    %M_176 = arith.constant dense<0xFF800000> : tensor<16xf32> loc(#loc302)
    %L = arith.constant 1.000000e+00 : f32 loc(#loc303)
    %L_177 = arith.constant dense<1.000000e+00> : tensor<16xf32> loc(#loc303)
    %acc = tt.call @"triton.language.standard.zeros____(0, 0)cconstexpr_16__(0, 1)cconstexpr_128__(1,)cconstexpr_fp32_"() : () -> tensor<16x128xf32> loc(#loc304)
    %context_len = arith.extsi %seq_len_34 : i32 to i64 loc(#loc305)
    %context_len_178 = arith.extsi %cur_batch_query_len_32 : i32 to i64 loc(#loc305)
    %context_len_179 = arith.subi %context_len, %context_len_178 : i64 loc(#loc305)
    %context_len_180 = arith.constant 2147483647 : i64 loc(#loc305)
    %context_len_181 = arith.constant -2147483648 : i64 loc(#loc305)
    %context_len_182 = arith.cmpi sle, %context_len_179, %context_len_180 : i64 loc(#loc305)
    %context_len_183 = arith.cmpi sge, %context_len_179, %context_len_181 : i64 loc(#loc305)
    %context_len_184 = arith.andi %context_len_182, %context_len_183 : i1 loc(#loc305)
    %context_len_185 = arith.subi %seq_len_34, %cur_batch_query_len_32 : i32 loc(#loc305)
    %max_seq_prefix_len = arith.constant 3 : i32 loc(#loc306)
    %max_seq_prefix_len_186 = arith.constant 3 : i32 loc(#loc306)
    %max_seq_prefix_len_187 = arith.extsi %q_block_local_idx_20 : i32 to i64 loc(#loc306)
    %max_seq_prefix_len_188 = arith.extsi %max_seq_prefix_len_186 : i32 to i64 loc(#loc306)
    %max_seq_prefix_len_189 = arith.muli %max_seq_prefix_len_187, %max_seq_prefix_len_188 : i64 loc(#loc306)
    %max_seq_prefix_len_190 = arith.constant 2147483647 : i64 loc(#loc306)
    %max_seq_prefix_len_191 = arith.constant -2147483648 : i64 loc(#loc306)
    %max_seq_prefix_len_192 = arith.cmpi sle, %max_seq_prefix_len_189, %max_seq_prefix_len_190 : i64 loc(#loc306)
    %max_seq_prefix_len_193 = arith.cmpi sge, %max_seq_prefix_len_189, %max_seq_prefix_len_191 : i64 loc(#loc306)
    %max_seq_prefix_len_194 = arith.andi %max_seq_prefix_len_192, %max_seq_prefix_len_193 : i1 loc(#loc306)
    %max_seq_prefix_len_195 = arith.muli %q_block_local_idx_20, %max_seq_prefix_len_186 : i32 loc(#loc306)
    %max_seq_prefix_len_196 = arith.extsi %context_len_185 : i32 to i64 loc(#loc307)
    %max_seq_prefix_len_197 = arith.extsi %max_seq_prefix_len_195 : i32 to i64 loc(#loc307)
    %max_seq_prefix_len_198 = arith.addi %max_seq_prefix_len_196, %max_seq_prefix_len_197 : i64 loc(#loc307)
    %max_seq_prefix_len_199 = arith.constant 2147483647 : i64 loc(#loc307)
    %max_seq_prefix_len_200 = arith.constant -2147483648 : i64 loc(#loc307)
    %max_seq_prefix_len_201 = arith.cmpi sle, %max_seq_prefix_len_198, %max_seq_prefix_len_199 : i64 loc(#loc307)
    %max_seq_prefix_len_202 = arith.cmpi sge, %max_seq_prefix_len_198, %max_seq_prefix_len_200 : i64 loc(#loc307)
    %max_seq_prefix_len_203 = arith.andi %max_seq_prefix_len_201, %max_seq_prefix_len_202 : i1 loc(#loc307)
    %max_seq_prefix_len_204 = arith.addi %context_len_185, %max_seq_prefix_len_195 : i32 loc(#loc307)
    %max_seq_prefix_len_205 = arith.constant 3 : i32 loc(#loc308)
    %max_seq_prefix_len_206 = arith.constant 3 : i32 loc(#loc308)
    %max_seq_prefix_len_207 = arith.extsi %max_seq_prefix_len_204 : i32 to i64 loc(#loc308)
    %max_seq_prefix_len_208 = arith.extsi %max_seq_prefix_len_206 : i32 to i64 loc(#loc308)
    %max_seq_prefix_len_209 = arith.addi %max_seq_prefix_len_207, %max_seq_prefix_len_208 : i64 loc(#loc308)
    %max_seq_prefix_len_210 = arith.constant 2147483647 : i64 loc(#loc308)
    %max_seq_prefix_len_211 = arith.constant -2147483648 : i64 loc(#loc308)
    %max_seq_prefix_len_212 = arith.cmpi sle, %max_seq_prefix_len_209, %max_seq_prefix_len_210 : i64 loc(#loc308)
    %max_seq_prefix_len_213 = arith.cmpi sge, %max_seq_prefix_len_209, %max_seq_prefix_len_211 : i64 loc(#loc308)
    %max_seq_prefix_len_214 = arith.andi %max_seq_prefix_len_212, %max_seq_prefix_len_213 : i1 loc(#loc308)
    %max_seq_prefix_len_215 = arith.addi %max_seq_prefix_len_204, %max_seq_prefix_len_206 : i32 loc(#loc308)
    %max_seq_prefix_len_216 = arith.constant 1 : i32 loc(#loc309)
    %max_seq_prefix_len_217 = arith.constant 1 : i32 loc(#loc309)
    %max_seq_prefix_len_218 = arith.extsi %max_seq_prefix_len_215 : i32 to i64 loc(#loc309)
    %max_seq_prefix_len_219 = arith.extsi %max_seq_prefix_len_217 : i32 to i64 loc(#loc309)
    %max_seq_prefix_len_220 = arith.addi %max_seq_prefix_len_218, %max_seq_prefix_len_219 : i64 loc(#loc309)
    %max_seq_prefix_len_221 = arith.constant 2147483647 : i64 loc(#loc309)
    %max_seq_prefix_len_222 = arith.constant -2147483648 : i64 loc(#loc309)
    %max_seq_prefix_len_223 = arith.cmpi sle, %max_seq_prefix_len_220, %max_seq_prefix_len_221 : i64 loc(#loc309)
    %max_seq_prefix_len_224 = arith.cmpi sge, %max_seq_prefix_len_220, %max_seq_prefix_len_222 : i64 loc(#loc309)
    %max_seq_prefix_len_225 = arith.andi %max_seq_prefix_len_223, %max_seq_prefix_len_224 : i1 loc(#loc309)
    %max_seq_prefix_len_226 = arith.addi %max_seq_prefix_len_215, %max_seq_prefix_len_217 : i32 loc(#loc309)
    %max_seq_prefix_len_227 = arith.minsi %max_seq_prefix_len_226, %seq_len_34 : i32 loc(#loc310)
    %num_tiles = tt.call @"vllm.attention.ops.triton_unified_attention.cdiv_fn__i32__(1,)cconstexpr_16_"(%max_seq_prefix_len_227) : (i32) -> i32 loc(#loc311)
    %23 = arith.extsi %segm_idx : i32 to i64 loc(#loc73)
    %24 = arith.extsi %tiles_per_segment_45 : i32 to i64 loc(#loc73)
    %25 = arith.muli %23, %24 : i64 loc(#loc73)
    %c2147483647_i64_228 = arith.constant 2147483647 : i64 loc(#loc73)
    %c-2147483648_i64_229 = arith.constant -2147483648 : i64 loc(#loc73)
    %26 = arith.cmpi sle, %25, %c2147483647_i64_228 : i64 loc(#loc73)
    %27 = arith.cmpi sge, %25, %c-2147483648_i64_229 : i64 loc(#loc73)
    %28 = arith.andi %26, %27 : i1 loc(#loc73)
    %29 = arith.muli %segm_idx, %tiles_per_segment_45 : i32 loc(#loc73)
    %c1_i32 = arith.constant 1 : i32 loc(#loc74)
    %c1_i32_230 = arith.constant 1 : i32 loc(#loc74)
    %30 = arith.extsi %segm_idx : i32 to i64 loc(#loc74)
    %31 = arith.extsi %c1_i32_230 : i32 to i64 loc(#loc74)
    %32 = arith.addi %30, %31 : i64 loc(#loc74)
    %c2147483647_i64_231 = arith.constant 2147483647 : i64 loc(#loc74)
    %c-2147483648_i64_232 = arith.constant -2147483648 : i64 loc(#loc74)
    %33 = arith.cmpi sle, %32, %c2147483647_i64_231 : i64 loc(#loc74)
    %34 = arith.cmpi sge, %32, %c-2147483648_i64_232 : i64 loc(#loc74)
    %35 = arith.andi %33, %34 : i1 loc(#loc74)
    %36 = arith.addi %segm_idx, %c1_i32_230 : i32 loc(#loc74)
    %37 = arith.extsi %36 : i32 to i64 loc(#loc75)
    %38 = arith.extsi %tiles_per_segment_45 : i32 to i64 loc(#loc75)
    %39 = arith.muli %37, %38 : i64 loc(#loc75)
    %c2147483647_i64_233 = arith.constant 2147483647 : i64 loc(#loc75)
    %c-2147483648_i64_234 = arith.constant -2147483648 : i64 loc(#loc75)
    %40 = arith.cmpi sle, %39, %c2147483647_i64_233 : i64 loc(#loc75)
    %41 = arith.cmpi sge, %39, %c-2147483648_i64_234 : i64 loc(#loc75)
    %42 = arith.andi %40, %41 : i1 loc(#loc75)
    %43 = arith.muli %36, %tiles_per_segment_45 : i32 loc(#loc75)
    %44 = arith.minsi %43, %num_tiles : i32 loc(#loc76)
    %c1_i32_235 = arith.constant 1 : i32 loc(#loc77)
    %45 = arith.bitcast %29 : i32 to i32 loc(#loc77)
    %46 = arith.bitcast %44 : i32 to i32 loc(#loc77)
    %47 = arith.bitcast %c1_i32_235 : i32 to i32 loc(#loc77)
    %48 = ub.poison : i32 loc(#loc77)
    %acc_236:3 = scf.for %j = %45 to %46 step %47 iter_args(%M_302 = %M_176, %L_303 = %L_177, %acc_304 = %acc) -> (tensor<16xf32>, tensor<16xf32>, tensor<16x128xf32>)  : i32 {
      %seq_offset = arith.constant 16 : i32 loc(#loc313)
      %seq_offset_305 = arith.constant 16 : i32 loc(#loc313)
      %seq_offset_306 = arith.extsi %j : i32 to i64 loc(#loc313)
      %seq_offset_307 = arith.extsi %seq_offset_305 : i32 to i64 loc(#loc313)
      %seq_offset_308 = arith.muli %seq_offset_306, %seq_offset_307 : i64 loc(#loc313)
      %seq_offset_309 = arith.constant 2147483647 : i64 loc(#loc313)
      %seq_offset_310 = arith.constant -2147483648 : i64 loc(#loc313)
      %seq_offset_311 = arith.cmpi sle, %seq_offset_308, %seq_offset_309 : i64 loc(#loc313)
      %seq_offset_312 = arith.cmpi sge, %seq_offset_308, %seq_offset_310 : i64 loc(#loc313)
      %seq_offset_313 = arith.andi %seq_offset_311, %seq_offset_312 : i1 loc(#loc313)
      %seq_offset_314 = arith.muli %j, %seq_offset_305 : i32 loc(#loc313)
      %seq_offset_315 = tt.splat %seq_offset_314 : i32 -> tensor<16xi32> loc(#loc314)
      %seq_offset_316 = arith.extsi %seq_offset_315 : tensor<16xi32> to tensor<16xi64> loc(#loc314)
      %seq_offset_317 = arith.extsi %offs_t : tensor<16xi32> to tensor<16xi64> loc(#loc314)
      %seq_offset_318 = arith.addi %seq_offset_316, %seq_offset_317 : tensor<16xi64> loc(#loc314)
      %seq_offset_319 = arith.constant 2147483647 : i64 loc(#loc314)
      %seq_offset_320 = arith.constant -2147483648 : i64 loc(#loc314)
      %seq_offset_321 = arith.constant dense<2147483647> : tensor<16xi64> loc(#loc314)
      %seq_offset_322 = arith.cmpi sle, %seq_offset_318, %seq_offset_321 : tensor<16xi64> loc(#loc314)
      %seq_offset_323 = arith.constant dense<-2147483648> : tensor<16xi64> loc(#loc314)
      %seq_offset_324 = arith.cmpi sge, %seq_offset_318, %seq_offset_323 : tensor<16xi64> loc(#loc314)
      %seq_offset_325 = arith.andi %seq_offset_322, %seq_offset_324 : tensor<16xi1> loc(#loc314)
      %seq_offset_326 = arith.addi %seq_offset_315, %offs_t : tensor<16xi32> loc(#loc314)
      %tile_mask = tt.splat %max_seq_prefix_len_227 : i32 -> tensor<16xi32> loc(#loc315)
      %tile_mask_327 = arith.cmpi slt, %seq_offset_326, %tile_mask : tensor<16xi32> loc(#loc315)
      %physical_block_idx = tt.addptr %block_tables_ptr, %block_table_offset_175 : !tt.ptr<i32>, i64 loc(#loc316)
      %physical_block_idx_328 = arith.constant 16 : i32 loc(#loc317)
      %physical_block_idx_329 = arith.constant 16 : i32 loc(#loc317)
      %physical_block_idx_330 = arith.constant dense<16> : tensor<16xi32> loc(#loc317)
      %physical_block_idx_331 = arith.divsi %seq_offset_326, %physical_block_idx_330 : tensor<16xi32> loc(#loc317)
      %physical_block_idx_332 = tt.splat %physical_block_idx : !tt.ptr<i32> -> tensor<16x!tt.ptr<i32>> loc(#loc318)
      %physical_block_idx_333 = tt.addptr %physical_block_idx_332, %physical_block_idx_331 : tensor<16x!tt.ptr<i32>>, tensor<16xi32> loc(#loc318)
      %physical_block_idx_334 = tt.load %physical_block_idx_333 : tensor<16x!tt.ptr<i32>> loc(#loc319)
      %physical_block_idx_335 = arith.extsi %physical_block_idx_334 : tensor<16xi32> to tensor<16xi64> loc(#loc320)
      %v_offset = tt.expand_dims %physical_block_idx_335 {axis = 1 : i32} : tensor<16xi64> -> tensor<16x1xi64> loc(#loc321)
      %v_offset_336 = tt.splat %stride_v_cache_0 : i64 -> tensor<16x1xi64> loc(#loc322)
      %v_offset_337 = arith.muli %v_offset, %v_offset_336 : tensor<16x1xi64> loc(#loc322)
      %v_offset_338 = arith.extsi %kv_head_idx : i32 to i64 loc(#loc323)
      %v_offset_339 = arith.muli %v_offset_338, %stride_v_cache_2 : i64 loc(#loc323)
      %v_offset_340 = tt.splat %v_offset_339 : i64 -> tensor<16x1xi64> loc(#loc324)
      %v_offset_341 = arith.addi %v_offset_337, %v_offset_340 : tensor<16x1xi64> loc(#loc324)
      %v_offset_342 = tt.expand_dims %offs_d {axis = 0 : i32} : tensor<128xi32> -> tensor<1x128xi32> loc(#loc325)
      %v_offset_343 = arith.constant 1 : i32 loc(#loc326)
      %v_offset_344 = arith.constant 1 : i32 loc(#loc326)
      %v_offset_345 = arith.constant dense<1> : tensor<1x128xi32> loc(#loc326)
      %v_offset_346 = arith.extsi %v_offset_342 : tensor<1x128xi32> to tensor<1x128xi64> loc(#loc326)
      %v_offset_347 = arith.extsi %v_offset_345 : tensor<1x128xi32> to tensor<1x128xi64> loc(#loc326)
      %v_offset_348 = arith.muli %v_offset_346, %v_offset_347 : tensor<1x128xi64> loc(#loc326)
      %v_offset_349 = arith.constant 2147483647 : i64 loc(#loc326)
      %v_offset_350 = arith.constant -2147483648 : i64 loc(#loc326)
      %v_offset_351 = arith.constant dense<2147483647> : tensor<1x128xi64> loc(#loc326)
      %v_offset_352 = arith.cmpi sle, %v_offset_348, %v_offset_351 : tensor<1x128xi64> loc(#loc326)
      %v_offset_353 = arith.constant dense<-2147483648> : tensor<1x128xi64> loc(#loc326)
      %v_offset_354 = arith.cmpi sge, %v_offset_348, %v_offset_353 : tensor<1x128xi64> loc(#loc326)
      %v_offset_355 = arith.andi %v_offset_352, %v_offset_354 : tensor<1x128xi1> loc(#loc326)
      %v_offset_356 = arith.muli %v_offset_342, %v_offset_345 : tensor<1x128xi32> loc(#loc326)
      %v_offset_357 = arith.extsi %v_offset_356 : tensor<1x128xi32> to tensor<1x128xi64> loc(#loc327)
      %v_offset_358 = tt.broadcast %v_offset_341 : tensor<16x1xi64> -> tensor<16x128xi64> loc(#loc327)
      %v_offset_359 = tt.broadcast %v_offset_357 : tensor<1x128xi64> -> tensor<16x128xi64> loc(#loc327)
      %v_offset_360 = arith.addi %v_offset_358, %v_offset_359 : tensor<16x128xi64> loc(#loc327)
      %v_offset_361 = arith.constant 16 : i32 loc(#loc328)
      %v_offset_362 = arith.constant 16 : i32 loc(#loc328)
      %v_offset_363 = arith.constant dense<16> : tensor<16xi32> loc(#loc328)
      %v_offset_364 = arith.remsi %seq_offset_326, %v_offset_363 : tensor<16xi32> loc(#loc328)
      %v_offset_365 = tt.expand_dims %v_offset_364 {axis = 1 : i32} : tensor<16xi32> -> tensor<16x1xi32> loc(#loc329)
      %v_offset_366 = arith.extsi %v_offset_365 : tensor<16x1xi32> to tensor<16x1xi64> loc(#loc330)
      %v_offset_367 = tt.splat %stride_v_cache_1 : i64 -> tensor<16x1xi64> loc(#loc330)
      %v_offset_368 = arith.muli %v_offset_366, %v_offset_367 : tensor<16x1xi64> loc(#loc330)
      %v_offset_369 = tt.broadcast %v_offset_368 : tensor<16x1xi64> -> tensor<16x128xi64> loc(#loc331)
      %v_offset_370 = arith.addi %v_offset_360, %v_offset_369 : tensor<16x128xi64> loc(#loc331)
      %k_offset = tt.expand_dims %physical_block_idx_335 {axis = 0 : i32} : tensor<16xi64> -> tensor<1x16xi64> loc(#loc332)
      %k_offset_371 = tt.splat %stride_k_cache_0 : i64 -> tensor<1x16xi64> loc(#loc333)
      %k_offset_372 = arith.muli %k_offset, %k_offset_371 : tensor<1x16xi64> loc(#loc333)
      %k_offset_373 = arith.extsi %kv_head_idx : i32 to i64 loc(#loc334)
      %k_offset_374 = arith.muli %k_offset_373, %stride_k_cache_2 : i64 loc(#loc334)
      %k_offset_375 = tt.splat %k_offset_374 : i64 -> tensor<1x16xi64> loc(#loc335)
      %k_offset_376 = arith.addi %k_offset_372, %k_offset_375 : tensor<1x16xi64> loc(#loc335)
      %k_offset_377 = tt.expand_dims %offs_d {axis = 1 : i32} : tensor<128xi32> -> tensor<128x1xi32> loc(#loc336)
      %k_offset_378 = arith.constant 1 : i32 loc(#loc337)
      %k_offset_379 = arith.constant 1 : i32 loc(#loc337)
      %k_offset_380 = arith.constant dense<1> : tensor<128x1xi32> loc(#loc337)
      %k_offset_381 = arith.extsi %k_offset_377 : tensor<128x1xi32> to tensor<128x1xi64> loc(#loc337)
      %k_offset_382 = arith.extsi %k_offset_380 : tensor<128x1xi32> to tensor<128x1xi64> loc(#loc337)
      %k_offset_383 = arith.muli %k_offset_381, %k_offset_382 : tensor<128x1xi64> loc(#loc337)
      %k_offset_384 = arith.constant 2147483647 : i64 loc(#loc337)
      %k_offset_385 = arith.constant -2147483648 : i64 loc(#loc337)
      %k_offset_386 = arith.constant dense<2147483647> : tensor<128x1xi64> loc(#loc337)
      %k_offset_387 = arith.cmpi sle, %k_offset_383, %k_offset_386 : tensor<128x1xi64> loc(#loc337)
      %k_offset_388 = arith.constant dense<-2147483648> : tensor<128x1xi64> loc(#loc337)
      %k_offset_389 = arith.cmpi sge, %k_offset_383, %k_offset_388 : tensor<128x1xi64> loc(#loc337)
      %k_offset_390 = arith.andi %k_offset_387, %k_offset_389 : tensor<128x1xi1> loc(#loc337)
      %k_offset_391 = arith.muli %k_offset_377, %k_offset_380 : tensor<128x1xi32> loc(#loc337)
      %k_offset_392 = arith.extsi %k_offset_391 : tensor<128x1xi32> to tensor<128x1xi64> loc(#loc338)
      %k_offset_393 = tt.broadcast %k_offset_376 : tensor<1x16xi64> -> tensor<128x16xi64> loc(#loc338)
      %k_offset_394 = tt.broadcast %k_offset_392 : tensor<128x1xi64> -> tensor<128x16xi64> loc(#loc338)
      %k_offset_395 = arith.addi %k_offset_393, %k_offset_394 : tensor<128x16xi64> loc(#loc338)
      %k_offset_396 = arith.constant 16 : i32 loc(#loc339)
      %k_offset_397 = arith.constant 16 : i32 loc(#loc339)
      %k_offset_398 = arith.constant dense<16> : tensor<16xi32> loc(#loc339)
      %k_offset_399 = arith.remsi %seq_offset_326, %k_offset_398 : tensor<16xi32> loc(#loc339)
      %k_offset_400 = tt.expand_dims %k_offset_399 {axis = 0 : i32} : tensor<16xi32> -> tensor<1x16xi32> loc(#loc340)
      %k_offset_401 = arith.extsi %k_offset_400 : tensor<1x16xi32> to tensor<1x16xi64> loc(#loc341)
      %k_offset_402 = tt.splat %stride_k_cache_1 : i64 -> tensor<1x16xi64> loc(#loc341)
      %k_offset_403 = arith.muli %k_offset_401, %k_offset_402 : tensor<1x16xi64> loc(#loc341)
      %k_offset_404 = tt.broadcast %k_offset_403 : tensor<1x16xi64> -> tensor<128x16xi64> loc(#loc342)
      %k_offset_405 = arith.addi %k_offset_395, %k_offset_404 : tensor<128x16xi64> loc(#loc342)
      %K_load = tt.expand_dims %dim_mask_138 {axis = 1 : i32} : tensor<128xi1> -> tensor<128x1xi1> loc(#loc343)
      %K_load_406 = tt.expand_dims %tile_mask_327 {axis = 0 : i32} : tensor<16xi1> -> tensor<1x16xi1> loc(#loc344)
      %K_load_407 = tt.broadcast %K_load : tensor<128x1xi1> -> tensor<128x16xi1> loc(#loc345)
      %K_load_408 = tt.broadcast %K_load_406 : tensor<1x16xi1> -> tensor<128x16xi1> loc(#loc345)
      %K_load_409 = arith.andi %K_load_407, %K_load_408 : tensor<128x16xi1> loc(#loc345)
      %K_load_410 = tt.splat %key_cache_ptr : !tt.ptr<bf16> -> tensor<128x16x!tt.ptr<bf16>> loc(#loc346)
      %K_load_411 = tt.addptr %K_load_410, %k_offset_405 : tensor<128x16x!tt.ptr<bf16>>, tensor<128x16xi64> loc(#loc346)
      %K_load_412 = arith.constant 0.000000e+00 : f32 loc(#loc347)
      %K_load_413 = arith.constant dense<0.000000e+00> : tensor<128x16xf32> loc(#loc347)
      %K_load_414 = arith.truncf %K_load_413 : tensor<128x16xf32> to tensor<128x16xbf16> loc(#loc347)
      %K_load_415 = tt.load %K_load_411, %K_load_409, %K_load_414 : tensor<128x16x!tt.ptr<bf16>> loc(#loc347)
      %V_load = tt.expand_dims %dim_mask_138 {axis = 0 : i32} : tensor<128xi1> -> tensor<1x128xi1> loc(#loc348)
      %V_load_416 = tt.expand_dims %tile_mask_327 {axis = 1 : i32} : tensor<16xi1> -> tensor<16x1xi1> loc(#loc349)
      %V_load_417 = tt.broadcast %V_load : tensor<1x128xi1> -> tensor<16x128xi1> loc(#loc350)
      %V_load_418 = tt.broadcast %V_load_416 : tensor<16x1xi1> -> tensor<16x128xi1> loc(#loc350)
      %V_load_419 = arith.andi %V_load_417, %V_load_418 : tensor<16x128xi1> loc(#loc350)
      %V_load_420 = tt.splat %value_cache_ptr : !tt.ptr<bf16> -> tensor<16x128x!tt.ptr<bf16>> loc(#loc351)
      %V_load_421 = tt.addptr %V_load_420, %v_offset_370 : tensor<16x128x!tt.ptr<bf16>>, tensor<16x128xi64> loc(#loc351)
      %V_load_422 = arith.constant 0.000000e+00 : f32 loc(#loc352)
      %V_load_423 = arith.constant dense<0.000000e+00> : tensor<16x128xf32> loc(#loc352)
      %V_load_424 = arith.truncf %V_load_423 : tensor<16x128xf32> to tensor<16x128xbf16> loc(#loc352)
      %V_load_425 = tt.load %V_load_421, %V_load_419, %V_load_424 : tensor<16x128x!tt.ptr<bf16>> loc(#loc352)
      %query_abs_pos = tt.expand_dims %query_pos_76 {axis = 1 : i32} : tensor<16xi32> -> tensor<16x1xi32> loc(#loc353)
      %query_abs_pos_426 = tt.splat %context_len_185 : i32 -> tensor<16x1xi32> loc(#loc354)
      %query_abs_pos_427 = arith.extsi %query_abs_pos_426 : tensor<16x1xi32> to tensor<16x1xi64> loc(#loc354)
      %query_abs_pos_428 = arith.extsi %query_abs_pos : tensor<16x1xi32> to tensor<16x1xi64> loc(#loc354)
      %query_abs_pos_429 = arith.addi %query_abs_pos_427, %query_abs_pos_428 : tensor<16x1xi64> loc(#loc354)
      %query_abs_pos_430 = arith.constant 2147483647 : i64 loc(#loc354)
      %query_abs_pos_431 = arith.constant -2147483648 : i64 loc(#loc354)
      %query_abs_pos_432 = arith.constant dense<2147483647> : tensor<16x1xi64> loc(#loc354)
      %query_abs_pos_433 = arith.cmpi sle, %query_abs_pos_429, %query_abs_pos_432 : tensor<16x1xi64> loc(#loc354)
      %query_abs_pos_434 = arith.constant dense<-2147483648> : tensor<16x1xi64> loc(#loc354)
      %query_abs_pos_435 = arith.cmpi sge, %query_abs_pos_429, %query_abs_pos_434 : tensor<16x1xi64> loc(#loc354)
      %query_abs_pos_436 = arith.andi %query_abs_pos_433, %query_abs_pos_435 : tensor<16x1xi1> loc(#loc354)
      %query_abs_pos_437 = arith.addi %query_abs_pos_426, %query_abs_pos : tensor<16x1xi32> loc(#loc354)
      %seq_mask = tt.expand_dims %seq_offset_326 {axis = 0 : i32} : tensor<16xi32> -> tensor<1x16xi32> loc(#loc355)
      %seq_mask_438 = tt.broadcast %seq_mask : tensor<1x16xi32> -> tensor<16x16xi32> loc(#loc356)
      %seq_mask_439 = tt.broadcast %query_abs_pos_437 : tensor<16x1xi32> -> tensor<16x16xi32> loc(#loc356)
      %seq_mask_440 = arith.cmpi sle, %seq_mask_438, %seq_mask_439 : tensor<16x16xi32> loc(#loc356)
      %S = tt.call @"triton.language.standard.zeros____(0, 0)cconstexpr_16__(0, 1)cconstexpr_16__(1,)cconstexpr_fp32_"() : () -> tensor<16x16xf32> loc(#loc357)
      %S_441 = arith.constant 0.000000e+00 : f32 loc(#loc358)
      %S_442 = arith.constant dense<0.000000e+00> : tensor<16x16xf32> loc(#loc358)
      %S_443 = tt.dot %Q_174, %K_load_415, %S_442, inputPrecision = tf32 : tensor<16x128xbf16> * tensor<128x16xbf16> -> tensor<16x16xf32> loc(#loc358)
      %S_444 = tt.splat %scale : f32 -> tensor<16x16xf32> loc(#loc359)
      %S_445 = arith.mulf %S_444, %S_443 : tensor<16x16xf32> loc(#loc359)
      %S_446 = arith.addf %S, %S_445 : tensor<16x16xf32> loc(#loc360)
      %S_447 = tt.expand_dims %query_mask_1_161 {axis = 1 : i32} : tensor<16xi1> -> tensor<16x1xi1> loc(#loc361)
      %S_448 = tt.expand_dims %query_mask_0_149 {axis = 1 : i32} : tensor<16xi1> -> tensor<16x1xi1> loc(#loc362)
      %S_449 = arith.andi %S_447, %S_448 : tensor<16x1xi1> loc(#loc363)
      %S_450 = tt.broadcast %S_449 : tensor<16x1xi1> -> tensor<16x16xi1> loc(#loc364)
      %S_451 = arith.andi %S_450, %seq_mask_440 : tensor<16x16xi1> loc(#loc364)
      %S_452 = arith.constant 0xFF800000 : f32 loc(#loc365)
      %S_453 = arith.constant 0xFF800000 : f32 loc(#loc365)
      %S_454 = arith.constant dense<0xFF800000> : tensor<16x16xf32> loc(#loc365)
      %S_455 = arith.select %S_451, %S_446, %S_454 : tensor<16x16xi1>, tensor<16x16xf32> loc(#loc365)
      %m_j = tt.call @"triton.language.standard.max__fp32S16_16S__(1,)cconstexpr_1__(2,)cconstexpr_False__(3,)cconstexpr_True__(4,)cconstexpr_False_"(%S_455) : (tensor<16x16xf32>) -> tensor<16xf32> loc(#loc366)
      %m_j_456 = arith.maxnumf %M_302, %m_j : tensor<16xf32> loc(#loc367)
      %m_j_457 = arith.constant 0xFF800000 : f32 loc(#loc368)
      %m_j_458 = arith.constant dense<0xFF800000> : tensor<16xf32> loc(#loc368)
      %m_j_459 = arith.cmpf ogt, %m_j_456, %m_j_458 : tensor<16xf32> loc(#loc368)
      %m_j_460 = arith.constant 0.000000e+00 : f32 loc(#loc369)
      %m_j_461 = arith.constant 0.000000e+00 : f32 loc(#loc369)
      %m_j_462 = arith.constant dense<0.000000e+00> : tensor<16xf32> loc(#loc369)
      %m_j_463 = arith.select %m_j_459, %m_j_456, %m_j_462 : tensor<16xi1>, tensor<16xf32> loc(#loc369)
      %P = tt.expand_dims %m_j_463 {axis = 1 : i32} : tensor<16xf32> -> tensor<16x1xf32> loc(#loc370)
      %P_464 = tt.broadcast %P : tensor<16x1xf32> -> tensor<16x16xf32> loc(#loc371)
      %P_465 = arith.subf %S_455, %P_464 : tensor<16x16xf32> loc(#loc371)
      %P_466 = math.exp %P_465 : tensor<16x16xf32> loc(#loc372)
      %l_j = tt.call @"triton.language.standard.sum__fp32S16_16S__(1,)cconstexpr_1__(2,)cconstexpr_False__(3,)cNone"(%P_466) : (tensor<16x16xf32>) -> tensor<16xf32> loc(#loc373)
      %alpha = arith.subf %M_302, %m_j_463 : tensor<16xf32> loc(#loc374)
      %alpha_467 = math.exp %alpha : tensor<16xf32> loc(#loc375)
      %acc_468 = tt.expand_dims %alpha_467 {axis = 1 : i32} : tensor<16xf32> -> tensor<16x1xf32> loc(#loc376)
      %acc_469 = tt.broadcast %acc_468 : tensor<16x1xf32> -> tensor<16x128xf32> loc(#loc377)
      %acc_470 = arith.mulf %acc_304, %acc_469 : tensor<16x128xf32> loc(#loc377)
      %L_471 = arith.mulf %L_303, %alpha_467 : tensor<16xf32> loc(#loc378)
      %L_472 = arith.addf %L_471, %l_j : tensor<16xf32> loc(#loc379)
      %acc_473 = arith.truncf %P_466 : tensor<16x16xf32> to tensor<16x16xbf16> loc(#loc380)
      %acc_474 = arith.constant 0.000000e+00 : f32 loc(#loc381)
      %acc_475 = arith.constant dense<0.000000e+00> : tensor<16x128xf32> loc(#loc381)
      %acc_476 = tt.dot %acc_473, %V_load_425, %acc_475, inputPrecision = tf32 : tensor<16x16xbf16> * tensor<16x128xbf16> -> tensor<16x128xf32> loc(#loc381)
      %acc_477 = arith.addf %acc_470, %acc_476 : tensor<16x128xf32> loc(#loc382)
      scf.yield %m_j_463, %L_472, %acc_477 : tensor<16xf32>, tensor<16xf32>, tensor<16x128xf32> loc(#loc148)
    } loc(#loc427)
    %segm_output_offset = tt.expand_dims %query_offset_0_87 {axis = 1 : i32} : tensor<16xi32> -> tensor<16x1xi32> loc(#loc383)
    %segm_output_offset_237 = arith.extsi %segm_output_offset : tensor<16x1xi32> to tensor<16x1xi64> loc(#loc384)
    %segm_output_offset_238 = arith.constant 81920 : i32 loc(#loc385)
    %segm_output_offset_239 = arith.constant 81920 : i64 loc(#loc385)
    %segm_output_offset_240 = arith.constant dense<81920> : tensor<16x1xi64> loc(#loc385)
    %segm_output_offset_241 = arith.muli %segm_output_offset_237, %segm_output_offset_240 : tensor<16x1xi64> loc(#loc385)
    %segm_output_offset_242 = tt.expand_dims %query_offset_1_113 {axis = 1 : i32} : tensor<16xi32> -> tensor<16x1xi32> loc(#loc386)
    %segm_output_offset_243 = arith.constant 2048 : i32 loc(#loc387)
    %segm_output_offset_244 = arith.constant 2048 : i32 loc(#loc387)
    %segm_output_offset_245 = arith.constant dense<2048> : tensor<16x1xi32> loc(#loc387)
    %segm_output_offset_246 = arith.extsi %segm_output_offset_242 : tensor<16x1xi32> to tensor<16x1xi64> loc(#loc387)
    %segm_output_offset_247 = arith.extsi %segm_output_offset_245 : tensor<16x1xi32> to tensor<16x1xi64> loc(#loc387)
    %segm_output_offset_248 = arith.muli %segm_output_offset_246, %segm_output_offset_247 : tensor<16x1xi64> loc(#loc387)
    %segm_output_offset_249 = arith.constant 2147483647 : i64 loc(#loc387)
    %segm_output_offset_250 = arith.constant -2147483648 : i64 loc(#loc387)
    %segm_output_offset_251 = arith.constant dense<2147483647> : tensor<16x1xi64> loc(#loc387)
    %segm_output_offset_252 = arith.cmpi sle, %segm_output_offset_248, %segm_output_offset_251 : tensor<16x1xi64> loc(#loc387)
    %segm_output_offset_253 = arith.constant dense<-2147483648> : tensor<16x1xi64> loc(#loc387)
    %segm_output_offset_254 = arith.cmpi sge, %segm_output_offset_248, %segm_output_offset_253 : tensor<16x1xi64> loc(#loc387)
    %segm_output_offset_255 = arith.andi %segm_output_offset_252, %segm_output_offset_254 : tensor<16x1xi1> loc(#loc387)
    %segm_output_offset_256 = arith.muli %segm_output_offset_242, %segm_output_offset_245 : tensor<16x1xi32> loc(#loc387)
    %segm_output_offset_257 = arith.extsi %segm_output_offset_256 : tensor<16x1xi32> to tensor<16x1xi64> loc(#loc388)
    %segm_output_offset_258 = arith.addi %segm_output_offset_241, %segm_output_offset_257 : tensor<16x1xi64> loc(#loc388)
    %segm_output_offset_259 = arith.constant 128 : i32 loc(#loc389)
    %segm_output_offset_260 = arith.constant 128 : i32 loc(#loc389)
    %segm_output_offset_261 = arith.extsi %segm_idx : i32 to i64 loc(#loc389)
    %segm_output_offset_262 = arith.extsi %segm_output_offset_260 : i32 to i64 loc(#loc389)
    %segm_output_offset_263 = arith.muli %segm_output_offset_261, %segm_output_offset_262 : i64 loc(#loc389)
    %segm_output_offset_264 = arith.constant 2147483647 : i64 loc(#loc389)
    %segm_output_offset_265 = arith.constant -2147483648 : i64 loc(#loc389)
    %segm_output_offset_266 = arith.cmpi sle, %segm_output_offset_263, %segm_output_offset_264 : i64 loc(#loc389)
    %segm_output_offset_267 = arith.cmpi sge, %segm_output_offset_263, %segm_output_offset_265 : i64 loc(#loc389)
    %segm_output_offset_268 = arith.andi %segm_output_offset_266, %segm_output_offset_267 : i1 loc(#loc389)
    %segm_output_offset_269 = arith.muli %segm_idx, %segm_output_offset_260 : i32 loc(#loc389)
    %segm_output_offset_270 = arith.extsi %segm_output_offset_269 : i32 to i64 loc(#loc390)
    %segm_output_offset_271 = tt.splat %segm_output_offset_270 : i64 -> tensor<16x1xi64> loc(#loc390)
    %segm_output_offset_272 = arith.addi %segm_output_offset_258, %segm_output_offset_271 : tensor<16x1xi64> loc(#loc390)
    %segm_output_offset_273 = tt.make_range {end = 128 : i32, start = 0 : i32} : tensor<128xi32> loc(#loc391)
    %segm_output_offset_274 = tt.expand_dims %segm_output_offset_273 {axis = 0 : i32} : tensor<128xi32> -> tensor<1x128xi32> loc(#loc392)
    %segm_output_offset_275 = arith.extsi %segm_output_offset_274 : tensor<1x128xi32> to tensor<1x128xi64> loc(#loc393)
    %segm_output_offset_276 = tt.broadcast %segm_output_offset_272 : tensor<16x1xi64> -> tensor<16x128xi64> loc(#loc393)
    %segm_output_offset_277 = tt.broadcast %segm_output_offset_275 : tensor<1x128xi64> -> tensor<16x128xi64> loc(#loc393)
    %segm_output_offset_278 = arith.addi %segm_output_offset_276, %segm_output_offset_277 : tensor<16x128xi64> loc(#loc393)
    %49 = tt.expand_dims %dim_mask_138 {axis = 0 : i32} : tensor<128xi1> -> tensor<1x128xi1> loc(#loc160)
    %50 = tt.expand_dims %query_mask_0_149 {axis = 1 : i32} : tensor<16xi1> -> tensor<16x1xi1> loc(#loc161)
    %51 = tt.broadcast %49 : tensor<1x128xi1> -> tensor<16x128xi1> loc(#loc162)
    %52 = tt.broadcast %50 : tensor<16x1xi1> -> tensor<16x128xi1> loc(#loc162)
    %53 = arith.andi %51, %52 : tensor<16x128xi1> loc(#loc162)
    %54 = tt.expand_dims %query_mask_1_161 {axis = 1 : i32} : tensor<16xi1> -> tensor<16x1xi1> loc(#loc163)
    %55 = tt.broadcast %54 : tensor<16x1xi1> -> tensor<16x128xi1> loc(#loc164)
    %56 = arith.andi %53, %55 : tensor<16x128xi1> loc(#loc164)
    %57 = tt.splat %segm_output_ptr : !tt.ptr<f32> -> tensor<16x128x!tt.ptr<f32>> loc(#loc165)
    %58 = tt.addptr %57, %segm_output_offset_278 : tensor<16x128x!tt.ptr<f32>>, tensor<16x128xi64> loc(#loc165)
    tt.store %58, %acc_236#2, %56 : tensor<16x128x!tt.ptr<f32>> loc(#loc166)
    %segm_offset = arith.extsi %query_offset_0_87 : tensor<16xi32> to tensor<16xi64> loc(#loc394)
    %segm_offset_279 = arith.constant 640 : i32 loc(#loc395)
    %segm_offset_280 = arith.constant 640 : i64 loc(#loc395)
    %segm_offset_281 = arith.constant dense<640> : tensor<16xi64> loc(#loc395)
    %segm_offset_282 = arith.muli %segm_offset, %segm_offset_281 : tensor<16xi64> loc(#loc395)
    %segm_offset_283 = arith.constant 16 : i32 loc(#loc396)
    %segm_offset_284 = arith.constant 16 : i32 loc(#loc396)
    %segm_offset_285 = arith.constant dense<16> : tensor<16xi32> loc(#loc396)
    %segm_offset_286 = arith.extsi %query_offset_1_113 : tensor<16xi32> to tensor<16xi64> loc(#loc396)
    %segm_offset_287 = arith.extsi %segm_offset_285 : tensor<16xi32> to tensor<16xi64> loc(#loc396)
    %segm_offset_288 = arith.muli %segm_offset_286, %segm_offset_287 : tensor<16xi64> loc(#loc396)
    %segm_offset_289 = arith.constant 2147483647 : i64 loc(#loc396)
    %segm_offset_290 = arith.constant -2147483648 : i64 loc(#loc396)
    %segm_offset_291 = arith.constant dense<2147483647> : tensor<16xi64> loc(#loc396)
    %segm_offset_292 = arith.cmpi sle, %segm_offset_288, %segm_offset_291 : tensor<16xi64> loc(#loc396)
    %segm_offset_293 = arith.constant dense<-2147483648> : tensor<16xi64> loc(#loc396)
    %segm_offset_294 = arith.cmpi sge, %segm_offset_288, %segm_offset_293 : tensor<16xi64> loc(#loc396)
    %segm_offset_295 = arith.andi %segm_offset_292, %segm_offset_294 : tensor<16xi1> loc(#loc396)
    %segm_offset_296 = arith.muli %query_offset_1_113, %segm_offset_285 : tensor<16xi32> loc(#loc396)
    %segm_offset_297 = arith.extsi %segm_offset_296 : tensor<16xi32> to tensor<16xi64> loc(#loc397)
    %segm_offset_298 = arith.addi %segm_offset_282, %segm_offset_297 : tensor<16xi64> loc(#loc397)
    %segm_offset_299 = arith.extsi %segm_idx : i32 to i64 loc(#loc398)
    %segm_offset_300 = tt.splat %segm_offset_299 : i64 -> tensor<16xi64> loc(#loc398)
    %segm_offset_301 = arith.addi %segm_offset_298, %segm_offset_300 : tensor<16xi64> loc(#loc398)
    %59 = arith.andi %query_mask_0_149, %query_mask_1_161 : tensor<16xi1> loc(#loc172)
    %60 = tt.splat %segm_max_ptr : !tt.ptr<f32> -> tensor<16x!tt.ptr<f32>> loc(#loc173)
    %61 = tt.addptr %60, %segm_offset_301 : tensor<16x!tt.ptr<f32>>, tensor<16xi64> loc(#loc173)
    tt.store %61, %acc_236#0, %59 : tensor<16x!tt.ptr<f32>> loc(#loc174)
    %62 = arith.andi %query_mask_0_149, %query_mask_1_161 : tensor<16xi1> loc(#loc175)
    %63 = tt.splat %segm_expsum_ptr : !tt.ptr<f32> -> tensor<16x!tt.ptr<f32>> loc(#loc176)
    %64 = tt.addptr %63, %segm_offset_301 : tensor<16x!tt.ptr<f32>>, tensor<16xi64> loc(#loc176)
    tt.store %64, %acc_236#1, %62 : tensor<16x!tt.ptr<f32>> loc(#loc177)
    tt.return loc(#loc178)
  } loc(#loc)
  tt.func private @"vllm.attention.ops.triton_unified_attention.find_seq_idx__Pi32_i32_i32__(3,)cconstexpr_3__(4,)cconstexpr_True_"(%query_start_len_ptr: !tt.ptr<i32> loc("query_start_len_ptr"(#loc179)), %target_idx: i32 loc("target_idx"(#loc179)), %right: i32 loc("right"(#loc401))) -> i32 attributes {noinline = false} {
    %left = arith.constant 0 : i32 loc(#loc423)
    %right_0:2 = scf.while (%left_2 = %left, %right_3 = %right) : (i32, i32) -> (i32, i32) {
      %8 = arith.cmpi slt, %left_2, %right_3 : i32 loc(#loc182)
      scf.condition(%8) %left_2, %right_3 : i32, i32 loc(#loc182)
    } do {
    ^bb0(%left_2: i32 loc("left"(#loc183)), %right_3: i32 loc("right"(#loc184))):
      %mid = arith.extsi %left_2 : i32 to i64 loc(#loc406)
      %mid_4 = arith.extsi %right_3 : i32 to i64 loc(#loc406)
      %mid_5 = arith.addi %mid, %mid_4 : i64 loc(#loc406)
      %mid_6 = arith.constant 2147483647 : i64 loc(#loc406)
      %mid_7 = arith.constant -2147483648 : i64 loc(#loc406)
      %mid_8 = arith.cmpi sle, %mid_5, %mid_6 : i64 loc(#loc406)
      %mid_9 = arith.cmpi sge, %mid_5, %mid_7 : i64 loc(#loc406)
      %mid_10 = arith.andi %mid_8, %mid_9 : i1 loc(#loc406)
      %mid_11 = arith.addi %left_2, %right_3 : i32 loc(#loc406)
      %mid_12 = arith.constant 2 : i32 loc(#loc407)
      %mid_13 = arith.constant 2 : i32 loc(#loc407)
      %right_14 = arith.divsi %mid_11, %mid_13 : i32 loc(#loc425)
      %val = tt.addptr %query_start_len_ptr, %right_14 : !tt.ptr<i32>, i32 loc(#loc408)
      %val_15 = tt.load %val : !tt.ptr<i32> loc(#loc409)
      %mid_val = arith.constant 3 : i32 loc(#loc410)
      %mid_val_16 = arith.constant 3 : i32 loc(#loc410)
      %mid_val_17 = arith.divsi %val_15, %mid_val_16 : i32 loc(#loc410)
      %mid_val_18 = arith.extsi %mid_val_17 : i32 to i64 loc(#loc411)
      %mid_val_19 = arith.extsi %right_14 : i32 to i64 loc(#loc411)
      %mid_val_20 = arith.addi %mid_val_18, %mid_val_19 : i64 loc(#loc411)
      %mid_val_21 = arith.constant 2147483647 : i64 loc(#loc411)
      %mid_val_22 = arith.constant -2147483648 : i64 loc(#loc411)
      %mid_val_23 = arith.cmpi sle, %mid_val_20, %mid_val_21 : i64 loc(#loc411)
      %mid_val_24 = arith.cmpi sge, %mid_val_20, %mid_val_22 : i64 loc(#loc411)
      %mid_val_25 = arith.andi %mid_val_23, %mid_val_24 : i1 loc(#loc411)
      %mid_val_26 = arith.addi %mid_val_17, %right_14 : i32 loc(#loc411)
      %8 = arith.cmpi sle, %mid_val_26, %target_idx : i32 loc(#loc191)
      %9:2 = scf.if %8 -> (i32, i32) {
        %left_27 = arith.constant 1 : i32 loc(#loc412)
        %left_28 = arith.constant 1 : i32 loc(#loc412)
        %left_29 = arith.extsi %right_14 : i32 to i64 loc(#loc412)
        %left_30 = arith.extsi %left_28 : i32 to i64 loc(#loc412)
        %left_31 = arith.addi %left_29, %left_30 : i64 loc(#loc412)
        %left_32 = arith.constant 2147483647 : i64 loc(#loc412)
        %left_33 = arith.constant -2147483648 : i64 loc(#loc412)
        %left_34 = arith.cmpi sle, %left_31, %left_32 : i64 loc(#loc412)
        %left_35 = arith.cmpi sge, %left_31, %left_33 : i64 loc(#loc412)
        %left_36 = arith.andi %left_34, %left_35 : i1 loc(#loc412)
        %left_37 = arith.addi %right_14, %left_28 : i32 loc(#loc426)
        scf.yield %left_37, %right_3 : i32, i32 loc(#loc426)
      } else {
        scf.yield %left_2, %right_14 : i32, i32 loc(#loc19)
      } loc(#loc192)
      scf.yield %9#0, %9#1 : i32, i32 loc(#loc194)
    } loc(#loc424)
    %c1_i32 = arith.constant 1 : i32 loc(#loc195)
    %c1_i32_1 = arith.constant 1 : i32 loc(#loc195)
    %0 = arith.extsi %right_0#0 : i32 to i64 loc(#loc195)
    %1 = arith.extsi %c1_i32_1 : i32 to i64 loc(#loc195)
    %2 = arith.subi %0, %1 : i64 loc(#loc195)
    %c2147483647_i64 = arith.constant 2147483647 : i64 loc(#loc195)
    %c-2147483648_i64 = arith.constant -2147483648 : i64 loc(#loc195)
    %3 = arith.cmpi sle, %2, %c2147483647_i64 : i64 loc(#loc195)
    %4 = arith.cmpi sge, %2, %c-2147483648_i64 : i64 loc(#loc195)
    %5 = arith.andi %3, %4 : i1 loc(#loc195)
    %6 = arith.subi %right_0#0, %c1_i32_1 : i32 loc(#loc195)
    tt.return %6 : i32 loc(#loc196)
  ^bb1:  // no predecessors
    %7 = ub.poison : i32 loc(#loc197)
    tt.return %7 : i32 loc(#loc197)
  } loc(#loc179)
  tt.func private @vllm.attention.ops.triton_unified_attention.cdiv_fn__i32_i32__(%x: i32 loc("x"(#loc198)), %y: i32 loc("y"(#loc198))) -> i32 attributes {noinline = false} {
    %0 = arith.extsi %x : i32 to i64 loc(#loc199)
    %1 = arith.extsi %y : i32 to i64 loc(#loc199)
    %2 = arith.addi %0, %1 : i64 loc(#loc199)
    %c2147483647_i64 = arith.constant 2147483647 : i64 loc(#loc199)
    %c-2147483648_i64 = arith.constant -2147483648 : i64 loc(#loc199)
    %3 = arith.cmpi sle, %2, %c2147483647_i64 : i64 loc(#loc199)
    %4 = arith.cmpi sge, %2, %c-2147483648_i64 : i64 loc(#loc199)
    %5 = arith.andi %3, %4 : i1 loc(#loc199)
    %6 = arith.addi %x, %y : i32 loc(#loc199)
    %c1_i32 = arith.constant 1 : i32 loc(#loc200)
    %c1_i32_0 = arith.constant 1 : i32 loc(#loc200)
    %7 = arith.extsi %6 : i32 to i64 loc(#loc200)
    %8 = arith.extsi %c1_i32_0 : i32 to i64 loc(#loc200)
    %9 = arith.subi %7, %8 : i64 loc(#loc200)
    %c2147483647_i64_1 = arith.constant 2147483647 : i64 loc(#loc200)
    %c-2147483648_i64_2 = arith.constant -2147483648 : i64 loc(#loc200)
    %10 = arith.cmpi sle, %9, %c2147483647_i64_1 : i64 loc(#loc200)
    %11 = arith.cmpi sge, %9, %c-2147483648_i64_2 : i64 loc(#loc200)
    %12 = arith.andi %10, %11 : i1 loc(#loc200)
    %13 = arith.subi %6, %c1_i32_0 : i32 loc(#loc200)
    %14 = arith.divsi %13, %y : i32 loc(#loc201)
    tt.return %14 : i32 loc(#loc202)
  ^bb1:  // no predecessors
    %15 = ub.poison : i32 loc(#loc203)
    tt.return %15 : i32 loc(#loc203)
  } loc(#loc198)
  tt.func private @"triton.language.standard.zeros____(0, 0)cconstexpr_16__(0, 1)cconstexpr_128__(1,)cconstexpr_fp32_"() -> tensor<16x128xf32> attributes {noinline = false} {
    %cst = arith.constant 0.000000e+00 : f32 loc(#loc205)
    %cst_0 = arith.constant dense<0.000000e+00> : tensor<16x128xf32> loc(#loc205)
    tt.return %cst_0 : tensor<16x128xf32> loc(#loc206)
  ^bb1:  // no predecessors
    %0 = ub.poison : tensor<16x128xf32> loc(#loc207)
    tt.return %0 : tensor<16x128xf32> loc(#loc207)
  } loc(#loc204)
  tt.func private @"vllm.attention.ops.triton_unified_attention.cdiv_fn__i32__(1,)cconstexpr_16_"(%x: i32 loc("x"(#loc198))) -> i32 attributes {noinline = false} {
    %c16_i32 = arith.constant 16 : i32 loc(#loc199)
    %c16_i32_0 = arith.constant 16 : i32 loc(#loc199)
    %0 = arith.extsi %x : i32 to i64 loc(#loc199)
    %1 = arith.extsi %c16_i32_0 : i32 to i64 loc(#loc199)
    %2 = arith.addi %0, %1 : i64 loc(#loc199)
    %c2147483647_i64 = arith.constant 2147483647 : i64 loc(#loc199)
    %c-2147483648_i64 = arith.constant -2147483648 : i64 loc(#loc199)
    %3 = arith.cmpi sle, %2, %c2147483647_i64 : i64 loc(#loc199)
    %4 = arith.cmpi sge, %2, %c-2147483648_i64 : i64 loc(#loc199)
    %5 = arith.andi %3, %4 : i1 loc(#loc199)
    %6 = arith.addi %x, %c16_i32_0 : i32 loc(#loc199)
    %c1_i32 = arith.constant 1 : i32 loc(#loc200)
    %c1_i32_1 = arith.constant 1 : i32 loc(#loc200)
    %7 = arith.extsi %6 : i32 to i64 loc(#loc200)
    %8 = arith.extsi %c1_i32_1 : i32 to i64 loc(#loc200)
    %9 = arith.subi %7, %8 : i64 loc(#loc200)
    %c2147483647_i64_2 = arith.constant 2147483647 : i64 loc(#loc200)
    %c-2147483648_i64_3 = arith.constant -2147483648 : i64 loc(#loc200)
    %10 = arith.cmpi sle, %9, %c2147483647_i64_2 : i64 loc(#loc200)
    %11 = arith.cmpi sge, %9, %c-2147483648_i64_3 : i64 loc(#loc200)
    %12 = arith.andi %10, %11 : i1 loc(#loc200)
    %13 = arith.subi %6, %c1_i32_1 : i32 loc(#loc200)
    %c16_i32_4 = arith.constant 16 : i32 loc(#loc201)
    %c16_i32_5 = arith.constant 16 : i32 loc(#loc201)
    %14 = arith.divsi %13, %c16_i32_5 : i32 loc(#loc201)
    tt.return %14 : i32 loc(#loc202)
  ^bb1:  // no predecessors
    %15 = ub.poison : i32 loc(#loc203)
    tt.return %15 : i32 loc(#loc203)
  } loc(#loc198)
  tt.func private @"triton.language.standard.zeros____(0, 0)cconstexpr_16__(0, 1)cconstexpr_16__(1,)cconstexpr_fp32_"() -> tensor<16x16xf32> attributes {noinline = false} {
    %cst = arith.constant 0.000000e+00 : f32 loc(#loc205)
    %cst_0 = arith.constant dense<0.000000e+00> : tensor<16x16xf32> loc(#loc205)
    tt.return %cst_0 : tensor<16x16xf32> loc(#loc206)
  ^bb1:  // no predecessors
    %0 = ub.poison : tensor<16x16xf32> loc(#loc207)
    tt.return %0 : tensor<16x16xf32> loc(#loc207)
  } loc(#loc204)
  tt.func private @"triton.language.standard.max__fp32S16_16S__(1,)cconstexpr_1__(2,)cconstexpr_False__(3,)cconstexpr_True__(4,)cconstexpr_False_"(%input: tensor<16x16xf32> loc("input"(#loc208))) -> tensor<16xf32> attributes {noinline = false} {
    %0 = "tt.reduce"(%input) <{axis = 1 : i32}> ({
    ^bb0(%arg1: f32 loc(unknown), %arg2: f32 loc(unknown)):
      %2 = tt.call @triton.language.standard._elementwise_max__fp32_fp32__(%arg1, %arg2) : (f32, f32) -> f32 loc(#loc209)
      tt.reduce.return %2 : f32 loc(#loc209)
    }) : (tensor<16x16xf32>) -> tensor<16xf32> loc(#loc209)
    tt.return %0 : tensor<16xf32> loc(#loc210)
  ^bb1:  // no predecessors
    %1 = ub.poison : tensor<16xf32> loc(#loc211)
    tt.return %1 : tensor<16xf32> loc(#loc211)
  } loc(#loc208)
  tt.func private @triton.language.standard._elementwise_max__fp32_fp32__(%a: f32 loc("a"(#loc212)), %b: f32 loc("b"(#loc212))) -> f32 attributes {noinline = false} {
    %0 = arith.maxnumf %a, %b : f32 loc(#loc213)
    tt.return %0 : f32 loc(#loc214)
  ^bb1:  // no predecessors
    %1 = ub.poison : f32 loc(#loc215)
    tt.return %1 : f32 loc(#loc215)
  } loc(#loc212)
  tt.func private @"triton.language.standard.sum__fp32S16_16S__(1,)cconstexpr_1__(2,)cconstexpr_False__(3,)cNone"(%input: tensor<16x16xf32> loc("input"(#loc216))) -> tensor<16xf32> attributes {noinline = false} {
    %0 = "tt.reduce"(%input) <{axis = 1 : i32}> ({
    ^bb0(%arg1: f32 loc(unknown), %arg2: f32 loc(unknown)):
      %2 = tt.call @triton.language.standard._sum_combine__fp32_fp32__(%arg1, %arg2) : (f32, f32) -> f32 loc(#loc217)
      tt.reduce.return %2 : f32 loc(#loc217)
    }) : (tensor<16x16xf32>) -> tensor<16xf32> loc(#loc217)
    tt.return %0 : tensor<16xf32> loc(#loc218)
  ^bb1:  // no predecessors
    %1 = ub.poison : tensor<16xf32> loc(#loc219)
    tt.return %1 : tensor<16xf32> loc(#loc219)
  } loc(#loc216)
  tt.func private @triton.language.standard._sum_combine__fp32_fp32__(%a: f32 loc("a"(#loc220)), %b: f32 loc("b"(#loc220))) -> f32 attributes {noinline = false} {
    %0 = arith.addf %a, %b : f32 loc(#loc221)
    tt.return %0 : f32 loc(#loc222)
  ^bb1:  // no predecessors
    %1 = ub.poison : f32 loc(#loc223)
    tt.return %1 : f32 loc(#loc223)
  } loc(#loc220)
} loc(#loc)
#loc1 = loc("/root/miniconda3/envs/flagscale-inference/lib/python3.12/site-packages/vllm/attention/ops/triton_unified_attention.py":432:39)
#loc2 = loc("/root/miniconda3/envs/flagscale-inference/lib/python3.12/site-packages/vllm/attention/ops/triton_unified_attention.py":433:32)
#loc3 = loc("/root/miniconda3/envs/flagscale-inference/lib/python3.12/site-packages/vllm/attention/ops/triton_unified_attention.py":434:29)
#loc4 = loc("/root/miniconda3/envs/flagscale-inference/lib/python3.12/site-packages/vllm/attention/ops/triton_unified_attention.py":437:68)
#loc5 = loc("/root/miniconda3/envs/flagscale-inference/lib/python3.12/site-packages/vllm/attention/ops/triton_unified_attention.py":440:54)
#loc6 = loc("/root/miniconda3/envs/flagscale-inference/lib/python3.12/site-packages/vllm/attention/ops/triton_unified_attention.py":440:32)
#loc7 = loc("/root/miniconda3/envs/flagscale-inference/lib/python3.12/site-packages/vllm/attention/ops/triton_unified_attention.py":440:66)
#loc8 = loc("/root/miniconda3/envs/flagscale-inference/lib/python3.12/site-packages/vllm/attention/ops/triton_unified_attention.py":440:76)
#loc9 = loc("/root/miniconda3/envs/flagscale-inference/lib/python3.12/site-packages/vllm/attention/ops/triton_unified_attention.py":442:45)
#loc10 = loc("/root/miniconda3/envs/flagscale-inference/lib/python3.12/site-packages/vllm/attention/ops/triton_unified_attention.py":444:65)
#loc11 = loc("/root/miniconda3/envs/flagscale-inference/lib/python3.12/site-packages/vllm/attention/ops/triton_unified_attention.py":444:43)
#loc12 = loc("/root/miniconda3/envs/flagscale-inference/lib/python3.12/site-packages/vllm/attention/ops/triton_unified_attention.py":445:64)
#loc13 = loc("/root/miniconda3/envs/flagscale-inference/lib/python3.12/site-packages/vllm/attention/ops/triton_unified_attention.py":445:74)
#loc14 = loc("/root/miniconda3/envs/flagscale-inference/lib/python3.12/site-packages/vllm/attention/ops/triton_unified_attention.py":445:42)
#loc15 = loc("/root/miniconda3/envs/flagscale-inference/lib/python3.12/site-packages/vllm/attention/ops/triton_unified_attention.py":447:56)
#loc16 = loc("/root/miniconda3/envs/flagscale-inference/lib/python3.12/site-packages/vllm/attention/ops/triton_unified_attention.py":449:27)
#loc17 = loc("/root/miniconda3/envs/flagscale-inference/lib/python3.12/site-packages/vllm/attention/ops/triton_unified_attention.py":449:38)
#loc18 = loc("/root/miniconda3/envs/flagscale-inference/lib/python3.12/site-packages/vllm/attention/ops/triton_unified_attention.py":450:8)
#loc20 = loc("/root/miniconda3/envs/flagscale-inference/lib/python3.12/site-packages/vllm/attention/ops/triton_unified_attention.py":453:37)
#loc21 = loc("/root/miniconda3/envs/flagscale-inference/lib/python3.12/site-packages/vllm/attention/ops/triton_unified_attention.py":453:22)
#loc22 = loc("/root/miniconda3/envs/flagscale-inference/lib/python3.12/site-packages/vllm/attention/ops/triton_unified_attention.py":456:19)
#loc23 = loc("/root/miniconda3/envs/flagscale-inference/lib/python3.12/site-packages/vllm/attention/ops/triton_unified_attention.py":457:56)
#loc24 = loc("/root/miniconda3/envs/flagscale-inference/lib/python3.12/site-packages/vllm/attention/ops/triton_unified_attention.py":457:41)
#loc25 = loc("/root/miniconda3/envs/flagscale-inference/lib/python3.12/site-packages/vllm/attention/ops/triton_unified_attention.py":459:18)
#loc26 = loc("/root/miniconda3/envs/flagscale-inference/lib/python3.12/site-packages/vllm/attention/ops/triton_unified_attention.py":459:38)
#loc27 = loc("/root/miniconda3/envs/flagscale-inference/lib/python3.12/site-packages/vllm/attention/ops/triton_unified_attention.py":459:51)
#loc28 = loc("/root/miniconda3/envs/flagscale-inference/lib/python3.12/site-packages/vllm/attention/ops/triton_unified_attention.py":460:8)
#loc29 = loc("/root/miniconda3/envs/flagscale-inference/lib/python3.12/site-packages/vllm/attention/ops/triton_unified_attention.py":462:26)
#loc30 = loc("/root/miniconda3/envs/flagscale-inference/lib/python3.12/site-packages/vllm/attention/ops/triton_unified_attention.py":463:26)
#loc31 = loc("/root/miniconda3/envs/flagscale-inference/lib/python3.12/site-packages/vllm/attention/ops/triton_unified_attention.py":464:26)
#loc32 = loc("/root/miniconda3/envs/flagscale-inference/lib/python3.12/site-packages/vllm/attention/ops/triton_unified_attention.py":465:36)
#loc33 = loc("/root/miniconda3/envs/flagscale-inference/lib/python3.12/site-packages/vllm/attention/ops/triton_unified_attention.py":465:56)
#loc34 = loc("/root/miniconda3/envs/flagscale-inference/lib/python3.12/site-packages/vllm/attention/ops/triton_unified_attention.py":465:46)
#loc35 = loc("/root/miniconda3/envs/flagscale-inference/lib/python3.12/site-packages/vllm/attention/ops/triton_unified_attention.py":467:52)
#loc36 = loc("/root/miniconda3/envs/flagscale-inference/lib/python3.12/site-packages/vllm/attention/ops/triton_unified_attention.py":468:35)
#loc37 = loc("/root/miniconda3/envs/flagscale-inference/lib/python3.12/site-packages/vllm/attention/ops/triton_unified_attention.py":468:65)
#loc38 = loc("/root/miniconda3/envs/flagscale-inference/lib/python3.12/site-packages/vllm/attention/ops/triton_unified_attention.py":468:56)
#loc39 = loc("/root/miniconda3/envs/flagscale-inference/lib/python3.12/site-packages/vllm/attention/ops/triton_unified_attention.py":470:23)
#loc40 = loc("/root/miniconda3/envs/flagscale-inference/lib/python3.12/site-packages/vllm/attention/ops/triton_unified_attention.py":470:34)
#loc41 = loc("/root/miniconda3/envs/flagscale-inference/lib/python3.12/site-packages/vllm/attention/ops/triton_unified_attention.py":471:25)
#loc42 = loc("/root/miniconda3/envs/flagscale-inference/lib/python3.12/site-packages/vllm/attention/ops/triton_unified_attention.py":471:36)
#loc43 = loc("/root/miniconda3/envs/flagscale-inference/lib/python3.12/site-packages/vllm/attention/ops/triton_unified_attention.py":471:10)
#loc44 = loc("/root/miniconda3/envs/flagscale-inference/lib/python3.12/site-packages/vllm/attention/ops/triton_unified_attention.py":472:17)
#loc45 = loc("/root/miniconda3/envs/flagscale-inference/lib/python3.12/site-packages/vllm/attention/ops/triton_unified_attention.py":472:10)
#loc46 = loc("/root/miniconda3/envs/flagscale-inference/lib/python3.12/site-packages/vllm/attention/ops/triton_unified_attention.py":475:33)
#loc47 = loc("/root/miniconda3/envs/flagscale-inference/lib/python3.12/site-packages/vllm/attention/ops/triton_unified_attention.py":475:47)
#loc48 = loc("/root/miniconda3/envs/flagscale-inference/lib/python3.12/site-packages/vllm/attention/ops/triton_unified_attention.py":475:53)
#loc49 = loc("/root/miniconda3/envs/flagscale-inference/lib/python3.12/site-packages/vllm/attention/ops/triton_unified_attention.py":476:40)
#loc50 = loc("/root/miniconda3/envs/flagscale-inference/lib/python3.12/site-packages/vllm/attention/ops/triton_unified_attention.py":476:64)
#loc51 = loc("/root/miniconda3/envs/flagscale-inference/lib/python3.12/site-packages/vllm/attention/ops/triton_unified_attention.py":476:70)
#loc52 = loc("/root/miniconda3/envs/flagscale-inference/lib/python3.12/site-packages/vllm/attention/ops/triton_unified_attention.py":477:45)
#loc53 = loc("/root/miniconda3/envs/flagscale-inference/lib/python3.12/site-packages/vllm/attention/ops/triton_unified_attention.py":477:65)
#loc54 = loc("/root/miniconda3/envs/flagscale-inference/lib/python3.12/site-packages/vllm/attention/ops/triton_unified_attention.py":477:71)
#loc55 = loc("/root/miniconda3/envs/flagscale-inference/lib/python3.12/site-packages/vllm/attention/ops/triton_unified_attention.py":482:22)
#loc56 = loc("/root/miniconda3/envs/flagscale-inference/lib/python3.12/site-packages/vllm/attention/ops/triton_unified_attention.py":482:46)
#loc57 = loc("/root/miniconda3/envs/flagscale-inference/lib/python3.12/site-packages/vllm/attention/ops/triton_unified_attention.py":482:33)
#loc58 = loc("/root/miniconda3/envs/flagscale-inference/lib/python3.12/site-packages/vllm/attention/ops/triton_unified_attention.py":482:70)
#loc59 = loc("/root/miniconda3/envs/flagscale-inference/lib/python3.12/site-packages/vllm/attention/ops/triton_unified_attention.py":482:57)
#loc60 = loc("/root/miniconda3/envs/flagscale-inference/lib/python3.12/site-packages/vllm/attention/ops/triton_unified_attention.py":481:20)
#loc61 = loc("/root/miniconda3/envs/flagscale-inference/lib/python3.12/site-packages/vllm/attention/ops/triton_unified_attention.py":481:8)
#loc62 = loc("/root/miniconda3/envs/flagscale-inference/lib/python3.12/site-packages/vllm/attention/ops/triton_unified_attention.py":486:35)
#loc63 = loc("/root/miniconda3/envs/flagscale-inference/lib/python3.12/site-packages/vllm/attention/ops/triton_unified_attention.py":498:31)
#loc64 = loc("/root/miniconda3/envs/flagscale-inference/lib/python3.12/site-packages/vllm/attention/ops/triton_unified_attention.py":500:27)
#loc65 = loc("/root/miniconda3/envs/flagscale-inference/lib/python3.12/site-packages/vllm/attention/ops/triton_unified_attention.py":501:19)
#loc66 = loc("/root/miniconda3/envs/flagscale-inference/lib/python3.12/site-packages/vllm/attention/ops/triton_unified_attention.py":504:28)
#loc67 = loc("/root/miniconda3/envs/flagscale-inference/lib/python3.12/site-packages/vllm/attention/ops/triton_unified_attention.py":522:30)
#loc68 = loc("/root/miniconda3/envs/flagscale-inference/lib/python3.12/site-packages/vllm/attention/ops/triton_unified_attention.py":522:10)
#loc69 = loc("/root/miniconda3/envs/flagscale-inference/lib/python3.12/site-packages/vllm/attention/ops/triton_unified_attention.py":523:10)
#loc70 = loc("/root/miniconda3/envs/flagscale-inference/lib/python3.12/site-packages/vllm/attention/ops/triton_unified_attention.py":524:10)
#loc71 = loc("/root/miniconda3/envs/flagscale-inference/lib/python3.12/site-packages/vllm/attention/ops/triton_unified_attention.py":529:56)
#loc72 = loc("/root/miniconda3/envs/flagscale-inference/lib/python3.12/site-packages/vllm/attention/ops/triton_unified_attention.py":534:44)
#loc73 = loc("/root/miniconda3/envs/flagscale-inference/lib/python3.12/site-packages/vllm/attention/ops/triton_unified_attention.py":538:19)
#loc74 = loc("/root/miniconda3/envs/flagscale-inference/lib/python3.12/site-packages/vllm/attention/ops/triton_unified_attention.py":539:24)
#loc75 = loc("/root/miniconda3/envs/flagscale-inference/lib/python3.12/site-packages/vllm/attention/ops/triton_unified_attention.py":539:29)
#loc76 = loc("/root/miniconda3/envs/flagscale-inference/lib/python3.12/site-packages/vllm/attention/ops/triton_unified_attention.py":539:48)
#loc77 = loc("/root/miniconda3/envs/flagscale-inference/lib/python3.12/site-packages/vllm/attention/ops/triton_unified_attention.py":539:8)
#loc78 = loc("/root/miniconda3/envs/flagscale-inference/lib/python3.12/site-packages/vllm/attention/ops/triton_unified_attention.py":541:25)
#loc79 = loc("/root/miniconda3/envs/flagscale-inference/lib/python3.12/site-packages/vllm/attention/ops/triton_unified_attention.py":541:37)
#loc80 = loc("/root/miniconda3/envs/flagscale-inference/lib/python3.12/site-packages/vllm/attention/ops/triton_unified_attention.py":542:33)
#loc81 = loc("/root/miniconda3/envs/flagscale-inference/lib/python3.12/site-packages/vllm/attention/ops/triton_unified_attention.py":545:31)
#loc82 = loc("/root/miniconda3/envs/flagscale-inference/lib/python3.12/site-packages/vllm/attention/ops/triton_unified_attention.py":545:66)
#loc83 = loc("/root/miniconda3/envs/flagscale-inference/lib/python3.12/site-packages/vllm/attention/ops/triton_unified_attention.py":545:52)
#loc84 = loc("/root/miniconda3/envs/flagscale-inference/lib/python3.12/site-packages/vllm/attention/ops/triton_unified_attention.py":545:12)
#loc85 = loc("/root/miniconda3/envs/flagscale-inference/lib/python3.12/site-packages/vllm/attention/ops/triton_unified_attention.py":546:13)
#loc86 = loc("/root/miniconda3/envs/flagscale-inference/lib/python3.12/site-packages/vllm/attention/ops/triton_unified_attention.py":549:31)
#loc87 = loc("/root/miniconda3/envs/flagscale-inference/lib/python3.12/site-packages/vllm/attention/ops/triton_unified_attention.py":549:42)
#loc88 = loc("/root/miniconda3/envs/flagscale-inference/lib/python3.12/site-packages/vllm/attention/ops/triton_unified_attention.py":550:28)
#loc89 = loc("/root/miniconda3/envs/flagscale-inference/lib/python3.12/site-packages/vllm/attention/ops/triton_unified_attention.py":550:14)
#loc90 = loc("/root/miniconda3/envs/flagscale-inference/lib/python3.12/site-packages/vllm/attention/ops/triton_unified_attention.py":551:21)
#loc91 = loc("/root/miniconda3/envs/flagscale-inference/lib/python3.12/site-packages/vllm/attention/ops/triton_unified_attention.py":551:32)
#loc92 = loc("/root/miniconda3/envs/flagscale-inference/lib/python3.12/site-packages/vllm/attention/ops/triton_unified_attention.py":551:14)
#loc93 = loc("/root/miniconda3/envs/flagscale-inference/lib/python3.12/site-packages/vllm/attention/ops/triton_unified_attention.py":552:28)
#loc94 = loc("/root/miniconda3/envs/flagscale-inference/lib/python3.12/site-packages/vllm/attention/ops/triton_unified_attention.py":552:40)
#loc95 = loc("/root/miniconda3/envs/flagscale-inference/lib/python3.12/site-packages/vllm/attention/ops/triton_unified_attention.py":552:51)
#loc96 = loc("/root/miniconda3/envs/flagscale-inference/lib/python3.12/site-packages/vllm/attention/ops/triton_unified_attention.py":552:14)
#loc97 = loc("/root/miniconda3/envs/flagscale-inference/lib/python3.12/site-packages/vllm/attention/ops/triton_unified_attention.py":556:31)
#loc98 = loc("/root/miniconda3/envs/flagscale-inference/lib/python3.12/site-packages/vllm/attention/ops/triton_unified_attention.py":556:42)
#loc99 = loc("/root/miniconda3/envs/flagscale-inference/lib/python3.12/site-packages/vllm/attention/ops/triton_unified_attention.py":557:28)
#loc100 = loc("/root/miniconda3/envs/flagscale-inference/lib/python3.12/site-packages/vllm/attention/ops/triton_unified_attention.py":557:14)
#loc101 = loc("/root/miniconda3/envs/flagscale-inference/lib/python3.12/site-packages/vllm/attention/ops/triton_unified_attention.py":558:21)
#loc102 = loc("/root/miniconda3/envs/flagscale-inference/lib/python3.12/site-packages/vllm/attention/ops/triton_unified_attention.py":558:32)
#loc103 = loc("/root/miniconda3/envs/flagscale-inference/lib/python3.12/site-packages/vllm/attention/ops/triton_unified_attention.py":558:14)
#loc104 = loc("/root/miniconda3/envs/flagscale-inference/lib/python3.12/site-packages/vllm/attention/ops/triton_unified_attention.py":559:28)
#loc105 = loc("/root/miniconda3/envs/flagscale-inference/lib/python3.12/site-packages/vllm/attention/ops/triton_unified_attention.py":559:40)
#loc106 = loc("/root/miniconda3/envs/flagscale-inference/lib/python3.12/site-packages/vllm/attention/ops/triton_unified_attention.py":559:51)
#loc107 = loc("/root/miniconda3/envs/flagscale-inference/lib/python3.12/site-packages/vllm/attention/ops/triton_unified_attention.py":559:14)
#loc108 = loc("/root/miniconda3/envs/flagscale-inference/lib/python3.12/site-packages/vllm/attention/ops/triton_unified_attention.py":565:26)
#loc109 = loc("/root/miniconda3/envs/flagscale-inference/lib/python3.12/site-packages/vllm/attention/ops/triton_unified_attention.py":565:47)
#loc110 = loc("/root/miniconda3/envs/flagscale-inference/lib/python3.12/site-packages/vllm/attention/ops/triton_unified_attention.py":565:37)
#loc111 = loc("/root/miniconda3/envs/flagscale-inference/lib/python3.12/site-packages/vllm/attention/ops/triton_unified_attention.py":564:28)
#loc112 = loc("/root/miniconda3/envs/flagscale-inference/lib/python3.12/site-packages/vllm/attention/ops/triton_unified_attention.py":564:12)
#loc113 = loc("/root/miniconda3/envs/flagscale-inference/lib/python3.12/site-packages/vllm/attention/ops/triton_unified_attention.py":580:26)
#loc114 = loc("/root/miniconda3/envs/flagscale-inference/lib/python3.12/site-packages/vllm/attention/ops/triton_unified_attention.py":580:47)
#loc115 = loc("/root/miniconda3/envs/flagscale-inference/lib/python3.12/site-packages/vllm/attention/ops/triton_unified_attention.py":580:37)
#loc116 = loc("/root/miniconda3/envs/flagscale-inference/lib/python3.12/site-packages/vllm/attention/ops/triton_unified_attention.py":579:30)
#loc117 = loc("/root/miniconda3/envs/flagscale-inference/lib/python3.12/site-packages/vllm/attention/ops/triton_unified_attention.py":579:12)
#loc118 = loc("/root/miniconda3/envs/flagscale-inference/lib/python3.12/site-packages/vllm/attention/ops/triton_unified_attention.py":593:48)
#loc119 = loc("/root/miniconda3/envs/flagscale-inference/lib/python3.12/site-packages/vllm/attention/ops/triton_unified_attention.py":593:38)
#loc120 = loc("/root/miniconda3/envs/flagscale-inference/lib/python3.12/site-packages/vllm/attention/ops/triton_unified_attention.py":594:30)
#loc121 = loc("/root/miniconda3/envs/flagscale-inference/lib/python3.12/site-packages/vllm/attention/ops/triton_unified_attention.py":594:42)
#loc122 = loc("/root/miniconda3/envs/flagscale-inference/lib/python3.12/site-packages/vllm/attention/ops/triton_unified_attention.py":626:49)
#loc123 = loc("/root/miniconda3/envs/flagscale-inference/lib/python3.12/site-packages/vllm/attention/ops/triton_unified_attention.py":627:31)
#loc124 = loc("/root/miniconda3/envs/flagscale-inference/lib/python3.12/site-packages/vllm/attention/ops/triton_unified_attention.py":627:21)
#loc125 = loc("/root/miniconda3/envs/flagscale-inference/lib/python3.12/site-packages/vllm/attention/ops/triton_unified_attention.py":627:13)
#loc126 = loc("/root/miniconda3/envs/flagscale-inference/lib/python3.12/site-packages/vllm/attention/ops/triton_unified_attention.py":633:25)
#loc127 = loc("/root/miniconda3/envs/flagscale-inference/lib/python3.12/site-packages/vllm/attention/ops/triton_unified_attention.py":633:49)
#loc128 = loc("/root/miniconda3/envs/flagscale-inference/lib/python3.12/site-packages/vllm/attention/ops/triton_unified_attention.py":633:36)
#loc129 = loc("/root/miniconda3/envs/flagscale-inference/lib/python3.12/site-packages/vllm/attention/ops/triton_unified_attention.py":633:60)
#loc130 = loc("/root/miniconda3/envs/flagscale-inference/lib/python3.12/site-packages/vllm/attention/ops/triton_unified_attention.py":633:73)
#loc131 = loc("/root/miniconda3/envs/flagscale-inference/lib/python3.12/site-packages/vllm/attention/ops/triton_unified_attention.py":653:35)
#loc132 = loc("/root/miniconda3/envs/flagscale-inference/lib/python3.12/site-packages/vllm/attention/ops/triton_unified_attention.py":653:28)
#loc133 = loc("/root/miniconda3/envs/flagscale-inference/lib/python3.12/site-packages/vllm/attention/ops/triton_unified_attention.py":657:29)
#loc134 = loc("/root/miniconda3/envs/flagscale-inference/lib/python3.12/site-packages/vllm/attention/ops/triton_unified_attention.py":657:49)
#loc135 = loc("/root/miniconda3/envs/flagscale-inference/lib/python3.12/site-packages/vllm/attention/ops/triton_unified_attention.py":660:27)
#loc136 = loc("/root/miniconda3/envs/flagscale-inference/lib/python3.12/site-packages/vllm/attention/ops/triton_unified_attention.py":660:23)
#loc137 = loc("/root/miniconda3/envs/flagscale-inference/lib/python3.12/site-packages/vllm/attention/ops/triton_unified_attention.py":660:19)
#loc138 = loc("/root/miniconda3/envs/flagscale-inference/lib/python3.12/site-packages/vllm/attention/ops/triton_unified_attention.py":663:21)
#loc139 = loc("/root/miniconda3/envs/flagscale-inference/lib/python3.12/site-packages/vllm/attention/ops/triton_unified_attention.py":666:27)
#loc140 = loc("/root/miniconda3/envs/flagscale-inference/lib/python3.12/site-packages/vllm/attention/ops/triton_unified_attention.py":666:23)
#loc141 = loc("/root/miniconda3/envs/flagscale-inference/lib/python3.12/site-packages/vllm/attention/ops/triton_unified_attention.py":669:26)
#loc142 = loc("/root/miniconda3/envs/flagscale-inference/lib/python3.12/site-packages/vllm/attention/ops/triton_unified_attention.py":669:20)
#loc143 = loc("/root/miniconda3/envs/flagscale-inference/lib/python3.12/site-packages/vllm/attention/ops/triton_unified_attention.py":672:16)
#loc144 = loc("/root/miniconda3/envs/flagscale-inference/lib/python3.12/site-packages/vllm/attention/ops/triton_unified_attention.py":672:24)
#loc145 = loc("/root/miniconda3/envs/flagscale-inference/lib/python3.12/site-packages/vllm/attention/ops/triton_unified_attention.py":676:27)
#loc146 = loc("/root/miniconda3/envs/flagscale-inference/lib/python3.12/site-packages/vllm/attention/ops/triton_unified_attention.py":676:37)
#loc147 = loc("/root/miniconda3/envs/flagscale-inference/lib/python3.12/site-packages/vllm/attention/ops/triton_unified_attention.py":676:15)
#loc148 = loc("/root/miniconda3/envs/flagscale-inference/lib/python3.12/site-packages/vllm/attention/ops/triton_unified_attention.py":676:8)
#loc149 = loc("/root/miniconda3/envs/flagscale-inference/lib/python3.12/site-packages/vllm/attention/ops/triton_unified_attention.py":679:23)
#loc150 = loc("/root/miniconda3/envs/flagscale-inference/lib/python3.12/site-packages/vllm/attention/ops/triton_unified_attention.py":679:35)
#loc151 = loc("/root/miniconda3/envs/flagscale-inference/lib/python3.12/site-packages/vllm/attention/ops/triton_unified_attention.py":680:11)
#loc152 = loc("/root/miniconda3/envs/flagscale-inference/lib/python3.12/site-packages/vllm/attention/ops/triton_unified_attention.py":681:25)
#loc153 = loc("/root/miniconda3/envs/flagscale-inference/lib/python3.12/site-packages/vllm/attention/ops/triton_unified_attention.py":681:37)
#loc154 = loc("/root/miniconda3/envs/flagscale-inference/lib/python3.12/site-packages/vllm/attention/ops/triton_unified_attention.py":681:10)
#loc155 = loc("/root/miniconda3/envs/flagscale-inference/lib/python3.12/site-packages/vllm/attention/ops/triton_unified_attention.py":682:21)
#loc156 = loc("/root/miniconda3/envs/flagscale-inference/lib/python3.12/site-packages/vllm/attention/ops/triton_unified_attention.py":682:10)
#loc157 = loc("/root/miniconda3/envs/flagscale-inference/lib/python3.12/site-packages/vllm/attention/ops/triton_unified_attention.py":683:23)
#loc158 = loc("/root/miniconda3/envs/flagscale-inference/lib/python3.12/site-packages/vllm/attention/ops/triton_unified_attention.py":683:41)
#loc159 = loc("/root/miniconda3/envs/flagscale-inference/lib/python3.12/site-packages/vllm/attention/ops/triton_unified_attention.py":683:10)
#loc160 = loc("/root/miniconda3/envs/flagscale-inference/lib/python3.12/site-packages/vllm/attention/ops/triton_unified_attention.py":688:22)
#loc161 = loc("/root/miniconda3/envs/flagscale-inference/lib/python3.12/site-packages/vllm/attention/ops/triton_unified_attention.py":688:46)
#loc162 = loc("/root/miniconda3/envs/flagscale-inference/lib/python3.12/site-packages/vllm/attention/ops/triton_unified_attention.py":688:33)
#loc163 = loc("/root/miniconda3/envs/flagscale-inference/lib/python3.12/site-packages/vllm/attention/ops/triton_unified_attention.py":688:70)
#loc164 = loc("/root/miniconda3/envs/flagscale-inference/lib/python3.12/site-packages/vllm/attention/ops/triton_unified_attention.py":688:57)
#loc165 = loc("/root/miniconda3/envs/flagscale-inference/lib/python3.12/site-packages/vllm/attention/ops/triton_unified_attention.py":686:26)
#loc166 = loc("/root/miniconda3/envs/flagscale-inference/lib/python3.12/site-packages/vllm/attention/ops/triton_unified_attention.py":687:8)
#loc167 = loc("/root/miniconda3/envs/flagscale-inference/lib/python3.12/site-packages/vllm/attention/ops/triton_unified_attention.py":691:26)
#loc168 = loc("/root/miniconda3/envs/flagscale-inference/lib/python3.12/site-packages/vllm/attention/ops/triton_unified_attention.py":691:39)
#loc169 = loc("/root/miniconda3/envs/flagscale-inference/lib/python3.12/site-packages/vllm/attention/ops/triton_unified_attention.py":692:27)
#loc170 = loc("/root/miniconda3/envs/flagscale-inference/lib/python3.12/site-packages/vllm/attention/ops/triton_unified_attention.py":692:10)
#loc171 = loc("/root/miniconda3/envs/flagscale-inference/lib/python3.12/site-packages/vllm/attention/ops/triton_unified_attention.py":693:10)
#loc172 = loc("/root/miniconda3/envs/flagscale-inference/lib/python3.12/site-packages/vllm/attention/ops/triton_unified_attention.py":695:64)
#loc173 = loc("/root/miniconda3/envs/flagscale-inference/lib/python3.12/site-packages/vllm/attention/ops/triton_unified_attention.py":695:28)
#loc174 = loc("/root/miniconda3/envs/flagscale-inference/lib/python3.12/site-packages/vllm/attention/ops/triton_unified_attention.py":695:41)
#loc175 = loc("/root/miniconda3/envs/flagscale-inference/lib/python3.12/site-packages/vllm/attention/ops/triton_unified_attention.py":696:67)
#loc176 = loc("/root/miniconda3/envs/flagscale-inference/lib/python3.12/site-packages/vllm/attention/ops/triton_unified_attention.py":696:31)
#loc177 = loc("/root/miniconda3/envs/flagscale-inference/lib/python3.12/site-packages/vllm/attention/ops/triton_unified_attention.py":696:44)
#loc178 = loc("/root/miniconda3/envs/flagscale-inference/lib/python3.12/site-packages/vllm/attention/ops/triton_unified_attention.py":696:4)
#loc180 = loc("/root/miniconda3/envs/flagscale-inference/lib/python3.12/site-packages/vllm/attention/ops/triton_unified_attention.py":41:21)
#loc181 = loc("/root/miniconda3/envs/flagscale-inference/lib/python3.12/site-packages/vllm/attention/ops/triton_unified_attention.py":43:4)
#loc182 = loc("/root/miniconda3/envs/flagscale-inference/lib/python3.12/site-packages/vllm/attention/ops/triton_unified_attention.py":43:17)
#loc185 = loc("/root/miniconda3/envs/flagscale-inference/lib/python3.12/site-packages/vllm/attention/ops/triton_unified_attention.py":44:22)
#loc186 = loc("/root/miniconda3/envs/flagscale-inference/lib/python3.12/site-packages/vllm/attention/ops/triton_unified_attention.py":44:32)
#loc187 = loc("/root/miniconda3/envs/flagscale-inference/lib/python3.12/site-packages/vllm/attention/ops/triton_unified_attention.py":45:44)
#loc188 = loc("/root/miniconda3/envs/flagscale-inference/lib/python3.12/site-packages/vllm/attention/ops/triton_unified_attention.py":45:22)
#loc189 = loc("/root/miniconda3/envs/flagscale-inference/lib/python3.12/site-packages/vllm/attention/ops/triton_unified_attention.py":46:25)
#loc190 = loc("/root/miniconda3/envs/flagscale-inference/lib/python3.12/site-packages/vllm/attention/ops/triton_unified_attention.py":46:35)
#loc191 = loc("/root/miniconda3/envs/flagscale-inference/lib/python3.12/site-packages/vllm/attention/ops/triton_unified_attention.py":48:22)
#loc192 = loc("/root/miniconda3/envs/flagscale-inference/lib/python3.12/site-packages/vllm/attention/ops/triton_unified_attention.py":48:11)
#loc193 = loc("/root/miniconda3/envs/flagscale-inference/lib/python3.12/site-packages/vllm/attention/ops/triton_unified_attention.py":49:25)
#loc194 = loc("/root/miniconda3/envs/flagscale-inference/lib/python3.12/site-packages/vllm/attention/ops/triton_unified_attention.py":48:8)
#loc195 = loc("/root/miniconda3/envs/flagscale-inference/lib/python3.12/site-packages/vllm/attention/ops/triton_unified_attention.py":53:18)
#loc196 = loc("/root/miniconda3/envs/flagscale-inference/lib/python3.12/site-packages/vllm/attention/ops/triton_unified_attention.py":53:11)
#loc197 = loc("/root/miniconda3/envs/flagscale-inference/lib/python3.12/site-packages/vllm/attention/ops/triton_unified_attention.py":53:4)
#loc199 = loc("/root/miniconda3/envs/flagscale-inference/lib/python3.12/site-packages/vllm/attention/ops/triton_unified_attention.py":22:16)
#loc200 = loc("/root/miniconda3/envs/flagscale-inference/lib/python3.12/site-packages/vllm/attention/ops/triton_unified_attention.py":22:20)
#loc201 = loc("/root/miniconda3/envs/flagscale-inference/lib/python3.12/site-packages/vllm/attention/ops/triton_unified_attention.py":22:26)
#loc202 = loc("/root/miniconda3/envs/flagscale-inference/lib/python3.12/site-packages/vllm/attention/ops/triton_unified_attention.py":22:11)
#loc203 = loc("/root/miniconda3/envs/flagscale-inference/lib/python3.12/site-packages/vllm/attention/ops/triton_unified_attention.py":22:4)
#loc204 = loc("/root/miniconda3/envs/flagscale-inference/lib/python3.12/site-packages/triton/language/standard.py":118:0)
#loc205 = loc("/root/miniconda3/envs/flagscale-inference/lib/python3.12/site-packages/triton/language/standard.py":127:31)
#loc206 = loc("/root/miniconda3/envs/flagscale-inference/lib/python3.12/site-packages/triton/language/standard.py":127:11)
#loc207 = loc("/root/miniconda3/envs/flagscale-inference/lib/python3.12/site-packages/triton/language/standard.py":127:4)
#loc209 = loc("/root/miniconda3/envs/flagscale-inference/lib/python3.12/site-packages/triton/language/standard.py":189:40)
#loc210 = loc("/root/miniconda3/envs/flagscale-inference/lib/python3.12/site-packages/triton/language/standard.py":189:15)
#loc211 = loc("/root/miniconda3/envs/flagscale-inference/lib/python3.12/site-packages/triton/language/standard.py":177:4)
#loc213 = loc("/root/miniconda3/envs/flagscale-inference/lib/python3.12/site-packages/triton/language/standard.py":168:27)
#loc214 = loc("/root/miniconda3/envs/flagscale-inference/lib/python3.12/site-packages/triton/language/standard.py":168:11)
#loc215 = loc("/root/miniconda3/envs/flagscale-inference/lib/python3.12/site-packages/triton/language/standard.py":168:4)
#loc217 = loc("/root/miniconda3/envs/flagscale-inference/lib/python3.12/site-packages/triton/language/standard.py":291:36)
#loc218 = loc("/root/miniconda3/envs/flagscale-inference/lib/python3.12/site-packages/triton/language/standard.py":291:11)
#loc219 = loc("/root/miniconda3/envs/flagscale-inference/lib/python3.12/site-packages/triton/language/standard.py":291:4)
#loc221 = loc("/root/miniconda3/envs/flagscale-inference/lib/python3.12/site-packages/triton/language/standard.py":261:15)
#loc222 = loc("/root/miniconda3/envs/flagscale-inference/lib/python3.12/site-packages/triton/language/standard.py":261:11)
#loc223 = loc("/root/miniconda3/envs/flagscale-inference/lib/python3.12/site-packages/triton/language/standard.py":261:4)
#loc248 = loc("q_block_global_idx"(#loc1))
#loc249 = loc("kv_head_idx"(#loc2))
#loc250 = loc("segm_idx"(#loc3))
#loc251 = loc("seq_idx"(#loc4))
#loc252 = loc("q_block_start_idx"(#loc5))
#loc253 = loc("q_block_start_idx"(#loc6))
#loc254 = loc("q_block_start_idx"(#loc7))
#loc255 = loc("q_block_start_idx"(#loc8))
#loc256 = loc("q_block_local_idx"(#loc9))
#loc257 = loc("cur_batch_in_all_start_index"(#loc10))
#loc258 = loc("cur_batch_in_all_start_index"(#loc11))
#loc259 = loc("cur_batch_in_all_stop_index"(#loc12))
#loc260 = loc("cur_batch_in_all_stop_index"(#loc13))
#loc261 = loc("cur_batch_in_all_stop_index"(#loc14))
#loc262 = loc("cur_batch_query_len"(#loc15))
#loc263 = loc("seq_len"(#loc20))
#loc264 = loc("seq_len"(#loc21))
#loc265 = loc("num_segments"(#loc22))
#loc266 = loc("tiles_per_segment"(#loc23))
#loc267 = loc("tiles_per_segment"(#loc24))
#loc268 = loc("offs_m"(#loc29))
#loc269 = loc("offs_d"(#loc30))
#loc270 = loc("offs_t"(#loc31))
#loc271 = loc("query_pos"(#loc32))
#loc272 = loc("query_pos"(#loc33))
#loc273 = loc("query_pos"(#loc34))
#loc274 = loc("query_offset_0"(#loc35))
#loc275 = loc("query_offset_1"(#loc36))
#loc276 = loc("query_offset_1"(#loc37))
#loc277 = loc("query_offset_1"(#loc38))
#loc278 = loc("query_offset"(#loc39))
#loc279 = loc("query_offset"(#loc40))
#loc280 = loc("query_offset"(#loc41))
#loc281 = loc("query_offset"(#loc42))
#loc282 = loc("query_offset"(#loc43))
#loc283 = loc("query_offset"(#loc44))
#loc284 = loc("query_offset"(#loc45))
#loc285 = loc("dim_mask"(#loc46))
#loc286 = loc("dim_mask"(#loc47))
#loc287 = loc("dim_mask"(#loc48))
#loc288 = loc("query_mask_0"(#loc49))
#loc289 = loc("query_mask_0"(#loc50))
#loc290 = loc("query_mask_0"(#loc51))
#loc291 = loc("query_mask_1"(#loc52))
#loc292 = loc("query_mask_1"(#loc53))
#loc293 = loc("query_mask_1"(#loc54))
#loc294 = loc("Q"(#loc55))
#loc295 = loc("Q"(#loc56))
#loc296 = loc("Q"(#loc57))
#loc297 = loc("Q"(#loc58))
#loc298 = loc("Q"(#loc59))
#loc299 = loc("Q"(#loc60))
#loc300 = loc("Q"(#loc61))
#loc301 = loc("block_table_offset"(#loc62))
#loc302 = loc("M"(#loc63))
#loc303 = loc("L"(#loc64))
#loc304 = loc("acc"(#loc65))
#loc305 = loc("context_len"(#loc66))
#loc306 = loc("max_seq_prefix_len"(#loc67))
#loc307 = loc("max_seq_prefix_len"(#loc68))
#loc308 = loc("max_seq_prefix_len"(#loc69))
#loc309 = loc("max_seq_prefix_len"(#loc70))
#loc310 = loc("max_seq_prefix_len"(#loc71))
#loc311 = loc("num_tiles"(#loc72))
#loc312 = loc("M"(#loc77))
#loc313 = loc("seq_offset"(#loc78))
#loc314 = loc("seq_offset"(#loc79))
#loc315 = loc("tile_mask"(#loc80))
#loc316 = loc("physical_block_idx"(#loc81))
#loc317 = loc("physical_block_idx"(#loc82))
#loc318 = loc("physical_block_idx"(#loc83))
#loc319 = loc("physical_block_idx"(#loc84))
#loc320 = loc("physical_block_idx"(#loc85))
#loc321 = loc("v_offset"(#loc86))
#loc322 = loc("v_offset"(#loc87))
#loc323 = loc("v_offset"(#loc88))
#loc324 = loc("v_offset"(#loc89))
#loc325 = loc("v_offset"(#loc90))
#loc326 = loc("v_offset"(#loc91))
#loc327 = loc("v_offset"(#loc92))
#loc328 = loc("v_offset"(#loc93))
#loc329 = loc("v_offset"(#loc94))
#loc330 = loc("v_offset"(#loc95))
#loc331 = loc("v_offset"(#loc96))
#loc332 = loc("k_offset"(#loc97))
#loc333 = loc("k_offset"(#loc98))
#loc334 = loc("k_offset"(#loc99))
#loc335 = loc("k_offset"(#loc100))
#loc336 = loc("k_offset"(#loc101))
#loc337 = loc("k_offset"(#loc102))
#loc338 = loc("k_offset"(#loc103))
#loc339 = loc("k_offset"(#loc104))
#loc340 = loc("k_offset"(#loc105))
#loc341 = loc("k_offset"(#loc106))
#loc342 = loc("k_offset"(#loc107))
#loc343 = loc("K_load"(#loc108))
#loc344 = loc("K_load"(#loc109))
#loc345 = loc("K_load"(#loc110))
#loc346 = loc("K_load"(#loc111))
#loc347 = loc("K_load"(#loc112))
#loc348 = loc("V_load"(#loc113))
#loc349 = loc("V_load"(#loc114))
#loc350 = loc("V_load"(#loc115))
#loc351 = loc("V_load"(#loc116))
#loc352 = loc("V_load"(#loc117))
#loc353 = loc("query_abs_pos"(#loc118))
#loc354 = loc("query_abs_pos"(#loc119))
#loc355 = loc("seq_mask"(#loc120))
#loc356 = loc("seq_mask"(#loc121))
#loc357 = loc("S"(#loc122))
#loc358 = loc("S"(#loc123))
#loc359 = loc("S"(#loc124))
#loc360 = loc("S"(#loc125))
#loc361 = loc("S"(#loc126))
#loc362 = loc("S"(#loc127))
#loc363 = loc("S"(#loc128))
#loc364 = loc("S"(#loc129))
#loc365 = loc("S"(#loc130))
#loc366 = loc("m_j"(#loc131))
#loc367 = loc("m_j"(#loc132))
#loc368 = loc("m_j"(#loc133))
#loc369 = loc("m_j"(#loc134))
#loc370 = loc("P"(#loc135))
#loc371 = loc("P"(#loc136))
#loc372 = loc("P"(#loc137))
#loc373 = loc("l_j"(#loc138))
#loc374 = loc("alpha"(#loc139))
#loc375 = loc("alpha"(#loc140))
#loc376 = loc("acc"(#loc141))
#loc377 = loc("acc"(#loc142))
#loc378 = loc("L"(#loc143))
#loc379 = loc("L"(#loc144))
#loc380 = loc("acc"(#loc145))
#loc381 = loc("acc"(#loc146))
#loc382 = loc("acc"(#loc147))
#loc383 = loc("segm_output_offset"(#loc149))
#loc384 = loc("segm_output_offset"(#loc150))
#loc385 = loc("segm_output_offset"(#loc151))
#loc386 = loc("segm_output_offset"(#loc152))
#loc387 = loc("segm_output_offset"(#loc153))
#loc388 = loc("segm_output_offset"(#loc154))
#loc389 = loc("segm_output_offset"(#loc155))
#loc390 = loc("segm_output_offset"(#loc156))
#loc391 = loc("segm_output_offset"(#loc157))
#loc392 = loc("segm_output_offset"(#loc158))
#loc393 = loc("segm_output_offset"(#loc159))
#loc394 = loc("segm_offset"(#loc167))
#loc395 = loc("segm_offset"(#loc168))
#loc396 = loc("segm_offset"(#loc169))
#loc397 = loc("segm_offset"(#loc170))
#loc398 = loc("segm_offset"(#loc171))
#loc402 = loc("left"(#loc180))
#loc403 = loc("left"(#loc181))
#loc406 = loc("mid"(#loc185))
#loc407 = loc("mid"(#loc186))
#loc408 = loc("val"(#loc187))
#loc409 = loc("val"(#loc188))
#loc410 = loc("mid_val"(#loc189))
#loc411 = loc("mid_val"(#loc190))
#loc412 = loc("left"(#loc193))
#loc421 = loc("L"(#loc312))
#loc423 = loc("left"(#loc402))
#loc424 = loc("right"(#loc403))
#loc425 = loc("right"(#loc407))
#loc426 = loc("left"(#loc412))
#loc427 = loc("acc"(#loc421))
