#loc = loc("/root/miniconda3/envs/flagscale-inference/lib/python3.12/site-packages/vllm/attention/ops/triton_unified_attention.py":383:0)
#loc1 = loc(unknown)
#loc3 = loc("/root/miniconda3/envs/flagscale-inference/lib/python3.12/site-packages/vllm/attention/ops/triton_unified_attention.py":437:68)
#loc9 = loc("left")
#loc10 = loc("right")
#loc128 = loc("/root/miniconda3/envs/flagscale-inference/lib/python3.12/site-packages/vllm/attention/ops/triton_unified_attention.py":653:35)
#loc137 = loc("/root/miniconda3/envs/flagscale-inference/lib/python3.12/site-packages/vllm/attention/ops/triton_unified_attention.py":663:21)
#loc167 = loc("segm_output_ptr"(#loc))
#loc168 = loc("segm_max_ptr"(#loc))
#loc169 = loc("segm_expsum_ptr"(#loc))
#loc170 = loc("query_ptr"(#loc))
#loc171 = loc("key_cache_ptr"(#loc))
#loc172 = loc("value_cache_ptr"(#loc))
#loc173 = loc("block_tables_ptr"(#loc))
#loc174 = loc("seq_lens_ptr"(#loc))
#loc175 = loc("scale"(#loc))
#loc176 = loc("k_scale"(#loc))
#loc177 = loc("v_scale"(#loc))
#loc178 = loc("softcap"(#loc))
#loc179 = loc("block_table_stride"(#loc))
#loc180 = loc("query_stride_0"(#loc))
#loc181 = loc("query_stride_1"(#loc))
#loc182 = loc("qq_bias_stride_0"(#loc))
#loc183 = loc("stride_k_cache_0"(#loc))
#loc184 = loc("stride_k_cache_1"(#loc))
#loc185 = loc("stride_k_cache_2"(#loc))
#loc186 = loc("stride_v_cache_0"(#loc))
#loc187 = loc("stride_v_cache_1"(#loc))
#loc188 = loc("stride_v_cache_2"(#loc))
#loc189 = loc("query_start_len_ptr"(#loc))
#loc190 = loc("num_seqs"(#loc))
#loc192 = loc("seq_idx"(#loc3))
#loc197 = loc("left"(#loc9))
#loc198 = loc("right"(#loc10))
#loc300 = loc("m_j"(#loc128))
#loc307 = loc("l_j"(#loc137))
#loc331 = loc(callsite(#loc197 at #loc192))
#loc332 = loc(callsite(#loc198 at #loc192))
#loc350 = loc(callsite(#loc1 at #loc300))
#loc352 = loc(callsite(#loc1 at #loc307))
module {
  tt.func public @kernel_unified_attention_3d(%segm_output_ptr: !tt.ptr<f32> {tt.divisibility = 16 : i32} loc("segm_output_ptr"(#loc)), %segm_max_ptr: !tt.ptr<f32> {tt.divisibility = 16 : i32} loc("segm_max_ptr"(#loc)), %segm_expsum_ptr: !tt.ptr<f32> {tt.divisibility = 16 : i32} loc("segm_expsum_ptr"(#loc)), %query_ptr: !tt.ptr<bf16> {tt.divisibility = 16 : i32} loc("query_ptr"(#loc)), %key_cache_ptr: !tt.ptr<bf16> {tt.divisibility = 16 : i32} loc("key_cache_ptr"(#loc)), %value_cache_ptr: !tt.ptr<bf16> {tt.divisibility = 16 : i32} loc("value_cache_ptr"(#loc)), %block_tables_ptr: !tt.ptr<i32> {tt.divisibility = 16 : i32} loc("block_tables_ptr"(#loc)), %seq_lens_ptr: !tt.ptr<i32> {tt.divisibility = 16 : i32} loc("seq_lens_ptr"(#loc)), %scale: f32 loc("scale"(#loc)), %k_scale: !tt.ptr<f32> {tt.divisibility = 16 : i32} loc("k_scale"(#loc)), %v_scale: !tt.ptr<f32> {tt.divisibility = 16 : i32} loc("v_scale"(#loc)), %softcap: i32 {tt.divisibility = 16 : i32} loc("softcap"(#loc)), %block_table_stride: i64 {tt.divisibility = 16 : i32} loc("block_table_stride"(#loc)), %query_stride_0: i64 {tt.divisibility = 16 : i32} loc("query_stride_0"(#loc)), %query_stride_1: i64 {tt.divisibility = 16 : i32} loc("query_stride_1"(#loc)), %qq_bias_stride_0: i64 {tt.divisibility = 16 : i32} loc("qq_bias_stride_0"(#loc)), %stride_k_cache_0: i64 {tt.divisibility = 16 : i32} loc("stride_k_cache_0"(#loc)), %stride_k_cache_1: i64 {tt.divisibility = 16 : i32} loc("stride_k_cache_1"(#loc)), %stride_k_cache_2: i64 {tt.divisibility = 16 : i32} loc("stride_k_cache_2"(#loc)), %stride_v_cache_0: i64 {tt.divisibility = 16 : i32} loc("stride_v_cache_0"(#loc)), %stride_v_cache_1: i64 {tt.divisibility = 16 : i32} loc("stride_v_cache_1"(#loc)), %stride_v_cache_2: i64 {tt.divisibility = 16 : i32} loc("stride_v_cache_2"(#loc)), %query_start_len_ptr: !tt.ptr<i32> {tt.divisibility = 16 : i32} loc("query_start_len_ptr"(#loc)), %num_seqs: i32 {tt.divisibility = 16 : i32} loc("num_seqs"(#loc))) attributes {noinline = false} {
    %c255_i32 = arith.constant 255 : i32 loc(#loc1)
    %c15_i32 = arith.constant 15 : i32 loc(#loc1)
    %left = arith.constant 0 : i32 loc(#loc353)
    %seq_idx = arith.constant 2 : i32 loc(#loc328)
    %cst = arith.constant dense<0.000000e+00> : tensor<128x16xbf16> loc(#loc1)
    %c4_i32 = arith.constant 4 : i32 loc(#loc1)
    %cst_0 = arith.constant dense<0.000000e+00> : tensor<16x128xbf16> loc(#loc1)
    %c256_i32 = arith.constant 256 : i32 loc(#loc1)
    %cst_1 = arith.constant dense<640> : tensor<16xi64> loc(#loc1)
    %cst_2 = arith.constant dense<2048> : tensor<16x1xi32> loc(#loc1)
    %cst_3 = arith.constant dense<81920> : tensor<16x1xi64> loc(#loc1)
    %cst_4 = arith.constant dense<0.000000e+00> : tensor<16xf32> loc(#loc1)
    %cst_5 = arith.constant dense<0xFF800000> : tensor<16x16xf32> loc(#loc1)
    %cst_6 = arith.constant dense<0.000000e+00> : tensor<16x16xf32> loc(#loc1)
    %cst_7 = arith.constant dense<16> : tensor<16xi32> loc(#loc1)
    %cst_8 = arith.constant dense<1.000000e+00> : tensor<16xf32> loc(#loc1)
    %cst_9 = arith.constant dense<0xFF800000> : tensor<16xf32> loc(#loc1)
    %cst_10 = arith.constant dense<0.000000e+00> : tensor<16x128xf32> loc(#loc1)
    %cst_11 = arith.constant dense<40> : tensor<16xi32> loc(#loc1)
    %cst_12 = arith.constant dense<0> : tensor<16xi32> loc(#loc1)
    %cst_13 = arith.constant dense<1> : tensor<16xi32> loc(#loc1)
    %cst_14 = arith.constant dense<0> : tensor<128xi32> loc(#loc1)
    %cst_15 = arith.constant dense<1> : tensor<128xi32> loc(#loc1)
    %cst_16 = arith.constant dense<128> : tensor<128xi32> loc(#loc1)
    %c128_i32 = arith.constant 128 : i32 loc(#loc1)
    %cst_17 = arith.constant dense<5> : tensor<16xi32> loc(#loc1)
    %c5_i32 = arith.constant 5 : i32 loc(#loc1)
    %c16_i32 = arith.constant 16 : i32 loc(#loc1)
    %c1_i32 = arith.constant 1 : i32 loc(#loc1)
    %c3_i32 = arith.constant 3 : i32 loc(#loc1)
    %q_block_global_idx = tt.get_program_id x : i32 loc(#loc193)
    %kv_head_idx = tt.get_program_id y : i32 loc(#loc194)
    %segm_idx = tt.get_program_id z : i32 loc(#loc195)
    %right:2 = scf.while (%left_81 = %left, %right_82 = %num_seqs) : (i32, i32) -> (i32, i32) {
      %seq_idx_83 = arith.cmpi slt, %left_81, %right_82 : i32 loc(#loc330)
      scf.condition(%seq_idx_83) %left_81, %right_82 : i32, i32 loc(#loc330)
    } do {
    ^bb0(%left_81: i32 loc(callsite(#loc197 at #loc192)), %right_82: i32 loc(callsite(#loc198 at #loc192))):
      %mid = arith.addi %left_81, %right_82 : i32 loc(#loc333)
      %right_83 = arith.divsi %mid, %seq_idx : i32 loc(#loc355)
      %val = tt.addptr %query_start_len_ptr, %right_83 : !tt.ptr<i32>, i32 loc(#loc335)
      %val_84 = tt.load %val : !tt.ptr<i32> loc(#loc336)
      %mid_val = arith.divsi %val_84, %c3_i32 : i32 loc(#loc337)
      %mid_val_85 = arith.addi %mid_val, %right_83 : i32 loc(#loc338)
      %seq_idx_86 = arith.cmpi sle, %mid_val_85, %q_block_global_idx : i32 loc(#loc339)
      %seq_idx_87 = arith.select %seq_idx_86, %right_82, %right_83 : i32 loc(#loc340)
      %seq_idx_88 = scf.if %seq_idx_86 -> (i32) {
        %left_89 = arith.addi %right_83, %c1_i32 : i32 loc(#loc356)
        scf.yield %left_89 : i32 loc(#loc356)
      } else {
        scf.yield %left_81 : i32 loc(#loc328)
      } loc(#loc340)
      scf.yield %seq_idx_88, %seq_idx_87 : i32, i32 loc(#loc342)
    } loc(#loc354)
    %seq_idx_18 = arith.subi %right#0, %c1_i32 : i32 loc(#loc343)
    %q_block_start_idx = tt.addptr %query_start_len_ptr, %seq_idx_18 : !tt.ptr<i32>, i32 loc(#loc206)
    %q_block_start_idx_19 = tt.load %q_block_start_idx : !tt.ptr<i32> loc(#loc207)
    %q_block_start_idx_20 = arith.divsi %q_block_start_idx_19, %c3_i32 : i32 loc(#loc208)
    %q_block_start_idx_21 = arith.addi %q_block_start_idx_20, %seq_idx_18 : i32 loc(#loc209)
    %q_block_local_idx = arith.subi %q_block_global_idx, %q_block_start_idx_21 : i32 loc(#loc210)
    %cur_batch_in_all_stop_index = tt.addptr %q_block_start_idx, %c1_i32 : !tt.ptr<i32>, i32 loc(#loc211)
    %cur_batch_in_all_stop_index_22 = tt.load %cur_batch_in_all_stop_index : !tt.ptr<i32> loc(#loc212)
    %cur_batch_query_len = arith.subi %cur_batch_in_all_stop_index_22, %q_block_start_idx_19 : i32 loc(#loc213)
    %0 = arith.muli %q_block_local_idx, %c3_i32 : i32 loc(#loc30)
    %1 = arith.cmpi sge, %0, %cur_batch_query_len : i32 loc(#loc31)
    cf.cond_br %1, ^bb1, ^bb2 loc(#loc31)
  ^bb1:  // 2 preds: ^bb0, ^bb2
    tt.return loc(#loc32)
  ^bb2:  // pred: ^bb0
    %seq_len = tt.addptr %seq_lens_ptr, %seq_idx_18 : !tt.ptr<i32>, i32 loc(#loc214)
    %seq_len_23 = tt.load %seq_len : !tt.ptr<i32> loc(#loc215)
    %tiles_per_segment = arith.addi %seq_len_23, %c255_i32 : i32 loc(#loc344)
    %tiles_per_segment_24 = arith.divsi %tiles_per_segment, %c256_i32 : i32 loc(#loc345)
    %2 = arith.muli %segm_idx, %tiles_per_segment_24 : i32 loc(#loc38)
    %3 = arith.muli %2, %c16_i32 : i32 loc(#loc39)
    %4 = arith.cmpi sge, %3, %seq_len_23 : i32 loc(#loc40)
    cf.cond_br %4, ^bb1, ^bb3 loc(#loc40)
  ^bb3:  // pred: ^bb2
    %offs_m = tt.make_range {end = 16 : i32, start = 0 : i32} : tensor<16xi32> loc(#loc217)
    %offs_d = tt.make_range {end = 128 : i32, start = 0 : i32} : tensor<128xi32> loc(#loc218)
    %query_pos = arith.divsi %offs_m, %cst_17 : tensor<16xi32> loc(#loc219)
    %query_pos_25 = tt.splat %0 : i32 -> tensor<16xi32> loc(#loc220)
    %query_pos_26 = arith.addi %query_pos_25, %query_pos : tensor<16xi32> loc(#loc220)
    %query_offset_0 = tt.splat %q_block_start_idx_19 : i32 -> tensor<16xi32> loc(#loc221)
    %query_offset_0_27 = arith.addi %query_offset_0, %query_pos_26 : tensor<16xi32> loc(#loc221)
    %query_offset_1 = arith.muli %kv_head_idx, %c5_i32 : i32 loc(#loc222)
    %query_offset_1_28 = arith.remsi %offs_m, %cst_17 : tensor<16xi32> loc(#loc223)
    %query_offset_1_29 = tt.splat %query_offset_1 : i32 -> tensor<16xi32> loc(#loc224)
    %query_offset_1_30 = arith.addi %query_offset_1_29, %query_offset_1_28 : tensor<16xi32> loc(#loc224)
    %query_offset = tt.expand_dims %query_offset_0_27 {axis = 1 : i32} : tensor<16xi32> -> tensor<16x1xi32> loc(#loc225)
    %query_offset_31 = arith.extsi %query_offset : tensor<16x1xi32> to tensor<16x1xi64> loc(#loc226)
    %query_offset_32 = tt.splat %query_stride_0 : i64 -> tensor<16x1xi64> loc(#loc226)
    %query_offset_33 = arith.muli %query_offset_31, %query_offset_32 : tensor<16x1xi64> loc(#loc226)
    %query_offset_34 = tt.expand_dims %query_offset_1_30 {axis = 1 : i32} : tensor<16xi32> -> tensor<16x1xi32> loc(#loc227)
    %query_offset_35 = arith.extsi %query_offset_34 : tensor<16x1xi32> to tensor<16x1xi64> loc(#loc228)
    %query_offset_36 = tt.splat %query_stride_1 : i64 -> tensor<16x1xi64> loc(#loc228)
    %query_offset_37 = arith.muli %query_offset_35, %query_offset_36 : tensor<16x1xi64> loc(#loc228)
    %query_offset_38 = arith.addi %query_offset_33, %query_offset_37 : tensor<16x1xi64> loc(#loc229)
    %query_offset_39 = tt.expand_dims %offs_d {axis = 0 : i32} : tensor<128xi32> -> tensor<1x128xi32> loc(#loc230)
    %query_offset_40 = arith.extsi %query_offset_39 : tensor<1x128xi32> to tensor<1x128xi64> loc(#loc231)
    %query_offset_41 = tt.broadcast %query_offset_38 : tensor<16x1xi64> -> tensor<16x128xi64> loc(#loc231)
    %query_offset_42 = tt.broadcast %query_offset_40 : tensor<1x128xi64> -> tensor<16x128xi64> loc(#loc231)
    %query_offset_43 = arith.addi %query_offset_41, %query_offset_42 : tensor<16x128xi64> loc(#loc231)
    %dim_mask = arith.cmpi slt, %offs_d, %cst_16 : tensor<128xi32> loc(#loc232)
    %dim_mask_44 = arith.select %dim_mask, %cst_15, %cst_14 : tensor<128xi1>, tensor<128xi32> loc(#loc233)
    %dim_mask_45 = arith.cmpi ne, %dim_mask_44, %cst_14 : tensor<128xi32> loc(#loc234)
    %query_mask_0 = tt.splat %cur_batch_query_len : i32 -> tensor<16xi32> loc(#loc235)
    %query_mask_0_46 = arith.cmpi slt, %query_pos_26, %query_mask_0 : tensor<16xi32> loc(#loc235)
    %query_mask_0_47 = arith.select %query_mask_0_46, %cst_13, %cst_12 : tensor<16xi1>, tensor<16xi32> loc(#loc236)
    %query_mask_0_48 = arith.cmpi ne, %query_mask_0_47, %cst_12 : tensor<16xi32> loc(#loc237)
    %query_mask_1 = arith.cmpi slt, %query_offset_1_30, %cst_11 : tensor<16xi32> loc(#loc238)
    %query_mask_1_49 = arith.select %query_mask_1, %cst_13, %cst_12 : tensor<16xi1>, tensor<16xi32> loc(#loc239)
    %query_mask_1_50 = arith.cmpi ne, %query_mask_1_49, %cst_12 : tensor<16xi32> loc(#loc240)
    %Q = tt.expand_dims %dim_mask_45 {axis = 0 : i32} : tensor<128xi1> -> tensor<1x128xi1> loc(#loc241)
    %Q_51 = tt.expand_dims %query_mask_0_48 {axis = 1 : i32} : tensor<16xi1> -> tensor<16x1xi1> loc(#loc242)
    %Q_52 = tt.broadcast %Q : tensor<1x128xi1> -> tensor<16x128xi1> loc(#loc243)
    %Q_53 = tt.broadcast %Q_51 : tensor<16x1xi1> -> tensor<16x128xi1> loc(#loc243)
    %Q_54 = arith.andi %Q_52, %Q_53 : tensor<16x128xi1> loc(#loc243)
    %Q_55 = tt.expand_dims %query_mask_1_50 {axis = 1 : i32} : tensor<16xi1> -> tensor<16x1xi1> loc(#loc244)
    %Q_56 = tt.broadcast %Q_55 : tensor<16x1xi1> -> tensor<16x128xi1> loc(#loc245)
    %Q_57 = arith.andi %Q_54, %Q_56 : tensor<16x128xi1> loc(#loc245)
    %Q_58 = tt.splat %query_ptr : !tt.ptr<bf16> -> tensor<16x128x!tt.ptr<bf16>> loc(#loc246)
    %Q_59 = tt.addptr %Q_58, %query_offset_43 : tensor<16x128x!tt.ptr<bf16>>, tensor<16x128xi64> loc(#loc246)
    %Q_60 = tt.load %Q_59, %Q_57, %cst_0 : tensor<16x128x!tt.ptr<bf16>> loc(#loc247)
    %block_table_offset = arith.extsi %seq_idx_18 : i32 to i64 loc(#loc248)
    %block_table_offset_61 = arith.muli %block_table_offset, %block_table_stride : i64 loc(#loc248)
    %context_len = arith.subi %seq_len_23, %cur_batch_query_len : i32 loc(#loc249)
    %max_seq_prefix_len = arith.addi %context_len, %0 : i32 loc(#loc250)
    %max_seq_prefix_len_62 = arith.addi %max_seq_prefix_len, %c4_i32 : i32 loc(#loc251)
    %max_seq_prefix_len_63 = arith.minsi %max_seq_prefix_len_62, %seq_len_23 : i32 loc(#loc252)
    %num_tiles = arith.addi %max_seq_prefix_len_63, %c15_i32 : i32 loc(#loc346)
    %num_tiles_64 = arith.divsi %num_tiles, %c16_i32 : i32 loc(#loc347)
    %5 = arith.addi %segm_idx, %c1_i32 : i32 loc(#loc78)
    %6 = arith.muli %5, %tiles_per_segment_24 : i32 loc(#loc79)
    %7 = arith.minsi %6, %num_tiles_64 : i32 loc(#loc80)
    %acc:3 = scf.for %j = %2 to %7 step %c1_i32 iter_args(%M = %cst_9, %L = %cst_8, %acc_81 = %cst_10) -> (tensor<16xf32>, tensor<16xf32>, tensor<16x128xf32>)  : i32 {
      %seq_offset = arith.muli %j, %c16_i32 : i32 loc(#loc255)
      %seq_offset_82 = tt.splat %seq_offset : i32 -> tensor<16xi32> loc(#loc256)
      %seq_offset_83 = arith.addi %seq_offset_82, %offs_m : tensor<16xi32> loc(#loc256)
      %tile_mask = tt.splat %max_seq_prefix_len_63 : i32 -> tensor<16xi32> loc(#loc257)
      %tile_mask_84 = arith.cmpi slt, %seq_offset_83, %tile_mask : tensor<16xi32> loc(#loc257)
      %physical_block_idx = tt.addptr %block_tables_ptr, %block_table_offset_61 : !tt.ptr<i32>, i64 loc(#loc258)
      %physical_block_idx_85 = arith.divsi %seq_offset_83, %cst_7 : tensor<16xi32> loc(#loc259)
      %physical_block_idx_86 = tt.splat %physical_block_idx : !tt.ptr<i32> -> tensor<16x!tt.ptr<i32>> loc(#loc260)
      %physical_block_idx_87 = tt.addptr %physical_block_idx_86, %physical_block_idx_85 : tensor<16x!tt.ptr<i32>>, tensor<16xi32> loc(#loc260)
      %physical_block_idx_88 = tt.load %physical_block_idx_87 : tensor<16x!tt.ptr<i32>> loc(#loc261)
      %physical_block_idx_89 = arith.extsi %physical_block_idx_88 : tensor<16xi32> to tensor<16xi64> loc(#loc262)
      %v_offset = tt.expand_dims %physical_block_idx_89 {axis = 1 : i32} : tensor<16xi64> -> tensor<16x1xi64> loc(#loc263)
      %v_offset_90 = tt.splat %stride_v_cache_0 : i64 -> tensor<16x1xi64> loc(#loc264)
      %v_offset_91 = arith.muli %v_offset, %v_offset_90 : tensor<16x1xi64> loc(#loc264)
      %v_offset_92 = arith.extsi %kv_head_idx : i32 to i64 loc(#loc265)
      %v_offset_93 = arith.muli %v_offset_92, %stride_v_cache_2 : i64 loc(#loc265)
      %v_offset_94 = tt.splat %v_offset_93 : i64 -> tensor<16x1xi64> loc(#loc266)
      %v_offset_95 = arith.addi %v_offset_91, %v_offset_94 : tensor<16x1xi64> loc(#loc266)
      %v_offset_96 = tt.broadcast %v_offset_95 : tensor<16x1xi64> -> tensor<16x128xi64> loc(#loc267)
      %v_offset_97 = arith.addi %v_offset_96, %query_offset_42 : tensor<16x128xi64> loc(#loc267)
      %v_offset_98 = arith.remsi %seq_offset_83, %cst_7 : tensor<16xi32> loc(#loc268)
      %v_offset_99 = tt.expand_dims %v_offset_98 {axis = 1 : i32} : tensor<16xi32> -> tensor<16x1xi32> loc(#loc269)
      %v_offset_100 = arith.extsi %v_offset_99 : tensor<16x1xi32> to tensor<16x1xi64> loc(#loc270)
      %v_offset_101 = tt.splat %stride_v_cache_1 : i64 -> tensor<16x1xi64> loc(#loc270)
      %v_offset_102 = arith.muli %v_offset_100, %v_offset_101 : tensor<16x1xi64> loc(#loc270)
      %v_offset_103 = tt.broadcast %v_offset_102 : tensor<16x1xi64> -> tensor<16x128xi64> loc(#loc271)
      %v_offset_104 = arith.addi %v_offset_97, %v_offset_103 : tensor<16x128xi64> loc(#loc271)
      %k_offset = tt.expand_dims %physical_block_idx_89 {axis = 0 : i32} : tensor<16xi64> -> tensor<1x16xi64> loc(#loc272)
      %k_offset_105 = tt.splat %stride_k_cache_0 : i64 -> tensor<1x16xi64> loc(#loc273)
      %k_offset_106 = arith.muli %k_offset, %k_offset_105 : tensor<1x16xi64> loc(#loc273)
      %k_offset_107 = arith.muli %v_offset_92, %stride_k_cache_2 : i64 loc(#loc274)
      %k_offset_108 = tt.splat %k_offset_107 : i64 -> tensor<1x16xi64> loc(#loc275)
      %k_offset_109 = arith.addi %k_offset_106, %k_offset_108 : tensor<1x16xi64> loc(#loc275)
      %k_offset_110 = tt.expand_dims %offs_d {axis = 1 : i32} : tensor<128xi32> -> tensor<128x1xi32> loc(#loc276)
      %k_offset_111 = arith.extsi %k_offset_110 : tensor<128x1xi32> to tensor<128x1xi64> loc(#loc277)
      %k_offset_112 = tt.broadcast %k_offset_109 : tensor<1x16xi64> -> tensor<128x16xi64> loc(#loc277)
      %k_offset_113 = tt.broadcast %k_offset_111 : tensor<128x1xi64> -> tensor<128x16xi64> loc(#loc277)
      %k_offset_114 = arith.addi %k_offset_112, %k_offset_113 : tensor<128x16xi64> loc(#loc277)
      %k_offset_115 = tt.expand_dims %v_offset_98 {axis = 0 : i32} : tensor<16xi32> -> tensor<1x16xi32> loc(#loc278)
      %k_offset_116 = arith.extsi %k_offset_115 : tensor<1x16xi32> to tensor<1x16xi64> loc(#loc279)
      %k_offset_117 = tt.splat %stride_k_cache_1 : i64 -> tensor<1x16xi64> loc(#loc279)
      %k_offset_118 = arith.muli %k_offset_116, %k_offset_117 : tensor<1x16xi64> loc(#loc279)
      %k_offset_119 = tt.broadcast %k_offset_118 : tensor<1x16xi64> -> tensor<128x16xi64> loc(#loc280)
      %k_offset_120 = arith.addi %k_offset_114, %k_offset_119 : tensor<128x16xi64> loc(#loc280)
      %K_load = tt.expand_dims %dim_mask_45 {axis = 1 : i32} : tensor<128xi1> -> tensor<128x1xi1> loc(#loc281)
      %K_load_121 = tt.expand_dims %tile_mask_84 {axis = 0 : i32} : tensor<16xi1> -> tensor<1x16xi1> loc(#loc282)
      %K_load_122 = tt.broadcast %K_load : tensor<128x1xi1> -> tensor<128x16xi1> loc(#loc283)
      %K_load_123 = tt.broadcast %K_load_121 : tensor<1x16xi1> -> tensor<128x16xi1> loc(#loc283)
      %K_load_124 = arith.andi %K_load_122, %K_load_123 : tensor<128x16xi1> loc(#loc283)
      %K_load_125 = tt.splat %key_cache_ptr : !tt.ptr<bf16> -> tensor<128x16x!tt.ptr<bf16>> loc(#loc284)
      %K_load_126 = tt.addptr %K_load_125, %k_offset_120 : tensor<128x16x!tt.ptr<bf16>>, tensor<128x16xi64> loc(#loc284)
      %K_load_127 = tt.load %K_load_126, %K_load_124, %cst : tensor<128x16x!tt.ptr<bf16>> loc(#loc285)
      %V_load = tt.expand_dims %tile_mask_84 {axis = 1 : i32} : tensor<16xi1> -> tensor<16x1xi1> loc(#loc286)
      %V_load_128 = tt.broadcast %V_load : tensor<16x1xi1> -> tensor<16x128xi1> loc(#loc287)
      %V_load_129 = arith.andi %Q_52, %V_load_128 : tensor<16x128xi1> loc(#loc287)
      %V_load_130 = tt.splat %value_cache_ptr : !tt.ptr<bf16> -> tensor<16x128x!tt.ptr<bf16>> loc(#loc288)
      %V_load_131 = tt.addptr %V_load_130, %v_offset_104 : tensor<16x128x!tt.ptr<bf16>>, tensor<16x128xi64> loc(#loc288)
      %V_load_132 = tt.load %V_load_131, %V_load_129, %cst_0 : tensor<16x128x!tt.ptr<bf16>> loc(#loc289)
      %query_abs_pos = tt.expand_dims %query_pos_26 {axis = 1 : i32} : tensor<16xi32> -> tensor<16x1xi32> loc(#loc290)
      %query_abs_pos_133 = tt.splat %context_len : i32 -> tensor<16x1xi32> loc(#loc291)
      %query_abs_pos_134 = arith.addi %query_abs_pos_133, %query_abs_pos : tensor<16x1xi32> loc(#loc291)
      %seq_mask = tt.expand_dims %seq_offset_83 {axis = 0 : i32} : tensor<16xi32> -> tensor<1x16xi32> loc(#loc292)
      %seq_mask_135 = tt.broadcast %seq_mask : tensor<1x16xi32> -> tensor<16x16xi32> loc(#loc293)
      %seq_mask_136 = tt.broadcast %query_abs_pos_134 : tensor<16x1xi32> -> tensor<16x16xi32> loc(#loc293)
      %seq_mask_137 = arith.cmpi sle, %seq_mask_135, %seq_mask_136 : tensor<16x16xi32> loc(#loc293)
      %S = tt.dot %Q_60, %K_load_127, %cst_6, inputPrecision = tf32 : tensor<16x128xbf16> * tensor<128x16xbf16> -> tensor<16x16xf32> loc(#loc294)
      %S_138 = tt.splat %scale : f32 -> tensor<16x16xf32> loc(#loc295)
      %S_139 = arith.mulf %S_138, %S : tensor<16x16xf32> loc(#loc295)
      %S_140 = arith.addf %S_139, %cst_6 : tensor<16x16xf32> loc(#loc296)
      %S_141 = arith.andi %Q_55, %Q_51 : tensor<16x1xi1> loc(#loc297)
      %S_142 = tt.broadcast %S_141 : tensor<16x1xi1> -> tensor<16x16xi1> loc(#loc298)
      %S_143 = arith.andi %S_142, %seq_mask_137 : tensor<16x16xi1> loc(#loc298)
      %S_144 = arith.select %S_143, %S_140, %cst_5 : tensor<16x16xi1>, tensor<16x16xf32> loc(#loc299)
      %m_j = "tt.reduce"(%S_144) <{axis = 1 : i32}> ({
      ^bb0(%m_j_159: f32 loc(callsite(#loc1 at #loc300)), %m_j_160: f32 loc(callsite(#loc1 at #loc300))):
        %m_j_161 = arith.maxnumf %m_j_159, %m_j_160 : f32 loc(#loc358)
        tt.reduce.return %m_j_161 : f32 loc(#loc349)
      }) : (tensor<16x16xf32>) -> tensor<16xf32> loc(#loc349)
      %m_j_145 = arith.maxnumf %M, %m_j : tensor<16xf32> loc(#loc301)
      %m_j_146 = arith.cmpf ogt, %m_j_145, %cst_9 : tensor<16xf32> loc(#loc302)
      %m_j_147 = arith.select %m_j_146, %m_j_145, %cst_4 : tensor<16xi1>, tensor<16xf32> loc(#loc303)
      %P = tt.expand_dims %m_j_147 {axis = 1 : i32} : tensor<16xf32> -> tensor<16x1xf32> loc(#loc304)
      %P_148 = tt.broadcast %P : tensor<16x1xf32> -> tensor<16x16xf32> loc(#loc305)
      %P_149 = arith.subf %S_144, %P_148 : tensor<16x16xf32> loc(#loc305)
      %P_150 = math.exp %P_149 : tensor<16x16xf32> loc(#loc306)
      %l_j = "tt.reduce"(%P_150) <{axis = 1 : i32}> ({
      ^bb0(%l_j_159: f32 loc(callsite(#loc1 at #loc307)), %l_j_160: f32 loc(callsite(#loc1 at #loc307))):
        %l_j_161 = arith.addf %l_j_159, %l_j_160 : f32 loc(#loc359)
        tt.reduce.return %l_j_161 : f32 loc(#loc351)
      }) : (tensor<16x16xf32>) -> tensor<16xf32> loc(#loc351)
      %alpha = arith.subf %M, %m_j_147 : tensor<16xf32> loc(#loc308)
      %alpha_151 = math.exp %alpha : tensor<16xf32> loc(#loc309)
      %acc_152 = tt.expand_dims %alpha_151 {axis = 1 : i32} : tensor<16xf32> -> tensor<16x1xf32> loc(#loc310)
      %acc_153 = tt.broadcast %acc_152 : tensor<16x1xf32> -> tensor<16x128xf32> loc(#loc311)
      %acc_154 = arith.mulf %acc_81, %acc_153 : tensor<16x128xf32> loc(#loc311)
      %L_155 = arith.mulf %L, %alpha_151 : tensor<16xf32> loc(#loc312)
      %L_156 = arith.addf %L_155, %l_j : tensor<16xf32> loc(#loc313)
      %acc_157 = arith.truncf %P_150 : tensor<16x16xf32> to tensor<16x16xbf16> loc(#loc314)
      %acc_158 = tt.dot %acc_157, %V_load_132, %acc_154, inputPrecision = tf32 : tensor<16x16xbf16> * tensor<16x128xbf16> -> tensor<16x128xf32> loc(#loc315)
      scf.yield %m_j_147, %L_156, %acc_158 : tensor<16xf32>, tensor<16xf32>, tensor<16x128xf32> loc(#loc147)
    } loc(#loc357)
    %segm_output_offset = arith.muli %query_offset_31, %cst_3 : tensor<16x1xi64> loc(#loc316)
    %segm_output_offset_65 = arith.muli %query_offset_34, %cst_2 : tensor<16x1xi32> loc(#loc317)
    %segm_output_offset_66 = arith.extsi %segm_output_offset_65 : tensor<16x1xi32> to tensor<16x1xi64> loc(#loc318)
    %segm_output_offset_67 = arith.addi %segm_output_offset, %segm_output_offset_66 : tensor<16x1xi64> loc(#loc318)
    %segm_output_offset_68 = arith.muli %segm_idx, %c128_i32 : i32 loc(#loc319)
    %segm_output_offset_69 = arith.extsi %segm_output_offset_68 : i32 to i64 loc(#loc320)
    %segm_output_offset_70 = tt.splat %segm_output_offset_69 : i64 -> tensor<16x1xi64> loc(#loc320)
    %segm_output_offset_71 = arith.addi %segm_output_offset_67, %segm_output_offset_70 : tensor<16x1xi64> loc(#loc320)
    %segm_output_offset_72 = tt.broadcast %segm_output_offset_71 : tensor<16x1xi64> -> tensor<16x128xi64> loc(#loc321)
    %segm_output_offset_73 = arith.addi %segm_output_offset_72, %query_offset_42 : tensor<16x128xi64> loc(#loc321)
    %8 = tt.splat %segm_output_ptr : !tt.ptr<f32> -> tensor<16x128x!tt.ptr<f32>> loc(#loc154)
    %9 = tt.addptr %8, %segm_output_offset_73 : tensor<16x128x!tt.ptr<f32>>, tensor<16x128xi64> loc(#loc154)
    tt.store %9, %acc#2, %Q_57 : tensor<16x128x!tt.ptr<f32>> loc(#loc155)
    %segm_offset = arith.extsi %query_offset_0_27 : tensor<16xi32> to tensor<16xi64> loc(#loc322)
    %segm_offset_74 = arith.muli %segm_offset, %cst_1 : tensor<16xi64> loc(#loc323)
    %segm_offset_75 = arith.muli %query_offset_1_30, %cst_7 : tensor<16xi32> loc(#loc324)
    %segm_offset_76 = arith.extsi %segm_offset_75 : tensor<16xi32> to tensor<16xi64> loc(#loc325)
    %segm_offset_77 = arith.addi %segm_offset_74, %segm_offset_76 : tensor<16xi64> loc(#loc325)
    %segm_offset_78 = arith.extsi %segm_idx : i32 to i64 loc(#loc326)
    %segm_offset_79 = tt.splat %segm_offset_78 : i64 -> tensor<16xi64> loc(#loc326)
    %segm_offset_80 = arith.addi %segm_offset_77, %segm_offset_79 : tensor<16xi64> loc(#loc326)
    %10 = arith.andi %query_mask_0_48, %query_mask_1_50 : tensor<16xi1> loc(#loc161)
    %11 = tt.splat %segm_max_ptr : !tt.ptr<f32> -> tensor<16x!tt.ptr<f32>> loc(#loc162)
    %12 = tt.addptr %11, %segm_offset_80 : tensor<16x!tt.ptr<f32>>, tensor<16xi64> loc(#loc162)
    tt.store %12, %acc#0, %10 : tensor<16x!tt.ptr<f32>> loc(#loc163)
    %13 = tt.splat %segm_expsum_ptr : !tt.ptr<f32> -> tensor<16x!tt.ptr<f32>> loc(#loc164)
    %14 = tt.addptr %13, %segm_offset_80 : tensor<16x!tt.ptr<f32>>, tensor<16xi64> loc(#loc164)
    tt.store %14, %acc#1, %10 : tensor<16x!tt.ptr<f32>> loc(#loc165)
    tt.return loc(#loc166)
  } loc(#loc)
} loc(#loc)
#loc2 = loc("/root/miniconda3/envs/flagscale-inference/lib/python3.12/site-packages/vllm/attention/ops/triton_unified_attention.py":41:21)
#loc4 = loc("/root/miniconda3/envs/flagscale-inference/lib/python3.12/site-packages/vllm/attention/ops/triton_unified_attention.py":432:39)
#loc5 = loc("/root/miniconda3/envs/flagscale-inference/lib/python3.12/site-packages/vllm/attention/ops/triton_unified_attention.py":433:32)
#loc6 = loc("/root/miniconda3/envs/flagscale-inference/lib/python3.12/site-packages/vllm/attention/ops/triton_unified_attention.py":434:29)
#loc7 = loc("/root/miniconda3/envs/flagscale-inference/lib/python3.12/site-packages/vllm/attention/ops/triton_unified_attention.py":43:4)
#loc8 = loc("/root/miniconda3/envs/flagscale-inference/lib/python3.12/site-packages/vllm/attention/ops/triton_unified_attention.py":43:17)
#loc11 = loc("/root/miniconda3/envs/flagscale-inference/lib/python3.12/site-packages/vllm/attention/ops/triton_unified_attention.py":44:22)
#loc12 = loc("/root/miniconda3/envs/flagscale-inference/lib/python3.12/site-packages/vllm/attention/ops/triton_unified_attention.py":44:32)
#loc13 = loc("/root/miniconda3/envs/flagscale-inference/lib/python3.12/site-packages/vllm/attention/ops/triton_unified_attention.py":45:44)
#loc14 = loc("/root/miniconda3/envs/flagscale-inference/lib/python3.12/site-packages/vllm/attention/ops/triton_unified_attention.py":45:22)
#loc15 = loc("/root/miniconda3/envs/flagscale-inference/lib/python3.12/site-packages/vllm/attention/ops/triton_unified_attention.py":46:25)
#loc16 = loc("/root/miniconda3/envs/flagscale-inference/lib/python3.12/site-packages/vllm/attention/ops/triton_unified_attention.py":46:35)
#loc17 = loc("/root/miniconda3/envs/flagscale-inference/lib/python3.12/site-packages/vllm/attention/ops/triton_unified_attention.py":48:22)
#loc18 = loc("/root/miniconda3/envs/flagscale-inference/lib/python3.12/site-packages/vllm/attention/ops/triton_unified_attention.py":48:11)
#loc19 = loc("/root/miniconda3/envs/flagscale-inference/lib/python3.12/site-packages/vllm/attention/ops/triton_unified_attention.py":49:25)
#loc20 = loc("/root/miniconda3/envs/flagscale-inference/lib/python3.12/site-packages/vllm/attention/ops/triton_unified_attention.py":48:8)
#loc21 = loc("/root/miniconda3/envs/flagscale-inference/lib/python3.12/site-packages/vllm/attention/ops/triton_unified_attention.py":53:18)
#loc22 = loc("/root/miniconda3/envs/flagscale-inference/lib/python3.12/site-packages/vllm/attention/ops/triton_unified_attention.py":440:54)
#loc23 = loc("/root/miniconda3/envs/flagscale-inference/lib/python3.12/site-packages/vllm/attention/ops/triton_unified_attention.py":440:32)
#loc24 = loc("/root/miniconda3/envs/flagscale-inference/lib/python3.12/site-packages/vllm/attention/ops/triton_unified_attention.py":440:66)
#loc25 = loc("/root/miniconda3/envs/flagscale-inference/lib/python3.12/site-packages/vllm/attention/ops/triton_unified_attention.py":440:76)
#loc26 = loc("/root/miniconda3/envs/flagscale-inference/lib/python3.12/site-packages/vllm/attention/ops/triton_unified_attention.py":442:45)
#loc27 = loc("/root/miniconda3/envs/flagscale-inference/lib/python3.12/site-packages/vllm/attention/ops/triton_unified_attention.py":445:74)
#loc28 = loc("/root/miniconda3/envs/flagscale-inference/lib/python3.12/site-packages/vllm/attention/ops/triton_unified_attention.py":445:42)
#loc29 = loc("/root/miniconda3/envs/flagscale-inference/lib/python3.12/site-packages/vllm/attention/ops/triton_unified_attention.py":447:56)
#loc30 = loc("/root/miniconda3/envs/flagscale-inference/lib/python3.12/site-packages/vllm/attention/ops/triton_unified_attention.py":449:27)
#loc31 = loc("/root/miniconda3/envs/flagscale-inference/lib/python3.12/site-packages/vllm/attention/ops/triton_unified_attention.py":449:38)
#loc32 = loc("/root/miniconda3/envs/flagscale-inference/lib/python3.12/site-packages/vllm/attention/ops/triton_unified_attention.py":450:8)
#loc33 = loc("/root/miniconda3/envs/flagscale-inference/lib/python3.12/site-packages/vllm/attention/ops/triton_unified_attention.py":453:37)
#loc34 = loc("/root/miniconda3/envs/flagscale-inference/lib/python3.12/site-packages/vllm/attention/ops/triton_unified_attention.py":453:22)
#loc35 = loc("/root/miniconda3/envs/flagscale-inference/lib/python3.12/site-packages/vllm/attention/ops/triton_unified_attention.py":22:20)
#loc36 = loc("/root/miniconda3/envs/flagscale-inference/lib/python3.12/site-packages/vllm/attention/ops/triton_unified_attention.py":457:41)
#loc37 = loc("/root/miniconda3/envs/flagscale-inference/lib/python3.12/site-packages/vllm/attention/ops/triton_unified_attention.py":22:26)
#loc38 = loc("/root/miniconda3/envs/flagscale-inference/lib/python3.12/site-packages/vllm/attention/ops/triton_unified_attention.py":459:18)
#loc39 = loc("/root/miniconda3/envs/flagscale-inference/lib/python3.12/site-packages/vllm/attention/ops/triton_unified_attention.py":459:38)
#loc40 = loc("/root/miniconda3/envs/flagscale-inference/lib/python3.12/site-packages/vllm/attention/ops/triton_unified_attention.py":459:51)
#loc41 = loc("/root/miniconda3/envs/flagscale-inference/lib/python3.12/site-packages/vllm/attention/ops/triton_unified_attention.py":462:26)
#loc42 = loc("/root/miniconda3/envs/flagscale-inference/lib/python3.12/site-packages/vllm/attention/ops/triton_unified_attention.py":463:26)
#loc43 = loc("/root/miniconda3/envs/flagscale-inference/lib/python3.12/site-packages/vllm/attention/ops/triton_unified_attention.py":465:56)
#loc44 = loc("/root/miniconda3/envs/flagscale-inference/lib/python3.12/site-packages/vllm/attention/ops/triton_unified_attention.py":465:46)
#loc45 = loc("/root/miniconda3/envs/flagscale-inference/lib/python3.12/site-packages/vllm/attention/ops/triton_unified_attention.py":467:52)
#loc46 = loc("/root/miniconda3/envs/flagscale-inference/lib/python3.12/site-packages/vllm/attention/ops/triton_unified_attention.py":468:35)
#loc47 = loc("/root/miniconda3/envs/flagscale-inference/lib/python3.12/site-packages/vllm/attention/ops/triton_unified_attention.py":468:65)
#loc48 = loc("/root/miniconda3/envs/flagscale-inference/lib/python3.12/site-packages/vllm/attention/ops/triton_unified_attention.py":468:56)
#loc49 = loc("/root/miniconda3/envs/flagscale-inference/lib/python3.12/site-packages/vllm/attention/ops/triton_unified_attention.py":470:23)
#loc50 = loc("/root/miniconda3/envs/flagscale-inference/lib/python3.12/site-packages/vllm/attention/ops/triton_unified_attention.py":470:34)
#loc51 = loc("/root/miniconda3/envs/flagscale-inference/lib/python3.12/site-packages/vllm/attention/ops/triton_unified_attention.py":471:25)
#loc52 = loc("/root/miniconda3/envs/flagscale-inference/lib/python3.12/site-packages/vllm/attention/ops/triton_unified_attention.py":471:36)
#loc53 = loc("/root/miniconda3/envs/flagscale-inference/lib/python3.12/site-packages/vllm/attention/ops/triton_unified_attention.py":471:10)
#loc54 = loc("/root/miniconda3/envs/flagscale-inference/lib/python3.12/site-packages/vllm/attention/ops/triton_unified_attention.py":472:17)
#loc55 = loc("/root/miniconda3/envs/flagscale-inference/lib/python3.12/site-packages/vllm/attention/ops/triton_unified_attention.py":472:10)
#loc56 = loc("/root/miniconda3/envs/flagscale-inference/lib/python3.12/site-packages/vllm/attention/ops/triton_unified_attention.py":475:33)
#loc57 = loc("/root/miniconda3/envs/flagscale-inference/lib/python3.12/site-packages/vllm/attention/ops/triton_unified_attention.py":475:47)
#loc58 = loc("/root/miniconda3/envs/flagscale-inference/lib/python3.12/site-packages/vllm/attention/ops/triton_unified_attention.py":475:53)
#loc59 = loc("/root/miniconda3/envs/flagscale-inference/lib/python3.12/site-packages/vllm/attention/ops/triton_unified_attention.py":476:40)
#loc60 = loc("/root/miniconda3/envs/flagscale-inference/lib/python3.12/site-packages/vllm/attention/ops/triton_unified_attention.py":476:64)
#loc61 = loc("/root/miniconda3/envs/flagscale-inference/lib/python3.12/site-packages/vllm/attention/ops/triton_unified_attention.py":476:70)
#loc62 = loc("/root/miniconda3/envs/flagscale-inference/lib/python3.12/site-packages/vllm/attention/ops/triton_unified_attention.py":477:45)
#loc63 = loc("/root/miniconda3/envs/flagscale-inference/lib/python3.12/site-packages/vllm/attention/ops/triton_unified_attention.py":477:65)
#loc64 = loc("/root/miniconda3/envs/flagscale-inference/lib/python3.12/site-packages/vllm/attention/ops/triton_unified_attention.py":477:71)
#loc65 = loc("/root/miniconda3/envs/flagscale-inference/lib/python3.12/site-packages/vllm/attention/ops/triton_unified_attention.py":482:22)
#loc66 = loc("/root/miniconda3/envs/flagscale-inference/lib/python3.12/site-packages/vllm/attention/ops/triton_unified_attention.py":482:46)
#loc67 = loc("/root/miniconda3/envs/flagscale-inference/lib/python3.12/site-packages/vllm/attention/ops/triton_unified_attention.py":482:33)
#loc68 = loc("/root/miniconda3/envs/flagscale-inference/lib/python3.12/site-packages/vllm/attention/ops/triton_unified_attention.py":482:70)
#loc69 = loc("/root/miniconda3/envs/flagscale-inference/lib/python3.12/site-packages/vllm/attention/ops/triton_unified_attention.py":482:57)
#loc70 = loc("/root/miniconda3/envs/flagscale-inference/lib/python3.12/site-packages/vllm/attention/ops/triton_unified_attention.py":481:20)
#loc71 = loc("/root/miniconda3/envs/flagscale-inference/lib/python3.12/site-packages/vllm/attention/ops/triton_unified_attention.py":481:8)
#loc72 = loc("/root/miniconda3/envs/flagscale-inference/lib/python3.12/site-packages/vllm/attention/ops/triton_unified_attention.py":486:35)
#loc73 = loc("/root/miniconda3/envs/flagscale-inference/lib/python3.12/site-packages/vllm/attention/ops/triton_unified_attention.py":504:28)
#loc74 = loc("/root/miniconda3/envs/flagscale-inference/lib/python3.12/site-packages/vllm/attention/ops/triton_unified_attention.py":522:10)
#loc75 = loc("/root/miniconda3/envs/flagscale-inference/lib/python3.12/site-packages/vllm/attention/ops/triton_unified_attention.py":524:10)
#loc76 = loc("/root/miniconda3/envs/flagscale-inference/lib/python3.12/site-packages/vllm/attention/ops/triton_unified_attention.py":529:56)
#loc77 = loc("/root/miniconda3/envs/flagscale-inference/lib/python3.12/site-packages/vllm/attention/ops/triton_unified_attention.py":534:44)
#loc78 = loc("/root/miniconda3/envs/flagscale-inference/lib/python3.12/site-packages/vllm/attention/ops/triton_unified_attention.py":539:24)
#loc79 = loc("/root/miniconda3/envs/flagscale-inference/lib/python3.12/site-packages/vllm/attention/ops/triton_unified_attention.py":539:29)
#loc80 = loc("/root/miniconda3/envs/flagscale-inference/lib/python3.12/site-packages/vllm/attention/ops/triton_unified_attention.py":539:48)
#loc81 = loc("/root/miniconda3/envs/flagscale-inference/lib/python3.12/site-packages/vllm/attention/ops/triton_unified_attention.py":539:8)
#loc82 = loc("/root/miniconda3/envs/flagscale-inference/lib/python3.12/site-packages/vllm/attention/ops/triton_unified_attention.py":541:25)
#loc83 = loc("/root/miniconda3/envs/flagscale-inference/lib/python3.12/site-packages/vllm/attention/ops/triton_unified_attention.py":541:37)
#loc84 = loc("/root/miniconda3/envs/flagscale-inference/lib/python3.12/site-packages/vllm/attention/ops/triton_unified_attention.py":542:33)
#loc85 = loc("/root/miniconda3/envs/flagscale-inference/lib/python3.12/site-packages/vllm/attention/ops/triton_unified_attention.py":545:31)
#loc86 = loc("/root/miniconda3/envs/flagscale-inference/lib/python3.12/site-packages/vllm/attention/ops/triton_unified_attention.py":545:66)
#loc87 = loc("/root/miniconda3/envs/flagscale-inference/lib/python3.12/site-packages/vllm/attention/ops/triton_unified_attention.py":545:52)
#loc88 = loc("/root/miniconda3/envs/flagscale-inference/lib/python3.12/site-packages/vllm/attention/ops/triton_unified_attention.py":545:12)
#loc89 = loc("/root/miniconda3/envs/flagscale-inference/lib/python3.12/site-packages/vllm/attention/ops/triton_unified_attention.py":546:13)
#loc90 = loc("/root/miniconda3/envs/flagscale-inference/lib/python3.12/site-packages/vllm/attention/ops/triton_unified_attention.py":549:31)
#loc91 = loc("/root/miniconda3/envs/flagscale-inference/lib/python3.12/site-packages/vllm/attention/ops/triton_unified_attention.py":549:42)
#loc92 = loc("/root/miniconda3/envs/flagscale-inference/lib/python3.12/site-packages/vllm/attention/ops/triton_unified_attention.py":550:28)
#loc93 = loc("/root/miniconda3/envs/flagscale-inference/lib/python3.12/site-packages/vllm/attention/ops/triton_unified_attention.py":550:14)
#loc94 = loc("/root/miniconda3/envs/flagscale-inference/lib/python3.12/site-packages/vllm/attention/ops/triton_unified_attention.py":551:14)
#loc95 = loc("/root/miniconda3/envs/flagscale-inference/lib/python3.12/site-packages/vllm/attention/ops/triton_unified_attention.py":552:28)
#loc96 = loc("/root/miniconda3/envs/flagscale-inference/lib/python3.12/site-packages/vllm/attention/ops/triton_unified_attention.py":552:40)
#loc97 = loc("/root/miniconda3/envs/flagscale-inference/lib/python3.12/site-packages/vllm/attention/ops/triton_unified_attention.py":552:51)
#loc98 = loc("/root/miniconda3/envs/flagscale-inference/lib/python3.12/site-packages/vllm/attention/ops/triton_unified_attention.py":552:14)
#loc99 = loc("/root/miniconda3/envs/flagscale-inference/lib/python3.12/site-packages/vllm/attention/ops/triton_unified_attention.py":556:31)
#loc100 = loc("/root/miniconda3/envs/flagscale-inference/lib/python3.12/site-packages/vllm/attention/ops/triton_unified_attention.py":556:42)
#loc101 = loc("/root/miniconda3/envs/flagscale-inference/lib/python3.12/site-packages/vllm/attention/ops/triton_unified_attention.py":557:28)
#loc102 = loc("/root/miniconda3/envs/flagscale-inference/lib/python3.12/site-packages/vllm/attention/ops/triton_unified_attention.py":557:14)
#loc103 = loc("/root/miniconda3/envs/flagscale-inference/lib/python3.12/site-packages/vllm/attention/ops/triton_unified_attention.py":558:21)
#loc104 = loc("/root/miniconda3/envs/flagscale-inference/lib/python3.12/site-packages/vllm/attention/ops/triton_unified_attention.py":558:14)
#loc105 = loc("/root/miniconda3/envs/flagscale-inference/lib/python3.12/site-packages/vllm/attention/ops/triton_unified_attention.py":559:40)
#loc106 = loc("/root/miniconda3/envs/flagscale-inference/lib/python3.12/site-packages/vllm/attention/ops/triton_unified_attention.py":559:51)
#loc107 = loc("/root/miniconda3/envs/flagscale-inference/lib/python3.12/site-packages/vllm/attention/ops/triton_unified_attention.py":559:14)
#loc108 = loc("/root/miniconda3/envs/flagscale-inference/lib/python3.12/site-packages/vllm/attention/ops/triton_unified_attention.py":565:26)
#loc109 = loc("/root/miniconda3/envs/flagscale-inference/lib/python3.12/site-packages/vllm/attention/ops/triton_unified_attention.py":565:47)
#loc110 = loc("/root/miniconda3/envs/flagscale-inference/lib/python3.12/site-packages/vllm/attention/ops/triton_unified_attention.py":565:37)
#loc111 = loc("/root/miniconda3/envs/flagscale-inference/lib/python3.12/site-packages/vllm/attention/ops/triton_unified_attention.py":564:28)
#loc112 = loc("/root/miniconda3/envs/flagscale-inference/lib/python3.12/site-packages/vllm/attention/ops/triton_unified_attention.py":564:12)
#loc113 = loc("/root/miniconda3/envs/flagscale-inference/lib/python3.12/site-packages/vllm/attention/ops/triton_unified_attention.py":580:47)
#loc114 = loc("/root/miniconda3/envs/flagscale-inference/lib/python3.12/site-packages/vllm/attention/ops/triton_unified_attention.py":580:37)
#loc115 = loc("/root/miniconda3/envs/flagscale-inference/lib/python3.12/site-packages/vllm/attention/ops/triton_unified_attention.py":579:30)
#loc116 = loc("/root/miniconda3/envs/flagscale-inference/lib/python3.12/site-packages/vllm/attention/ops/triton_unified_attention.py":579:12)
#loc117 = loc("/root/miniconda3/envs/flagscale-inference/lib/python3.12/site-packages/vllm/attention/ops/triton_unified_attention.py":593:48)
#loc118 = loc("/root/miniconda3/envs/flagscale-inference/lib/python3.12/site-packages/vllm/attention/ops/triton_unified_attention.py":593:38)
#loc119 = loc("/root/miniconda3/envs/flagscale-inference/lib/python3.12/site-packages/vllm/attention/ops/triton_unified_attention.py":594:30)
#loc120 = loc("/root/miniconda3/envs/flagscale-inference/lib/python3.12/site-packages/vllm/attention/ops/triton_unified_attention.py":594:42)
#loc121 = loc("/root/miniconda3/envs/flagscale-inference/lib/python3.12/site-packages/vllm/attention/ops/triton_unified_attention.py":627:31)
#loc122 = loc("/root/miniconda3/envs/flagscale-inference/lib/python3.12/site-packages/vllm/attention/ops/triton_unified_attention.py":627:21)
#loc123 = loc("/root/miniconda3/envs/flagscale-inference/lib/python3.12/site-packages/vllm/attention/ops/triton_unified_attention.py":627:13)
#loc124 = loc("/root/miniconda3/envs/flagscale-inference/lib/python3.12/site-packages/vllm/attention/ops/triton_unified_attention.py":633:36)
#loc125 = loc("/root/miniconda3/envs/flagscale-inference/lib/python3.12/site-packages/vllm/attention/ops/triton_unified_attention.py":633:60)
#loc126 = loc("/root/miniconda3/envs/flagscale-inference/lib/python3.12/site-packages/vllm/attention/ops/triton_unified_attention.py":633:73)
#loc127 = loc("/root/miniconda3/envs/flagscale-inference/lib/python3.12/site-packages/triton/language/standard.py":189:40)
#loc129 = loc("/root/miniconda3/envs/flagscale-inference/lib/python3.12/site-packages/triton/language/standard.py":168:27)
#loc130 = loc("/root/miniconda3/envs/flagscale-inference/lib/python3.12/site-packages/vllm/attention/ops/triton_unified_attention.py":653:28)
#loc131 = loc("/root/miniconda3/envs/flagscale-inference/lib/python3.12/site-packages/vllm/attention/ops/triton_unified_attention.py":657:29)
#loc132 = loc("/root/miniconda3/envs/flagscale-inference/lib/python3.12/site-packages/vllm/attention/ops/triton_unified_attention.py":657:49)
#loc133 = loc("/root/miniconda3/envs/flagscale-inference/lib/python3.12/site-packages/vllm/attention/ops/triton_unified_attention.py":660:27)
#loc134 = loc("/root/miniconda3/envs/flagscale-inference/lib/python3.12/site-packages/vllm/attention/ops/triton_unified_attention.py":660:23)
#loc135 = loc("/root/miniconda3/envs/flagscale-inference/lib/python3.12/site-packages/vllm/attention/ops/triton_unified_attention.py":660:19)
#loc136 = loc("/root/miniconda3/envs/flagscale-inference/lib/python3.12/site-packages/triton/language/standard.py":291:36)
#loc138 = loc("/root/miniconda3/envs/flagscale-inference/lib/python3.12/site-packages/triton/language/standard.py":261:15)
#loc139 = loc("/root/miniconda3/envs/flagscale-inference/lib/python3.12/site-packages/vllm/attention/ops/triton_unified_attention.py":666:27)
#loc140 = loc("/root/miniconda3/envs/flagscale-inference/lib/python3.12/site-packages/vllm/attention/ops/triton_unified_attention.py":666:23)
#loc141 = loc("/root/miniconda3/envs/flagscale-inference/lib/python3.12/site-packages/vllm/attention/ops/triton_unified_attention.py":669:26)
#loc142 = loc("/root/miniconda3/envs/flagscale-inference/lib/python3.12/site-packages/vllm/attention/ops/triton_unified_attention.py":669:20)
#loc143 = loc("/root/miniconda3/envs/flagscale-inference/lib/python3.12/site-packages/vllm/attention/ops/triton_unified_attention.py":672:16)
#loc144 = loc("/root/miniconda3/envs/flagscale-inference/lib/python3.12/site-packages/vllm/attention/ops/triton_unified_attention.py":672:24)
#loc145 = loc("/root/miniconda3/envs/flagscale-inference/lib/python3.12/site-packages/vllm/attention/ops/triton_unified_attention.py":676:27)
#loc146 = loc("/root/miniconda3/envs/flagscale-inference/lib/python3.12/site-packages/vllm/attention/ops/triton_unified_attention.py":676:37)
#loc147 = loc("/root/miniconda3/envs/flagscale-inference/lib/python3.12/site-packages/vllm/attention/ops/triton_unified_attention.py":676:8)
#loc148 = loc("/root/miniconda3/envs/flagscale-inference/lib/python3.12/site-packages/vllm/attention/ops/triton_unified_attention.py":680:11)
#loc149 = loc("/root/miniconda3/envs/flagscale-inference/lib/python3.12/site-packages/vllm/attention/ops/triton_unified_attention.py":681:37)
#loc150 = loc("/root/miniconda3/envs/flagscale-inference/lib/python3.12/site-packages/vllm/attention/ops/triton_unified_attention.py":681:10)
#loc151 = loc("/root/miniconda3/envs/flagscale-inference/lib/python3.12/site-packages/vllm/attention/ops/triton_unified_attention.py":682:21)
#loc152 = loc("/root/miniconda3/envs/flagscale-inference/lib/python3.12/site-packages/vllm/attention/ops/triton_unified_attention.py":682:10)
#loc153 = loc("/root/miniconda3/envs/flagscale-inference/lib/python3.12/site-packages/vllm/attention/ops/triton_unified_attention.py":683:10)
#loc154 = loc("/root/miniconda3/envs/flagscale-inference/lib/python3.12/site-packages/vllm/attention/ops/triton_unified_attention.py":686:26)
#loc155 = loc("/root/miniconda3/envs/flagscale-inference/lib/python3.12/site-packages/vllm/attention/ops/triton_unified_attention.py":687:8)
#loc156 = loc("/root/miniconda3/envs/flagscale-inference/lib/python3.12/site-packages/vllm/attention/ops/triton_unified_attention.py":691:26)
#loc157 = loc("/root/miniconda3/envs/flagscale-inference/lib/python3.12/site-packages/vllm/attention/ops/triton_unified_attention.py":691:39)
#loc158 = loc("/root/miniconda3/envs/flagscale-inference/lib/python3.12/site-packages/vllm/attention/ops/triton_unified_attention.py":692:27)
#loc159 = loc("/root/miniconda3/envs/flagscale-inference/lib/python3.12/site-packages/vllm/attention/ops/triton_unified_attention.py":692:10)
#loc160 = loc("/root/miniconda3/envs/flagscale-inference/lib/python3.12/site-packages/vllm/attention/ops/triton_unified_attention.py":693:10)
#loc161 = loc("/root/miniconda3/envs/flagscale-inference/lib/python3.12/site-packages/vllm/attention/ops/triton_unified_attention.py":695:64)
#loc162 = loc("/root/miniconda3/envs/flagscale-inference/lib/python3.12/site-packages/vllm/attention/ops/triton_unified_attention.py":695:28)
#loc163 = loc("/root/miniconda3/envs/flagscale-inference/lib/python3.12/site-packages/vllm/attention/ops/triton_unified_attention.py":695:41)
#loc164 = loc("/root/miniconda3/envs/flagscale-inference/lib/python3.12/site-packages/vllm/attention/ops/triton_unified_attention.py":696:31)
#loc165 = loc("/root/miniconda3/envs/flagscale-inference/lib/python3.12/site-packages/vllm/attention/ops/triton_unified_attention.py":696:44)
#loc166 = loc("/root/miniconda3/envs/flagscale-inference/lib/python3.12/site-packages/vllm/attention/ops/triton_unified_attention.py":696:4)
#loc191 = loc("left"(#loc2))
#loc193 = loc("q_block_global_idx"(#loc4))
#loc194 = loc("kv_head_idx"(#loc5))
#loc195 = loc("segm_idx"(#loc6))
#loc196 = loc("left"(#loc7))
#loc199 = loc("mid"(#loc11))
#loc200 = loc("mid"(#loc12))
#loc201 = loc("val"(#loc13))
#loc202 = loc("val"(#loc14))
#loc203 = loc("mid_val"(#loc15))
#loc204 = loc("mid_val"(#loc16))
#loc205 = loc("left"(#loc19))
#loc206 = loc("q_block_start_idx"(#loc22))
#loc207 = loc("q_block_start_idx"(#loc23))
#loc208 = loc("q_block_start_idx"(#loc24))
#loc209 = loc("q_block_start_idx"(#loc25))
#loc210 = loc("q_block_local_idx"(#loc26))
#loc211 = loc("cur_batch_in_all_stop_index"(#loc27))
#loc212 = loc("cur_batch_in_all_stop_index"(#loc28))
#loc213 = loc("cur_batch_query_len"(#loc29))
#loc214 = loc("seq_len"(#loc33))
#loc215 = loc("seq_len"(#loc34))
#loc216 = loc("tiles_per_segment"(#loc36))
#loc217 = loc("offs_m"(#loc41))
#loc218 = loc("offs_d"(#loc42))
#loc219 = loc("query_pos"(#loc43))
#loc220 = loc("query_pos"(#loc44))
#loc221 = loc("query_offset_0"(#loc45))
#loc222 = loc("query_offset_1"(#loc46))
#loc223 = loc("query_offset_1"(#loc47))
#loc224 = loc("query_offset_1"(#loc48))
#loc225 = loc("query_offset"(#loc49))
#loc226 = loc("query_offset"(#loc50))
#loc227 = loc("query_offset"(#loc51))
#loc228 = loc("query_offset"(#loc52))
#loc229 = loc("query_offset"(#loc53))
#loc230 = loc("query_offset"(#loc54))
#loc231 = loc("query_offset"(#loc55))
#loc232 = loc("dim_mask"(#loc56))
#loc233 = loc("dim_mask"(#loc57))
#loc234 = loc("dim_mask"(#loc58))
#loc235 = loc("query_mask_0"(#loc59))
#loc236 = loc("query_mask_0"(#loc60))
#loc237 = loc("query_mask_0"(#loc61))
#loc238 = loc("query_mask_1"(#loc62))
#loc239 = loc("query_mask_1"(#loc63))
#loc240 = loc("query_mask_1"(#loc64))
#loc241 = loc("Q"(#loc65))
#loc242 = loc("Q"(#loc66))
#loc243 = loc("Q"(#loc67))
#loc244 = loc("Q"(#loc68))
#loc245 = loc("Q"(#loc69))
#loc246 = loc("Q"(#loc70))
#loc247 = loc("Q"(#loc71))
#loc248 = loc("block_table_offset"(#loc72))
#loc249 = loc("context_len"(#loc73))
#loc250 = loc("max_seq_prefix_len"(#loc74))
#loc251 = loc("max_seq_prefix_len"(#loc75))
#loc252 = loc("max_seq_prefix_len"(#loc76))
#loc253 = loc("num_tiles"(#loc77))
#loc254 = loc("M"(#loc81))
#loc255 = loc("seq_offset"(#loc82))
#loc256 = loc("seq_offset"(#loc83))
#loc257 = loc("tile_mask"(#loc84))
#loc258 = loc("physical_block_idx"(#loc85))
#loc259 = loc("physical_block_idx"(#loc86))
#loc260 = loc("physical_block_idx"(#loc87))
#loc261 = loc("physical_block_idx"(#loc88))
#loc262 = loc("physical_block_idx"(#loc89))
#loc263 = loc("v_offset"(#loc90))
#loc264 = loc("v_offset"(#loc91))
#loc265 = loc("v_offset"(#loc92))
#loc266 = loc("v_offset"(#loc93))
#loc267 = loc("v_offset"(#loc94))
#loc268 = loc("v_offset"(#loc95))
#loc269 = loc("v_offset"(#loc96))
#loc270 = loc("v_offset"(#loc97))
#loc271 = loc("v_offset"(#loc98))
#loc272 = loc("k_offset"(#loc99))
#loc273 = loc("k_offset"(#loc100))
#loc274 = loc("k_offset"(#loc101))
#loc275 = loc("k_offset"(#loc102))
#loc276 = loc("k_offset"(#loc103))
#loc277 = loc("k_offset"(#loc104))
#loc278 = loc("k_offset"(#loc105))
#loc279 = loc("k_offset"(#loc106))
#loc280 = loc("k_offset"(#loc107))
#loc281 = loc("K_load"(#loc108))
#loc282 = loc("K_load"(#loc109))
#loc283 = loc("K_load"(#loc110))
#loc284 = loc("K_load"(#loc111))
#loc285 = loc("K_load"(#loc112))
#loc286 = loc("V_load"(#loc113))
#loc287 = loc("V_load"(#loc114))
#loc288 = loc("V_load"(#loc115))
#loc289 = loc("V_load"(#loc116))
#loc290 = loc("query_abs_pos"(#loc117))
#loc291 = loc("query_abs_pos"(#loc118))
#loc292 = loc("seq_mask"(#loc119))
#loc293 = loc("seq_mask"(#loc120))
#loc294 = loc("S"(#loc121))
#loc295 = loc("S"(#loc122))
#loc296 = loc("S"(#loc123))
#loc297 = loc("S"(#loc124))
#loc298 = loc("S"(#loc125))
#loc299 = loc("S"(#loc126))
#loc301 = loc("m_j"(#loc130))
#loc302 = loc("m_j"(#loc131))
#loc303 = loc("m_j"(#loc132))
#loc304 = loc("P"(#loc133))
#loc305 = loc("P"(#loc134))
#loc306 = loc("P"(#loc135))
#loc308 = loc("alpha"(#loc139))
#loc309 = loc("alpha"(#loc140))
#loc310 = loc("acc"(#loc141))
#loc311 = loc("acc"(#loc142))
#loc312 = loc("L"(#loc143))
#loc313 = loc("L"(#loc144))
#loc314 = loc("acc"(#loc145))
#loc315 = loc("acc"(#loc146))
#loc316 = loc("segm_output_offset"(#loc148))
#loc317 = loc("segm_output_offset"(#loc149))
#loc318 = loc("segm_output_offset"(#loc150))
#loc319 = loc("segm_output_offset"(#loc151))
#loc320 = loc("segm_output_offset"(#loc152))
#loc321 = loc("segm_output_offset"(#loc153))
#loc322 = loc("segm_offset"(#loc156))
#loc323 = loc("segm_offset"(#loc157))
#loc324 = loc("segm_offset"(#loc158))
#loc325 = loc("segm_offset"(#loc159))
#loc326 = loc("segm_offset"(#loc160))
#loc327 = loc("left"(#loc191))
#loc328 = loc(callsite(#loc1 at #loc192))
#loc329 = loc("right"(#loc196))
#loc330 = loc(callsite(#loc8 at #loc192))
#loc333 = loc(callsite(#loc199 at #loc192))
#loc334 = loc("right"(#loc200))
#loc335 = loc(callsite(#loc201 at #loc192))
#loc336 = loc(callsite(#loc202 at #loc192))
#loc337 = loc(callsite(#loc203 at #loc192))
#loc338 = loc(callsite(#loc204 at #loc192))
#loc339 = loc(callsite(#loc17 at #loc192))
#loc340 = loc(callsite(#loc18 at #loc192))
#loc341 = loc("left"(#loc205))
#loc342 = loc(callsite(#loc20 at #loc192))
#loc343 = loc(callsite(#loc21 at #loc192))
#loc344 = loc(callsite(#loc35 at #loc216))
#loc345 = loc(callsite(#loc37 at #loc216))
#loc346 = loc(callsite(#loc35 at #loc253))
#loc347 = loc(callsite(#loc37 at #loc253))
#loc348 = loc("L"(#loc254))
#loc349 = loc(callsite(#loc127 at #loc300))
#loc351 = loc(callsite(#loc136 at #loc307))
#loc353 = loc(callsite(#loc327 at #loc192))
#loc354 = loc(callsite(#loc329 at #loc192))
#loc355 = loc(callsite(#loc334 at #loc192))
#loc356 = loc(callsite(#loc341 at #loc192))
#loc357 = loc("acc"(#loc348))
#loc358 = loc(callsite(#loc129 at #loc349))
#loc359 = loc(callsite(#loc138 at #loc351))
