#loc = loc("/root/.flaggems/code_cache/pointwise_dynamic_f00e06ceb42945a345b1a1ff819af8569db46252baf90c3b5999b14d39928bf6_sub_func_scalar_tensor_kernel_rank_1_bptr.py":61:0)
#loc15 = loc("val0"(#loc))
#loc16 = loc("in0_ptr"(#loc))
#loc17 = loc("val1"(#loc))
#loc18 = loc("out0_ptr"(#loc))
#loc19 = loc("in0_stride0"(#loc))
#loc20 = loc("out0_stride0"(#loc))
#loc21 = loc("s0"(#loc))
#loc22 = loc("num_tasks"(#loc))
#loc23 = loc("tiles_per_cta"(#loc))
module {
  tt.func public @sub_func_scalar_tensor_kernel_rank_1(%val0: i32 loc("val0"(#loc)), %in0_ptr: !tt.ptr<f32> {tt.divisibility = 16 : i32} loc("in0_ptr"(#loc)), %val1: i32 loc("val1"(#loc)), %out0_ptr: !tt.ptr<f32> {tt.divisibility = 16 : i32} loc("out0_ptr"(#loc)), %in0_stride0: i32 loc("in0_stride0"(#loc)), %out0_stride0: i32 loc("out0_stride0"(#loc)), %s0: i32 {tt.divisibility = 16 : i32} loc("s0"(#loc)), %num_tasks: i32 {tt.divisibility = 16 : i32} loc("num_tasks"(#loc)), %tiles_per_cta: i32 loc("tiles_per_cta"(#loc))) attributes {noinline = false} {
    %cst = arith.constant dense<0> : tensor<256xi64> loc(#loc1)
    %offset0 = arith.constant 256 : i64 loc(#loc24)
    %pid = tt.get_program_id x : i32 loc(#loc31)
    %pid_0 = arith.extsi %pid : i32 to i64 loc(#loc32)
    %offset0_1 = arith.muli %pid_0, %offset0 : i64 loc(#loc24)
    %offset0_2 = arith.trunci %offset0_1 : i64 to i32 loc(#loc26)
    %in0_bptr = arith.extsi %s0 : i32 to i64 loc(#loc27)
    %in0_bptr_3 = arith.extsi %in0_stride0 : i32 to i64 loc(#loc27)
    %in0_bptr_4 = arith.extsi %offset0_2 : i32 to i64 loc(#loc27)
    %in0 = tt.splat %in0_ptr : !tt.ptr<f32> -> tensor<256x!tt.ptr<f32>> loc(#loc28)
    %in0_5 = tt.splat %in0_bptr_4 : i64 -> tensor<256xi64> loc(#loc28)
    %in0_6 = tt.make_range {end = 256 : i32, start = 0 : i32} : tensor<256xi32> loc(#loc28)
    %in0_7 = arith.extsi %in0_6 : tensor<256xi32> to tensor<256xi64> loc(#loc28)
    %in0_8 = arith.addi %in0_5, %in0_7 : tensor<256xi64> loc(#loc28)
    %in0_9 = tt.splat %in0_bptr_3 : i64 -> tensor<256xi64> loc(#loc28)
    %in0_10 = arith.muli %in0_8, %in0_9 : tensor<256xi64> loc(#loc28)
    %in0_11 = tt.addptr %in0, %in0_10 : tensor<256x!tt.ptr<f32>>, tensor<256xi64> loc(#loc28)
    %in0_12 = arith.cmpi sge, %in0_8, %cst : tensor<256xi64> loc(#loc28)
    %in0_13 = tt.splat %in0_bptr : i64 -> tensor<256xi64> loc(#loc28)
    %in0_14 = arith.cmpi slt, %in0_8, %in0_13 : tensor<256xi64> loc(#loc28)
    %in0_15 = arith.andi %in0_12, %in0_14 : tensor<256xi1> loc(#loc28)
    %in0_16 = tt.load %in0_11, %in0_15 : tensor<256x!tt.ptr<f32>> loc(#loc28)
    %out0 = arith.sitofp %val1 : i32 to f32 loc(#loc33)
    %out0_17 = tt.splat %out0 : f32 -> tensor<256xf32> loc(#loc33)
    %out0_18 = arith.mulf %in0_16, %out0_17 : tensor<256xf32> loc(#loc33)
    %out0_19 = arith.sitofp %val0 : i32 to f32 loc(#loc34)
    %out0_20 = tt.splat %out0_19 : f32 -> tensor<256xf32> loc(#loc34)
    %out0_21 = arith.subf %out0_20, %out0_18 : tensor<256xf32> loc(#loc34)
    %out0_bptr = arith.extsi %out0_stride0 : i32 to i64 loc(#loc30)
    %0 = tt.splat %out0_ptr : !tt.ptr<f32> -> tensor<256x!tt.ptr<f32>> loc(#loc13)
    %1 = tt.splat %out0_bptr : i64 -> tensor<256xi64> loc(#loc13)
    %2 = arith.muli %in0_8, %1 : tensor<256xi64> loc(#loc13)
    %3 = tt.addptr %0, %2 : tensor<256x!tt.ptr<f32>>, tensor<256xi64> loc(#loc13)
    tt.store %3, %out0_21, %in0_15 : tensor<256x!tt.ptr<f32>> loc(#loc13)
    tt.return loc(#loc14)
  } loc(#loc)
} loc(#loc)
#loc1 = loc(unknown)
#loc2 = loc("/root/.flaggems/code_cache/pointwise_dynamic_f00e06ceb42945a345b1a1ff819af8569db46252baf90c3b5999b14d39928bf6_sub_func_scalar_tensor_kernel_rank_1_bptr.py":84:30)
#loc3 = loc("/root/miniconda3/envs/flagscale-inference/lib/python3.12/site-packages/flag_gems/utils/triton_lang_extension.py":24:25)
#loc4 = loc("/root/.flaggems/code_cache/pointwise_dynamic_f00e06ceb42945a345b1a1ff819af8569db46252baf90c3b5999b14d39928bf6_sub_func_scalar_tensor_kernel_rank_1_bptr.py":76:25)
#loc5 = loc("/root/miniconda3/envs/flagscale-inference/lib/python3.12/site-packages/flag_gems/utils/triton_lang_extension.py":24:34)
#loc6 = loc("/root/.flaggems/code_cache/pointwise_dynamic_f00e06ceb42945a345b1a1ff819af8569db46252baf90c3b5999b14d39928bf6_sub_func_scalar_tensor_kernel_rank_1_bptr.py":84:45)
#loc7 = loc("/root/.flaggems/code_cache/pointwise_dynamic_f00e06ceb42945a345b1a1ff819af8569db46252baf90c3b5999b14d39928bf6_sub_func_scalar_tensor_kernel_rank_1_bptr.py":86:81)
#loc8 = loc("/root/.flaggems/code_cache/pointwise_dynamic_f00e06ceb42945a345b1a1ff819af8569db46252baf90c3b5999b14d39928bf6_sub_func_scalar_tensor_kernel_rank_1_bptr.py":87:22)
#loc9 = loc("/root/miniconda3/envs/flagscale-inference/lib/python3.12/site-packages/flag_gems/ops/sub.py":30:19)
#loc10 = loc("/root/.flaggems/code_cache/pointwise_dynamic_f00e06ceb42945a345b1a1ff819af8569db46252baf90c3b5999b14d39928bf6_sub_func_scalar_tensor_kernel_rank_1_bptr.py":90:49)
#loc11 = loc("/root/miniconda3/envs/flagscale-inference/lib/python3.12/site-packages/flag_gems/ops/sub.py":30:15)
#loc12 = loc("/root/.flaggems/code_cache/pointwise_dynamic_f00e06ceb42945a345b1a1ff819af8569db46252baf90c3b5999b14d39928bf6_sub_func_scalar_tensor_kernel_rank_1_bptr.py":93:84)
#loc13 = loc("/root/.flaggems/code_cache/pointwise_dynamic_f00e06ceb42945a345b1a1ff819af8569db46252baf90c3b5999b14d39928bf6_sub_func_scalar_tensor_kernel_rank_1_bptr.py":94:28)
#loc14 = loc("/root/.flaggems/code_cache/pointwise_dynamic_f00e06ceb42945a345b1a1ff819af8569db46252baf90c3b5999b14d39928bf6_sub_func_scalar_tensor_kernel_rank_1_bptr.py":78:4)
#loc24 = loc("offset0"(#loc2))
#loc25 = loc("pid"(#loc4))
#loc26 = loc("offset0"(#loc6))
#loc27 = loc("in0_bptr"(#loc7))
#loc28 = loc("in0"(#loc8))
#loc29 = loc("out0"(#loc10))
#loc30 = loc("out0_bptr"(#loc12))
#loc31 = loc(callsite(#loc3 at #loc25))
#loc32 = loc(callsite(#loc5 at #loc25))
#loc33 = loc(callsite(#loc9 at #loc29))
#loc34 = loc(callsite(#loc11 at #loc29))
