#loc = loc("/tmp/torchinductor_root/kz/ckztzm3qs2a4fpkj7fm3jvl7xbdic4gpmxru2ypbnmebv3bqnbwi.py":18:0)
#loc80 = loc("/root/miniconda3/envs/flagscale-inference/lib/python3.12/site-packages/triton/language/standard.py":285:0)
#loc82 = loc(unknown)
#loc85 = loc("/root/miniconda3/envs/flagscale-inference/lib/python3.12/site-packages/triton/language/standard.py":260:0)
#loc89 = loc("in_out_ptr0"(#loc))
#loc90 = loc("in_ptr0"(#loc))
#loc91 = loc("in_ptr1"(#loc))
#loc92 = loc("in_ptr2"(#loc))
#loc93 = loc("xnumel"(#loc))
#loc94 = loc("r0_numel"(#loc))
#loc166 = loc("input"(#loc80))
#loc167 = loc("a"(#loc85))
#loc168 = loc("b"(#loc85))
module {
  tt.func public @triton_red_fused__to_copy_add_mean_mul_pow_rsqrt_2(%in_out_ptr0: !tt.ptr<bf16> {tt.divisibility = 16 : i32} loc("in_out_ptr0"(#loc)), %in_ptr0: !tt.ptr<bf16> {tt.divisibility = 16 : i32} loc("in_ptr0"(#loc)), %in_ptr1: !tt.ptr<bf16> {tt.divisibility = 16 : i32} loc("in_ptr1"(#loc)), %in_ptr2: !tt.ptr<bf16> {tt.divisibility = 16 : i32} loc("in_ptr2"(#loc)), %xnumel: i32 loc("xnumel"(#loc)), %r0_numel: i32 {tt.divisibility = 16 : i32} loc("r0_numel"(#loc))) attributes {noinline = false} {
    %r0_numel_0 = arith.constant 5120 : i32 loc(#loc95)
    %xoffset = tt.get_program_id x : i32 loc(#loc96)
    %xoffset_1 = arith.constant 1 : i32 loc(#loc97)
    %xoffset_2 = arith.constant 1 : i32 loc(#loc97)
    %xoffset_3 = arith.muli %xoffset, %xoffset_2 : i32 loc(#loc97)
    %xindex = tt.make_range {end = 1 : i32, start = 0 : i32} : tensor<1xi32> loc(#loc98)
    %xindex_4 = tt.expand_dims %xindex {axis = 1 : i32} : tensor<1xi32> -> tensor<1x1xi32> loc(#loc99)
    %xindex_5 = tt.splat %xoffset_3 : i32 -> tensor<1x1xi32> loc(#loc100)
    %xindex_6 = arith.addi %xindex_5, %xindex_4 : tensor<1x1xi32> loc(#loc100)
    %xmask = tt.splat %xnumel : i32 -> tensor<1x1xi32> loc(#loc101)
    %xmask_7 = arith.cmpi slt, %xindex_6, %xmask : tensor<1x1xi32> loc(#loc101)
    %r0_base = tt.make_range {end = 512 : i32, start = 0 : i32} : tensor<512xi32> loc(#loc102)
    %r0_base_8 = tt.expand_dims %r0_base {axis = 0 : i32} : tensor<512xi32> -> tensor<1x512xi32> loc(#loc103)
    %_tmp12 = arith.constant 0.000000e+00 : f32 loc(#loc104)
    %_tmp12_9 = arith.constant dense<0.000000e+00> : tensor<1x512xf32> loc(#loc104)
    %c0_i32 = arith.constant 0 : i32 loc(#loc11)
    %c512_i32 = arith.constant 512 : i32 loc(#loc11)
    %0 = arith.bitcast %c0_i32 : i32 to i32 loc(#loc11)
    %1 = arith.bitcast %r0_numel_0 : i32 to i32 loc(#loc11)
    %2 = arith.bitcast %c512_i32 : i32 to i32 loc(#loc11)
    %3 = ub.poison : i32 loc(#loc11)
    %_tmp12_10 = scf.for %r0_offset = %0 to %1 step %2 iter_args(%_tmp12_14 = %_tmp12_9) -> (tensor<1x512xf32>)  : i32 {
      %r0_index = tt.splat %r0_offset : i32 -> tensor<1x512xi32> loc(#loc106)
      %r0_index_15 = arith.addi %r0_index, %r0_base_8 : tensor<1x512xi32> loc(#loc106)
      %r0_mask = arith.constant dense<5120> : tensor<1x512xi32> loc(#loc107)
      %r0_mask_16 = arith.cmpi slt, %r0_index_15, %r0_mask : tensor<1x512xi32> loc(#loc107)
      %tmp0 = arith.constant 5120 : i32 loc(#loc108)
      %tmp0_17 = arith.constant 5120 : i32 loc(#loc108)
      %tmp0_18 = arith.constant dense<5120> : tensor<1x1xi32> loc(#loc108)
      %tmp0_19 = arith.muli %tmp0_18, %xindex_6 : tensor<1x1xi32> loc(#loc108)
      %tmp0_20 = tt.broadcast %tmp0_19 : tensor<1x1xi32> -> tensor<1x512xi32> loc(#loc109)
      %tmp0_21 = arith.addi %r0_index_15, %tmp0_20 : tensor<1x512xi32> loc(#loc109)
      %tmp0_22 = tt.splat %in_out_ptr0 : !tt.ptr<bf16> -> tensor<1x512x!tt.ptr<bf16>> loc(#loc110)
      %tmp0_23 = tt.addptr %tmp0_22, %tmp0_21 : tensor<1x512x!tt.ptr<bf16>>, tensor<1x512xi32> loc(#loc110)
      %tmp0_24 = tt.broadcast %xmask_7 : tensor<1x1xi1> -> tensor<1x512xi1> loc(#loc111)
      %tmp0_25 = arith.andi %r0_mask_16, %tmp0_24 : tensor<1x512xi1> loc(#loc111)
      %tmp0_26 = arith.constant 0.000000e+00 : f32 loc(#loc112)
      %tmp0_27 = arith.constant dense<0.000000e+00> : tensor<1x512xf32> loc(#loc112)
      %tmp0_28 = arith.truncf %tmp0_27 : tensor<1x512xf32> to tensor<1x512xbf16> loc(#loc112)
      %tmp0_29 = tt.load %tmp0_23, %tmp0_25, %tmp0_28 evictionPolicy = evict_last : tensor<1x512x!tt.ptr<bf16>> loc(#loc112)
      %tmp0_30 = arith.extf %tmp0_29 : tensor<1x512xbf16> to tensor<1x512xf32> loc(#loc113)
      %tmp2 = arith.constant 5120 : i32 loc(#loc114)
      %tmp2_31 = arith.constant 5120 : i32 loc(#loc114)
      %tmp2_32 = arith.constant dense<5120> : tensor<1x1xi32> loc(#loc114)
      %tmp2_33 = arith.muli %tmp2_32, %xindex_6 : tensor<1x1xi32> loc(#loc114)
      %tmp2_34 = tt.broadcast %tmp2_33 : tensor<1x1xi32> -> tensor<1x512xi32> loc(#loc115)
      %tmp2_35 = arith.addi %r0_index_15, %tmp2_34 : tensor<1x512xi32> loc(#loc115)
      %tmp2_36 = tt.splat %in_ptr0 : !tt.ptr<bf16> -> tensor<1x512x!tt.ptr<bf16>> loc(#loc116)
      %tmp2_37 = tt.addptr %tmp2_36, %tmp2_35 : tensor<1x512x!tt.ptr<bf16>>, tensor<1x512xi32> loc(#loc116)
      %tmp2_38 = tt.broadcast %xmask_7 : tensor<1x1xi1> -> tensor<1x512xi1> loc(#loc117)
      %tmp2_39 = arith.andi %r0_mask_16, %tmp2_38 : tensor<1x512xi1> loc(#loc117)
      %tmp2_40 = arith.constant 0.000000e+00 : f32 loc(#loc118)
      %tmp2_41 = arith.constant dense<0.000000e+00> : tensor<1x512xf32> loc(#loc118)
      %tmp2_42 = arith.truncf %tmp2_41 : tensor<1x512xf32> to tensor<1x512xbf16> loc(#loc118)
      %tmp2_43 = tt.load %tmp2_37, %tmp2_39, %tmp2_42 evictionPolicy = evict_last : tensor<1x512x!tt.ptr<bf16>> loc(#loc118)
      %tmp2_44 = arith.extf %tmp2_43 : tensor<1x512xbf16> to tensor<1x512xf32> loc(#loc119)
      %tmp4 = arith.constant 5120 : i32 loc(#loc120)
      %tmp4_45 = arith.constant 5120 : i32 loc(#loc120)
      %tmp4_46 = arith.constant dense<5120> : tensor<1x1xi32> loc(#loc120)
      %tmp4_47 = arith.muli %tmp4_46, %xindex_6 : tensor<1x1xi32> loc(#loc120)
      %tmp4_48 = tt.broadcast %tmp4_47 : tensor<1x1xi32> -> tensor<1x512xi32> loc(#loc121)
      %tmp4_49 = arith.addi %r0_index_15, %tmp4_48 : tensor<1x512xi32> loc(#loc121)
      %tmp4_50 = tt.splat %in_ptr1 : !tt.ptr<bf16> -> tensor<1x512x!tt.ptr<bf16>> loc(#loc122)
      %tmp4_51 = tt.addptr %tmp4_50, %tmp4_49 : tensor<1x512x!tt.ptr<bf16>>, tensor<1x512xi32> loc(#loc122)
      %tmp4_52 = tt.broadcast %xmask_7 : tensor<1x1xi1> -> tensor<1x512xi1> loc(#loc123)
      %tmp4_53 = arith.andi %r0_mask_16, %tmp4_52 : tensor<1x512xi1> loc(#loc123)
      %tmp4_54 = arith.constant 0.000000e+00 : f32 loc(#loc124)
      %tmp4_55 = arith.constant dense<0.000000e+00> : tensor<1x512xf32> loc(#loc124)
      %tmp4_56 = arith.truncf %tmp4_55 : tensor<1x512xf32> to tensor<1x512xbf16> loc(#loc124)
      %tmp4_57 = tt.load %tmp4_51, %tmp4_53, %tmp4_56 evictionPolicy = evict_last : tensor<1x512x!tt.ptr<bf16>> loc(#loc124)
      %tmp4_58 = arith.extf %tmp4_57 : tensor<1x512xbf16> to tensor<1x512xf32> loc(#loc125)
      %tmp6 = arith.addf %tmp2_44, %tmp4_58 : tensor<1x512xf32> loc(#loc126)
      %tmp9 = arith.addf %tmp0_30, %tmp6 : tensor<1x512xf32> loc(#loc127)
      %tmp10 = arith.mulf %tmp9, %tmp9 : tensor<1x512xf32> loc(#loc128)
      %tmp13 = arith.addf %_tmp12_14, %tmp10 : tensor<1x512xf32> loc(#loc129)
      %_tmp12_59 = tt.broadcast %xmask_7 : tensor<1x1xi1> -> tensor<1x512xi1> loc(#loc130)
      %_tmp12_60 = arith.andi %r0_mask_16, %_tmp12_59 : tensor<1x512xi1> loc(#loc130)
      %_tmp12_61 = arith.select %_tmp12_60, %tmp13, %_tmp12_14 : tensor<1x512xi1>, tensor<1x512xf32> loc(#loc131)
      scf.yield %_tmp12_61 : tensor<1x512xf32> loc(#loc38)
    } loc(#loc105)
    %tmp12 = tt.call @"triton.language.standard.sum__fp32S1_512S__(1,)cconstexpr_1__(2,)cconstexpr_False__(3,)cNone"(%_tmp12_10) : (tensor<1x512xf32>) -> tensor<1xf32> loc(#loc132)
    %tmp12_11 = tt.expand_dims %tmp12 {axis = 1 : i32} : tensor<1xf32> -> tensor<1x1xf32> loc(#loc133)
    %c0_i32_12 = arith.constant 0 : i32 loc(#loc41)
    %c512_i32_13 = arith.constant 512 : i32 loc(#loc41)
    %4 = arith.bitcast %c0_i32_12 : i32 to i32 loc(#loc41)
    %5 = arith.bitcast %r0_numel_0 : i32 to i32 loc(#loc41)
    %6 = arith.bitcast %c512_i32_13 : i32 to i32 loc(#loc41)
    %7 = ub.poison : i32 loc(#loc41)
    scf.for %r0_offset = %4 to %5 step %6  : i32 {
      %r0_index = tt.splat %r0_offset : i32 -> tensor<1x512xi32> loc(#loc134)
      %r0_index_14 = arith.addi %r0_index, %r0_base_8 : tensor<1x512xi32> loc(#loc134)
      %r0_mask = arith.constant dense<5120> : tensor<1x512xi32> loc(#loc135)
      %r0_mask_15 = arith.cmpi slt, %r0_index_14, %r0_mask : tensor<1x512xi32> loc(#loc135)
      %tmp14 = arith.constant 5120 : i32 loc(#loc136)
      %tmp14_16 = arith.constant 5120 : i32 loc(#loc136)
      %tmp14_17 = arith.constant dense<5120> : tensor<1x1xi32> loc(#loc136)
      %tmp14_18 = arith.muli %tmp14_17, %xindex_6 : tensor<1x1xi32> loc(#loc136)
      %tmp14_19 = tt.broadcast %tmp14_18 : tensor<1x1xi32> -> tensor<1x512xi32> loc(#loc137)
      %tmp14_20 = arith.addi %r0_index_14, %tmp14_19 : tensor<1x512xi32> loc(#loc137)
      %tmp14_21 = tt.splat %in_out_ptr0 : !tt.ptr<bf16> -> tensor<1x512x!tt.ptr<bf16>> loc(#loc138)
      %tmp14_22 = tt.addptr %tmp14_21, %tmp14_20 : tensor<1x512x!tt.ptr<bf16>>, tensor<1x512xi32> loc(#loc138)
      %tmp14_23 = tt.broadcast %xmask_7 : tensor<1x1xi1> -> tensor<1x512xi1> loc(#loc139)
      %tmp14_24 = arith.andi %r0_mask_15, %tmp14_23 : tensor<1x512xi1> loc(#loc139)
      %tmp14_25 = arith.constant 0.000000e+00 : f32 loc(#loc140)
      %tmp14_26 = arith.constant dense<0.000000e+00> : tensor<1x512xf32> loc(#loc140)
      %tmp14_27 = arith.truncf %tmp14_26 : tensor<1x512xf32> to tensor<1x512xbf16> loc(#loc140)
      %tmp14_28 = tt.load %tmp14_22, %tmp14_24, %tmp14_27 evictionPolicy = evict_first : tensor<1x512x!tt.ptr<bf16>> loc(#loc140)
      %tmp14_29 = arith.extf %tmp14_28 : tensor<1x512xbf16> to tensor<1x512xf32> loc(#loc141)
      %tmp16 = arith.constant 5120 : i32 loc(#loc142)
      %tmp16_30 = arith.constant 5120 : i32 loc(#loc142)
      %tmp16_31 = arith.constant dense<5120> : tensor<1x1xi32> loc(#loc142)
      %tmp16_32 = arith.muli %tmp16_31, %xindex_6 : tensor<1x1xi32> loc(#loc142)
      %tmp16_33 = tt.broadcast %tmp16_32 : tensor<1x1xi32> -> tensor<1x512xi32> loc(#loc143)
      %tmp16_34 = arith.addi %r0_index_14, %tmp16_33 : tensor<1x512xi32> loc(#loc143)
      %tmp16_35 = tt.splat %in_ptr0 : !tt.ptr<bf16> -> tensor<1x512x!tt.ptr<bf16>> loc(#loc144)
      %tmp16_36 = tt.addptr %tmp16_35, %tmp16_34 : tensor<1x512x!tt.ptr<bf16>>, tensor<1x512xi32> loc(#loc144)
      %tmp16_37 = tt.broadcast %xmask_7 : tensor<1x1xi1> -> tensor<1x512xi1> loc(#loc145)
      %tmp16_38 = arith.andi %r0_mask_15, %tmp16_37 : tensor<1x512xi1> loc(#loc145)
      %tmp16_39 = arith.constant 0.000000e+00 : f32 loc(#loc146)
      %tmp16_40 = arith.constant dense<0.000000e+00> : tensor<1x512xf32> loc(#loc146)
      %tmp16_41 = arith.truncf %tmp16_40 : tensor<1x512xf32> to tensor<1x512xbf16> loc(#loc146)
      %tmp16_42 = tt.load %tmp16_36, %tmp16_38, %tmp16_41 evictionPolicy = evict_first : tensor<1x512x!tt.ptr<bf16>> loc(#loc146)
      %tmp16_43 = arith.extf %tmp16_42 : tensor<1x512xbf16> to tensor<1x512xf32> loc(#loc147)
      %tmp18 = arith.constant 5120 : i32 loc(#loc148)
      %tmp18_44 = arith.constant 5120 : i32 loc(#loc148)
      %tmp18_45 = arith.constant dense<5120> : tensor<1x1xi32> loc(#loc148)
      %tmp18_46 = arith.muli %tmp18_45, %xindex_6 : tensor<1x1xi32> loc(#loc148)
      %tmp18_47 = tt.broadcast %tmp18_46 : tensor<1x1xi32> -> tensor<1x512xi32> loc(#loc149)
      %tmp18_48 = arith.addi %r0_index_14, %tmp18_47 : tensor<1x512xi32> loc(#loc149)
      %tmp18_49 = tt.splat %in_ptr1 : !tt.ptr<bf16> -> tensor<1x512x!tt.ptr<bf16>> loc(#loc150)
      %tmp18_50 = tt.addptr %tmp18_49, %tmp18_48 : tensor<1x512x!tt.ptr<bf16>>, tensor<1x512xi32> loc(#loc150)
      %tmp18_51 = tt.broadcast %xmask_7 : tensor<1x1xi1> -> tensor<1x512xi1> loc(#loc151)
      %tmp18_52 = arith.andi %r0_mask_15, %tmp18_51 : tensor<1x512xi1> loc(#loc151)
      %tmp18_53 = arith.constant 0.000000e+00 : f32 loc(#loc152)
      %tmp18_54 = arith.constant dense<0.000000e+00> : tensor<1x512xf32> loc(#loc152)
      %tmp18_55 = arith.truncf %tmp18_54 : tensor<1x512xf32> to tensor<1x512xbf16> loc(#loc152)
      %tmp18_56 = tt.load %tmp18_50, %tmp18_52, %tmp18_55 evictionPolicy = evict_first : tensor<1x512x!tt.ptr<bf16>> loc(#loc152)
      %tmp18_57 = arith.extf %tmp18_56 : tensor<1x512xbf16> to tensor<1x512xf32> loc(#loc153)
      %tmp31 = tt.splat %in_ptr2 : !tt.ptr<bf16> -> tensor<1x512x!tt.ptr<bf16>> loc(#loc154)
      %tmp31_58 = tt.addptr %tmp31, %r0_index_14 : tensor<1x512x!tt.ptr<bf16>>, tensor<1x512xi32> loc(#loc154)
      %tmp31_59 = arith.constant 0.000000e+00 : f32 loc(#loc155)
      %tmp31_60 = arith.constant dense<0.000000e+00> : tensor<1x512xf32> loc(#loc155)
      %tmp31_61 = arith.truncf %tmp31_60 : tensor<1x512xf32> to tensor<1x512xbf16> loc(#loc155)
      %tmp31_62 = tt.load %tmp31_58, %r0_mask_15, %tmp31_61 evictionPolicy = evict_last : tensor<1x512x!tt.ptr<bf16>> loc(#loc155)
      %tmp31_63 = arith.extf %tmp31_62 : tensor<1x512xbf16> to tensor<1x512xf32> loc(#loc156)
      %tmp20 = arith.addf %tmp16_43, %tmp18_57 : tensor<1x512xf32> loc(#loc157)
      %tmp23 = arith.addf %tmp14_29, %tmp20 : tensor<1x512xf32> loc(#loc158)
      %tmp24 = arith.constant 5.120000e+03 : f32 loc(#loc159)
      %tmp25 = arith.constant dense<5.120000e+03> : tensor<1x1xf32> loc(#loc160)
      %tmp25_64 = arith.divf %tmp12_11, %tmp25 : tensor<1x1xf32> loc(#loc160)
      %tmp26 = arith.constant 9.99999997E-7 : f32 loc(#loc161)
      %tmp27 = arith.constant dense<9.99999997E-7> : tensor<1x1xf32> loc(#loc162)
      %tmp27_65 = arith.addf %tmp25_64, %tmp27 : tensor<1x1xf32> loc(#loc162)
      %tmp28 = tt.extern_elementwise %tmp27_65 {libname = "", libpath = "", pure = true, symbol = "__nv_rsqrtf"} : (tensor<1x1xf32>) -> tensor<1x1xf32> loc(#loc163)
      %tmp29 = tt.broadcast %tmp28 : tensor<1x1xf32> -> tensor<1x512xf32> loc(#loc164)
      %tmp29_66 = arith.mulf %tmp23, %tmp29 : tensor<1x512xf32> loc(#loc164)
      %tmp32 = arith.mulf %tmp29_66, %tmp31_63 : tensor<1x512xf32> loc(#loc165)
      %c5120_i32 = arith.constant 5120 : i32 loc(#loc74)
      %c5120_i32_67 = arith.constant 5120 : i32 loc(#loc74)
      %cst = arith.constant dense<5120> : tensor<1x1xi32> loc(#loc74)
      %8 = arith.muli %cst, %xindex_6 : tensor<1x1xi32> loc(#loc74)
      %9 = tt.broadcast %8 : tensor<1x1xi32> -> tensor<1x512xi32> loc(#loc75)
      %10 = arith.addi %r0_index_14, %9 : tensor<1x512xi32> loc(#loc75)
      %11 = tt.splat %in_out_ptr0 : !tt.ptr<bf16> -> tensor<1x512x!tt.ptr<bf16>> loc(#loc76)
      %12 = tt.addptr %11, %10 : tensor<1x512x!tt.ptr<bf16>>, tensor<1x512xi32> loc(#loc76)
      %13 = tt.broadcast %xmask_7 : tensor<1x1xi1> -> tensor<1x512xi1> loc(#loc77)
      %14 = arith.andi %r0_mask_15, %13 : tensor<1x512xi1> loc(#loc77)
      %15 = arith.truncf %tmp32 : tensor<1x512xf32> to tensor<1x512xbf16> loc(#loc78)
      tt.store %12, %15, %14 : tensor<1x512x!tt.ptr<bf16>> loc(#loc78)
    } loc(#loc41)
    tt.return loc(#loc79)
  } loc(#loc)
  tt.func private @"triton.language.standard.sum__fp32S1_512S__(1,)cconstexpr_1__(2,)cconstexpr_False__(3,)cNone"(%input: tensor<1x512xf32> loc("input"(#loc80))) -> tensor<1xf32> attributes {noinline = false} {
    %0 = "tt.reduce"(%input) <{axis = 1 : i32}> ({
    ^bb0(%arg1: f32 loc(unknown), %arg2: f32 loc(unknown)):
      %2 = tt.call @triton.language.standard._sum_combine__fp32_fp32__(%arg1, %arg2) : (f32, f32) -> f32 loc(#loc81)
      tt.reduce.return %2 : f32 loc(#loc81)
    }) : (tensor<1x512xf32>) -> tensor<1xf32> loc(#loc81)
    tt.return %0 : tensor<1xf32> loc(#loc83)
  ^bb1:  // no predecessors
    %1 = ub.poison : tensor<1xf32> loc(#loc84)
    tt.return %1 : tensor<1xf32> loc(#loc84)
  } loc(#loc80)
  tt.func private @triton.language.standard._sum_combine__fp32_fp32__(%a: f32 loc("a"(#loc85)), %b: f32 loc("b"(#loc85))) -> f32 attributes {noinline = false} {
    %0 = arith.addf %a, %b : f32 loc(#loc86)
    tt.return %0 : f32 loc(#loc87)
  ^bb1:  // no predecessors
    %1 = ub.poison : f32 loc(#loc88)
    tt.return %1 : f32 loc(#loc88)
  } loc(#loc85)
} loc(#loc)
#loc1 = loc("/tmp/torchinductor_root/kz/ckztzm3qs2a4fpkj7fm3jvl7xbdic4gpmxru2ypbnmebv3bqnbwi.py":19:15)
#loc2 = loc("/tmp/torchinductor_root/kz/ckztzm3qs2a4fpkj7fm3jvl7xbdic4gpmxru2ypbnmebv3bqnbwi.py":22:28)
#loc3 = loc("/tmp/torchinductor_root/kz/ckztzm3qs2a4fpkj7fm3jvl7xbdic4gpmxru2ypbnmebv3bqnbwi.py":22:33)
#loc4 = loc("/tmp/torchinductor_root/kz/ckztzm3qs2a4fpkj7fm3jvl7xbdic4gpmxru2ypbnmebv3bqnbwi.py":23:36)
#loc5 = loc("/tmp/torchinductor_root/kz/ckztzm3qs2a4fpkj7fm3jvl7xbdic4gpmxru2ypbnmebv3bqnbwi.py":23:44)
#loc6 = loc("/tmp/torchinductor_root/kz/ckztzm3qs2a4fpkj7fm3jvl7xbdic4gpmxru2ypbnmebv3bqnbwi.py":23:23)
#loc7 = loc("/tmp/torchinductor_root/kz/ckztzm3qs2a4fpkj7fm3jvl7xbdic4gpmxru2ypbnmebv3bqnbwi.py":24:21)
#loc8 = loc("/tmp/torchinductor_root/kz/ckztzm3qs2a4fpkj7fm3jvl7xbdic4gpmxru2ypbnmebv3bqnbwi.py":25:27)
#loc9 = loc("/tmp/torchinductor_root/kz/ckztzm3qs2a4fpkj7fm3jvl7xbdic4gpmxru2ypbnmebv3bqnbwi.py":25:37)
#loc10 = loc("/tmp/torchinductor_root/kz/ckztzm3qs2a4fpkj7fm3jvl7xbdic4gpmxru2ypbnmebv3bqnbwi.py":28:44)
#loc11 = loc("/tmp/torchinductor_root/kz/ckztzm3qs2a4fpkj7fm3jvl7xbdic4gpmxru2ypbnmebv3bqnbwi.py":29:40)
#loc12 = loc("/tmp/torchinductor_root/kz/ckztzm3qs2a4fpkj7fm3jvl7xbdic4gpmxru2ypbnmebv3bqnbwi.py":30:31)
#loc13 = loc("/tmp/torchinductor_root/kz/ckztzm3qs2a4fpkj7fm3jvl7xbdic4gpmxru2ypbnmebv3bqnbwi.py":31:29)
#loc14 = loc("/tmp/torchinductor_root/kz/ckztzm3qs2a4fpkj7fm3jvl7xbdic4gpmxru2ypbnmebv3bqnbwi.py":35:50)
#loc15 = loc("/tmp/torchinductor_root/kz/ckztzm3qs2a4fpkj7fm3jvl7xbdic4gpmxru2ypbnmebv3bqnbwi.py":35:45)
#loc16 = loc("/tmp/torchinductor_root/kz/ckztzm3qs2a4fpkj7fm3jvl7xbdic4gpmxru2ypbnmebv3bqnbwi.py":35:38)
#loc17 = loc("/tmp/torchinductor_root/kz/ckztzm3qs2a4fpkj7fm3jvl7xbdic4gpmxru2ypbnmebv3bqnbwi.py":35:65)
#loc18 = loc("/tmp/torchinductor_root/kz/ckztzm3qs2a4fpkj7fm3jvl7xbdic4gpmxru2ypbnmebv3bqnbwi.py":35:55)
#loc19 = loc("/tmp/torchinductor_root/kz/ckztzm3qs2a4fpkj7fm3jvl7xbdic4gpmxru2ypbnmebv3bqnbwi.py":35:116)
#loc20 = loc("/tmp/torchinductor_root/kz/ckztzm3qs2a4fpkj7fm3jvl7xbdic4gpmxru2ypbnmebv3bqnbwi.py":36:46)
#loc21 = loc("/tmp/torchinductor_root/kz/ckztzm3qs2a4fpkj7fm3jvl7xbdic4gpmxru2ypbnmebv3bqnbwi.py":36:41)
#loc22 = loc("/tmp/torchinductor_root/kz/ckztzm3qs2a4fpkj7fm3jvl7xbdic4gpmxru2ypbnmebv3bqnbwi.py":36:34)
#loc23 = loc("/tmp/torchinductor_root/kz/ckztzm3qs2a4fpkj7fm3jvl7xbdic4gpmxru2ypbnmebv3bqnbwi.py":36:61)
#loc24 = loc("/tmp/torchinductor_root/kz/ckztzm3qs2a4fpkj7fm3jvl7xbdic4gpmxru2ypbnmebv3bqnbwi.py":36:51)
#loc25 = loc("/tmp/torchinductor_root/kz/ckztzm3qs2a4fpkj7fm3jvl7xbdic4gpmxru2ypbnmebv3bqnbwi.py":36:112)
#loc26 = loc("/tmp/torchinductor_root/kz/ckztzm3qs2a4fpkj7fm3jvl7xbdic4gpmxru2ypbnmebv3bqnbwi.py":37:46)
#loc27 = loc("/tmp/torchinductor_root/kz/ckztzm3qs2a4fpkj7fm3jvl7xbdic4gpmxru2ypbnmebv3bqnbwi.py":37:41)
#loc28 = loc("/tmp/torchinductor_root/kz/ckztzm3qs2a4fpkj7fm3jvl7xbdic4gpmxru2ypbnmebv3bqnbwi.py":37:34)
#loc29 = loc("/tmp/torchinductor_root/kz/ckztzm3qs2a4fpkj7fm3jvl7xbdic4gpmxru2ypbnmebv3bqnbwi.py":37:61)
#loc30 = loc("/tmp/torchinductor_root/kz/ckztzm3qs2a4fpkj7fm3jvl7xbdic4gpmxru2ypbnmebv3bqnbwi.py":37:51)
#loc31 = loc("/tmp/torchinductor_root/kz/ckztzm3qs2a4fpkj7fm3jvl7xbdic4gpmxru2ypbnmebv3bqnbwi.py":37:112)
#loc32 = loc("/tmp/torchinductor_root/kz/ckztzm3qs2a4fpkj7fm3jvl7xbdic4gpmxru2ypbnmebv3bqnbwi.py":41:22)
#loc33 = loc("/tmp/torchinductor_root/kz/ckztzm3qs2a4fpkj7fm3jvl7xbdic4gpmxru2ypbnmebv3bqnbwi.py":44:22)
#loc34 = loc("/tmp/torchinductor_root/kz/ckztzm3qs2a4fpkj7fm3jvl7xbdic4gpmxru2ypbnmebv3bqnbwi.py":45:23)
#loc35 = loc("/tmp/torchinductor_root/kz/ckztzm3qs2a4fpkj7fm3jvl7xbdic4gpmxru2ypbnmebv3bqnbwi.py":47:25)
#loc36 = loc("/tmp/torchinductor_root/kz/ckztzm3qs2a4fpkj7fm3jvl7xbdic4gpmxru2ypbnmebv3bqnbwi.py":48:36)
#loc37 = loc("/tmp/torchinductor_root/kz/ckztzm3qs2a4fpkj7fm3jvl7xbdic4gpmxru2ypbnmebv3bqnbwi.py":48:50)
#loc38 = loc("/tmp/torchinductor_root/kz/ckztzm3qs2a4fpkj7fm3jvl7xbdic4gpmxru2ypbnmebv3bqnbwi.py":48:8)
#loc39 = loc("/tmp/torchinductor_root/kz/ckztzm3qs2a4fpkj7fm3jvl7xbdic4gpmxru2ypbnmebv3bqnbwi.py":49:27)
#loc40 = loc("/tmp/torchinductor_root/kz/ckztzm3qs2a4fpkj7fm3jvl7xbdic4gpmxru2ypbnmebv3bqnbwi.py":49:30)
#loc41 = loc("/tmp/torchinductor_root/kz/ckztzm3qs2a4fpkj7fm3jvl7xbdic4gpmxru2ypbnmebv3bqnbwi.py":50:40)
#loc42 = loc("/tmp/torchinductor_root/kz/ckztzm3qs2a4fpkj7fm3jvl7xbdic4gpmxru2ypbnmebv3bqnbwi.py":51:31)
#loc43 = loc("/tmp/torchinductor_root/kz/ckztzm3qs2a4fpkj7fm3jvl7xbdic4gpmxru2ypbnmebv3bqnbwi.py":52:29)
#loc44 = loc("/tmp/torchinductor_root/kz/ckztzm3qs2a4fpkj7fm3jvl7xbdic4gpmxru2ypbnmebv3bqnbwi.py":56:51)
#loc45 = loc("/tmp/torchinductor_root/kz/ckztzm3qs2a4fpkj7fm3jvl7xbdic4gpmxru2ypbnmebv3bqnbwi.py":56:46)
#loc46 = loc("/tmp/torchinductor_root/kz/ckztzm3qs2a4fpkj7fm3jvl7xbdic4gpmxru2ypbnmebv3bqnbwi.py":56:39)
#loc47 = loc("/tmp/torchinductor_root/kz/ckztzm3qs2a4fpkj7fm3jvl7xbdic4gpmxru2ypbnmebv3bqnbwi.py":56:66)
#loc48 = loc("/tmp/torchinductor_root/kz/ckztzm3qs2a4fpkj7fm3jvl7xbdic4gpmxru2ypbnmebv3bqnbwi.py":56:56)
#loc49 = loc("/tmp/torchinductor_root/kz/ckztzm3qs2a4fpkj7fm3jvl7xbdic4gpmxru2ypbnmebv3bqnbwi.py":56:118)
#loc50 = loc("/tmp/torchinductor_root/kz/ckztzm3qs2a4fpkj7fm3jvl7xbdic4gpmxru2ypbnmebv3bqnbwi.py":57:47)
#loc51 = loc("/tmp/torchinductor_root/kz/ckztzm3qs2a4fpkj7fm3jvl7xbdic4gpmxru2ypbnmebv3bqnbwi.py":57:42)
#loc52 = loc("/tmp/torchinductor_root/kz/ckztzm3qs2a4fpkj7fm3jvl7xbdic4gpmxru2ypbnmebv3bqnbwi.py":57:35)
#loc53 = loc("/tmp/torchinductor_root/kz/ckztzm3qs2a4fpkj7fm3jvl7xbdic4gpmxru2ypbnmebv3bqnbwi.py":57:62)
#loc54 = loc("/tmp/torchinductor_root/kz/ckztzm3qs2a4fpkj7fm3jvl7xbdic4gpmxru2ypbnmebv3bqnbwi.py":57:52)
#loc55 = loc("/tmp/torchinductor_root/kz/ckztzm3qs2a4fpkj7fm3jvl7xbdic4gpmxru2ypbnmebv3bqnbwi.py":57:114)
#loc56 = loc("/tmp/torchinductor_root/kz/ckztzm3qs2a4fpkj7fm3jvl7xbdic4gpmxru2ypbnmebv3bqnbwi.py":58:47)
#loc57 = loc("/tmp/torchinductor_root/kz/ckztzm3qs2a4fpkj7fm3jvl7xbdic4gpmxru2ypbnmebv3bqnbwi.py":58:42)
#loc58 = loc("/tmp/torchinductor_root/kz/ckztzm3qs2a4fpkj7fm3jvl7xbdic4gpmxru2ypbnmebv3bqnbwi.py":58:35)
#loc59 = loc("/tmp/torchinductor_root/kz/ckztzm3qs2a4fpkj7fm3jvl7xbdic4gpmxru2ypbnmebv3bqnbwi.py":58:62)
#loc60 = loc("/tmp/torchinductor_root/kz/ckztzm3qs2a4fpkj7fm3jvl7xbdic4gpmxru2ypbnmebv3bqnbwi.py":58:52)
#loc61 = loc("/tmp/torchinductor_root/kz/ckztzm3qs2a4fpkj7fm3jvl7xbdic4gpmxru2ypbnmebv3bqnbwi.py":58:114)
#loc62 = loc("/tmp/torchinductor_root/kz/ckztzm3qs2a4fpkj7fm3jvl7xbdic4gpmxru2ypbnmebv3bqnbwi.py":59:35)
#loc63 = loc("/tmp/torchinductor_root/kz/ckztzm3qs2a4fpkj7fm3jvl7xbdic4gpmxru2ypbnmebv3bqnbwi.py":59:42)
#loc64 = loc("/tmp/torchinductor_root/kz/ckztzm3qs2a4fpkj7fm3jvl7xbdic4gpmxru2ypbnmebv3bqnbwi.py":59:95)
#loc65 = loc("/tmp/torchinductor_root/kz/ckztzm3qs2a4fpkj7fm3jvl7xbdic4gpmxru2ypbnmebv3bqnbwi.py":63:24)
#loc66 = loc("/tmp/torchinductor_root/kz/ckztzm3qs2a4fpkj7fm3jvl7xbdic4gpmxru2ypbnmebv3bqnbwi.py":66:24)
#loc67 = loc("/tmp/torchinductor_root/kz/ckztzm3qs2a4fpkj7fm3jvl7xbdic4gpmxru2ypbnmebv3bqnbwi.py":67:16)
#loc68 = loc("/tmp/torchinductor_root/kz/ckztzm3qs2a4fpkj7fm3jvl7xbdic4gpmxru2ypbnmebv3bqnbwi.py":68:25)
#loc69 = loc("/tmp/torchinductor_root/kz/ckztzm3qs2a4fpkj7fm3jvl7xbdic4gpmxru2ypbnmebv3bqnbwi.py":69:16)
#loc70 = loc("/tmp/torchinductor_root/kz/ckztzm3qs2a4fpkj7fm3jvl7xbdic4gpmxru2ypbnmebv3bqnbwi.py":70:24)
#loc71 = loc("/tmp/torchinductor_root/kz/ckztzm3qs2a4fpkj7fm3jvl7xbdic4gpmxru2ypbnmebv3bqnbwi.py":71:32)
#loc72 = loc("/tmp/torchinductor_root/kz/ckztzm3qs2a4fpkj7fm3jvl7xbdic4gpmxru2ypbnmebv3bqnbwi.py":72:24)
#loc73 = loc("/tmp/torchinductor_root/kz/ckztzm3qs2a4fpkj7fm3jvl7xbdic4gpmxru2ypbnmebv3bqnbwi.py":74:24)
#loc74 = loc("/tmp/torchinductor_root/kz/ckztzm3qs2a4fpkj7fm3jvl7xbdic4gpmxru2ypbnmebv3bqnbwi.py":75:44)
#loc75 = loc("/tmp/torchinductor_root/kz/ckztzm3qs2a4fpkj7fm3jvl7xbdic4gpmxru2ypbnmebv3bqnbwi.py":75:39)
#loc76 = loc("/tmp/torchinductor_root/kz/ckztzm3qs2a4fpkj7fm3jvl7xbdic4gpmxru2ypbnmebv3bqnbwi.py":75:32)
#loc77 = loc("/tmp/torchinductor_root/kz/ckztzm3qs2a4fpkj7fm3jvl7xbdic4gpmxru2ypbnmebv3bqnbwi.py":75:66)
#loc78 = loc("/tmp/torchinductor_root/kz/ckztzm3qs2a4fpkj7fm3jvl7xbdic4gpmxru2ypbnmebv3bqnbwi.py":75:56)
#loc79 = loc("/tmp/torchinductor_root/kz/ckztzm3qs2a4fpkj7fm3jvl7xbdic4gpmxru2ypbnmebv3bqnbwi.py":50:4)
#loc81 = loc("/root/miniconda3/envs/flagscale-inference/lib/python3.12/site-packages/triton/language/standard.py":291:36)
#loc83 = loc("/root/miniconda3/envs/flagscale-inference/lib/python3.12/site-packages/triton/language/standard.py":291:11)
#loc84 = loc("/root/miniconda3/envs/flagscale-inference/lib/python3.12/site-packages/triton/language/standard.py":291:4)
#loc86 = loc("/root/miniconda3/envs/flagscale-inference/lib/python3.12/site-packages/triton/language/standard.py":261:15)
#loc87 = loc("/root/miniconda3/envs/flagscale-inference/lib/python3.12/site-packages/triton/language/standard.py":261:11)
#loc88 = loc("/root/miniconda3/envs/flagscale-inference/lib/python3.12/site-packages/triton/language/standard.py":261:4)
#loc95 = loc("r0_numel"(#loc1))
#loc96 = loc("xoffset"(#loc2))
#loc97 = loc("xoffset"(#loc3))
#loc98 = loc("xindex"(#loc4))
#loc99 = loc("xindex"(#loc5))
#loc100 = loc("xindex"(#loc6))
#loc101 = loc("xmask"(#loc7))
#loc102 = loc("r0_base"(#loc8))
#loc103 = loc("r0_base"(#loc9))
#loc104 = loc("_tmp12"(#loc10))
#loc105 = loc("_tmp12"(#loc11))
#loc106 = loc("r0_index"(#loc12))
#loc107 = loc("r0_mask"(#loc13))
#loc108 = loc("tmp0"(#loc14))
#loc109 = loc("tmp0"(#loc15))
#loc110 = loc("tmp0"(#loc16))
#loc111 = loc("tmp0"(#loc17))
#loc112 = loc("tmp0"(#loc18))
#loc113 = loc("tmp0"(#loc19))
#loc114 = loc("tmp2"(#loc20))
#loc115 = loc("tmp2"(#loc21))
#loc116 = loc("tmp2"(#loc22))
#loc117 = loc("tmp2"(#loc23))
#loc118 = loc("tmp2"(#loc24))
#loc119 = loc("tmp2"(#loc25))
#loc120 = loc("tmp4"(#loc26))
#loc121 = loc("tmp4"(#loc27))
#loc122 = loc("tmp4"(#loc28))
#loc123 = loc("tmp4"(#loc29))
#loc124 = loc("tmp4"(#loc30))
#loc125 = loc("tmp4"(#loc31))
#loc126 = loc("tmp6"(#loc32))
#loc127 = loc("tmp9"(#loc33))
#loc128 = loc("tmp10"(#loc34))
#loc129 = loc("tmp13"(#loc35))
#loc130 = loc("_tmp12"(#loc36))
#loc131 = loc("_tmp12"(#loc37))
#loc132 = loc("tmp12"(#loc39))
#loc133 = loc("tmp12"(#loc40))
#loc134 = loc("r0_index"(#loc42))
#loc135 = loc("r0_mask"(#loc43))
#loc136 = loc("tmp14"(#loc44))
#loc137 = loc("tmp14"(#loc45))
#loc138 = loc("tmp14"(#loc46))
#loc139 = loc("tmp14"(#loc47))
#loc140 = loc("tmp14"(#loc48))
#loc141 = loc("tmp14"(#loc49))
#loc142 = loc("tmp16"(#loc50))
#loc143 = loc("tmp16"(#loc51))
#loc144 = loc("tmp16"(#loc52))
#loc145 = loc("tmp16"(#loc53))
#loc146 = loc("tmp16"(#loc54))
#loc147 = loc("tmp16"(#loc55))
#loc148 = loc("tmp18"(#loc56))
#loc149 = loc("tmp18"(#loc57))
#loc150 = loc("tmp18"(#loc58))
#loc151 = loc("tmp18"(#loc59))
#loc152 = loc("tmp18"(#loc60))
#loc153 = loc("tmp18"(#loc61))
#loc154 = loc("tmp31"(#loc62))
#loc155 = loc("tmp31"(#loc63))
#loc156 = loc("tmp31"(#loc64))
#loc157 = loc("tmp20"(#loc65))
#loc158 = loc("tmp23"(#loc66))
#loc159 = loc("tmp24"(#loc67))
#loc160 = loc("tmp25"(#loc68))
#loc161 = loc("tmp26"(#loc69))
#loc162 = loc("tmp27"(#loc70))
#loc163 = loc("tmp28"(#loc71))
#loc164 = loc("tmp29"(#loc72))
#loc165 = loc("tmp32"(#loc73))
